{"config": {"input_layers": [["input_1", 0, 0]], "output_layers": [["dense_1", 0, 0]], "name": "model_1", "layers": [{"inbound_nodes": [], "config": {"dtype": "float32", "batch_input_shape": [null, 32, 32, 3], "sparse": false, "name": "input_1"}, "class_name": "InputLayer", "name": "input_1"}, {"inbound_nodes": [[["input_1", 0, 0, {}]]], "config": {"kernel_constraint": null, "strides": [1, 1], "bias_initializer": {"config": {}, "class_name": "Zeros"}, "name": "conv2d_1", "activity_regularizer": null, "padding": "same", "dilation_rate": [1, 1], "activation": "linear", "kernel_size": [3, 3], "filters": 16, "use_bias": true, "bias_constraint": null, "bias_regularizer": null, "kernel_initializer": {"config": {"mode": "fan_in", "seed": null, "distribution": "normal", "scale": 2.0}, "class_name": "VarianceScaling"}, "trainable": true, "data_format": "channels_last", "kernel_regularizer": {"config": {"l1": 0.0, "l2": 9.999999747378752e-05}, "class_name": "L1L2"}}, "class_name": "Conv2D", "name": "conv2d_1"}, {"inbound_nodes": [[["conv2d_1", 0, 0, {}]]], "config": {"epsilon": 0.001, "name": "batch_normalization_1", "beta_constraint": null, "moving_variance_initializer": {"config": {}, "class_name": "Ones"}, "center": true, "beta_regularizer": null, "momentum": 0.99, "axis": -1, "gamma_regularizer": null, "trainable": true, "beta_initializer": {"config": {}, "class_name": "Zeros"}, "gamma_constraint": null, "moving_mean_initializer": {"config": {}, "class_name": "Zeros"}, "scale": true, "gamma_initializer": {"config": {}, "class_name": "Ones"}}, "class_name": "BatchNormalization", "name": "batch_normalization_1"}, {"inbound_nodes": [[["batch_normalization_1", 0, 0, {}]]], "config": {"activation": "relu", "name": "activation_1", "trainable": true}, "class_name": "Activation", "name": "activation_1"}, {"inbound_nodes": [[["activation_1", 0, 0, {}]]], "config": {"kernel_constraint": null, "strides": [1, 1], "bias_initializer": {"config": {}, "class_name": "Zeros"}, "name": "conv2d_2", "activity_regularizer": null, "padding": "same", "dilation_rate": [1, 1], "activation": "linear", "kernel_size": [3, 3], "filters": 16, "use_bias": true, "bias_constraint": null, "bias_regularizer": null, "kernel_initializer": {"config": {"mode": "fan_in", "seed": null, "distribution": "normal", "scale": 2.0}, "class_name": "VarianceScaling"}, "trainable": true, "data_format": "channels_last", "kernel_regularizer": {"config": {"l1": 0.0, "l2": 9.999999747378752e-05}, "class_name": "L1L2"}}, "class_name": "Conv2D", "name": "conv2d_2"}, {"inbound_nodes": [[["conv2d_2", 0, 0, {}]]], "config": {"epsilon": 0.001, "name": "batch_normalization_2", "beta_constraint": null, "moving_variance_initializer": {"config": {}, "class_name": "Ones"}, "center": true, "beta_regularizer": null, "momentum": 0.99, "axis": -1, "gamma_regularizer": null, "trainable": true, "beta_initializer": {"config": {}, "class_name": "Zeros"}, "gamma_constraint": null, "moving_mean_initializer": {"config": {}, "class_name": "Zeros"}, "scale": true, "gamma_initializer": {"config": {}, "class_name": "Ones"}}, "class_name": "BatchNormalization", "name": "batch_normalization_2"}, {"inbound_nodes": [[["batch_normalization_2", 0, 0, {}]]], "config": {"activation": "relu", "name": "activation_2", "trainable": true}, "class_name": "Activation", "name": "activation_2"}, {"inbound_nodes": [[["activation_2", 0, 0, {}]]], "config": {"kernel_constraint": null, "strides": [1, 1], "bias_initializer": {"config": {}, "class_name": "Zeros"}, "name": "conv2d_3", "activity_regularizer": null, "padding": "same", "dilation_rate": [1, 1], "activation": "linear", "kernel_size": [3, 3], "filters": 16, "use_bias": true, "bias_constraint": null, "bias_regularizer": null, "kernel_initializer": {"config": {"mode": "fan_in", "seed": null, "distribution": "normal", "scale": 2.0}, "class_name": "VarianceScaling"}, "trainable": true, "data_format": "channels_last", "kernel_regularizer": {"config": {"l1": 0.0, "l2": 9.999999747378752e-05}, "class_name": "L1L2"}}, "class_name": "Conv2D", "name": "conv2d_3"}, {"inbound_nodes": [[["conv2d_3", 0, 0, {}]]], "config": {"epsilon": 0.001, "name": "batch_normalization_3", "beta_constraint": null, "moving_variance_initializer": {"config": {}, "class_name": "Ones"}, "center": true, "beta_regularizer": null, "momentum": 0.99, "axis": -1, "gamma_regularizer": null, "trainable": true, "beta_initializer": {"config": {}, "class_name": "Zeros"}, "gamma_constraint": null, "moving_mean_initializer": {"config": {}, "class_name": "Zeros"}, "scale": true, "gamma_initializer": {"config": {}, "class_name": "Ones"}}, "class_name": "BatchNormalization", "name": "batch_normalization_3"}, {"inbound_nodes": [[["activation_1", 0, 0, {}], ["batch_normalization_3", 0, 0, {}]]], "config": {"name": "add_1", "trainable": true}, "class_name": "Add", "name": "add_1"}, {"inbound_nodes": [[["add_1", 0, 0, {}]]], "config": {"activation": "relu", "name": "activation_3", "trainable": true}, "class_name": "Activation", "name": "activation_3"}, {"inbound_nodes": [[["activation_3", 0, 0, {}]]], "config": {"kernel_constraint": null, "strides": [1, 1], "bias_initializer": {"config": {}, "class_name": "Zeros"}, "name": "conv2d_4", "activity_regularizer": null, "padding": "same", "dilation_rate": [1, 1], "activation": "linear", "kernel_size": [3, 3], "filters": 16, "use_bias": true, "bias_constraint": null, "bias_regularizer": null, "kernel_initializer": {"config": {"mode": "fan_in", "seed": null, "distribution": "normal", "scale": 2.0}, "class_name": "VarianceScaling"}, "trainable": true, "data_format": "channels_last", "kernel_regularizer": {"config": {"l1": 0.0, "l2": 9.999999747378752e-05}, "class_name": "L1L2"}}, "class_name": "Conv2D", "name": "conv2d_4"}, {"inbound_nodes": [[["conv2d_4", 0, 0, {}]]], "config": {"epsilon": 0.001, "name": "batch_normalization_4", "beta_constraint": null, "moving_variance_initializer": {"config": {}, "class_name": "Ones"}, "center": true, "beta_regularizer": null, "momentum": 0.99, "axis": -1, "gamma_regularizer": null, "trainable": true, "beta_initializer": {"config": {}, "class_name": "Zeros"}, "gamma_constraint": null, "moving_mean_initializer": {"config": {}, "class_name": "Zeros"}, "scale": true, "gamma_initializer": {"config": {}, "class_name": "Ones"}}, "class_name": "BatchNormalization", "name": "batch_normalization_4"}, {"inbound_nodes": [[["batch_normalization_4", 0, 0, {}]]], "config": {"activation": "relu", "name": "activation_4", "trainable": true}, "class_name": "Activation", "name": "activation_4"}, {"inbound_nodes": [[["activation_4", 0, 0, {}]]], "config": {"kernel_constraint": null, "strides": [1, 1], "bias_initializer": {"config": {}, "class_name": "Zeros"}, "name": "conv2d_5", "activity_regularizer": null, "padding": "same", "dilation_rate": [1, 1], "activation": "linear", "kernel_size": [3, 3], "filters": 16, "use_bias": true, "bias_constraint": null, "bias_regularizer": null, "kernel_initializer": {"config": {"mode": "fan_in", "seed": null, "distribution": "normal", "scale": 2.0}, "class_name": "VarianceScaling"}, "trainable": true, "data_format": "channels_last", "kernel_regularizer": {"config": {"l1": 0.0, "l2": 9.999999747378752e-05}, "class_name": "L1L2"}}, "class_name": "Conv2D", "name": "conv2d_5"}, {"inbound_nodes": [[["conv2d_5", 0, 0, {}]]], "config": {"epsilon": 0.001, "name": "batch_normalization_5", "beta_constraint": null, "moving_variance_initializer": {"config": {}, "class_name": "Ones"}, "center": true, "beta_regularizer": null, "momentum": 0.99, "axis": -1, "gamma_regularizer": null, "trainable": true, "beta_initializer": {"config": {}, "class_name": "Zeros"}, "gamma_constraint": null, "moving_mean_initializer": {"config": {}, "class_name": "Zeros"}, "scale": true, "gamma_initializer": {"config": {}, "class_name": "Ones"}}, "class_name": "BatchNormalization", "name": "batch_normalization_5"}, {"inbound_nodes": [[["activation_3", 0, 0, {}], ["batch_normalization_5", 0, 0, {}]]], "config": {"name": "add_2", "trainable": true}, "class_name": "Add", "name": "add_2"}, {"inbound_nodes": [[["add_2", 0, 0, {}]]], "config": {"activation": "relu", "name": "activation_5", "trainable": true}, "class_name": "Activation", "name": "activation_5"}, {"inbound_nodes": [[["activation_5", 0, 0, {}]]], "config": {"kernel_constraint": null, "strides": [1, 1], "bias_initializer": {"config": {}, "class_name": "Zeros"}, "name": "conv2d_6", "activity_regularizer": null, "padding": "same", "dilation_rate": [1, 1], "activation": "linear", "kernel_size": [3, 3], "filters": 16, "use_bias": true, "bias_constraint": null, "bias_regularizer": null, "kernel_initializer": {"config": {"mode": "fan_in", "seed": null, "distribution": "normal", "scale": 2.0}, "class_name": "VarianceScaling"}, "trainable": true, "data_format": "channels_last", "kernel_regularizer": {"config": {"l1": 0.0, "l2": 9.999999747378752e-05}, "class_name": "L1L2"}}, "class_name": "Conv2D", "name": "conv2d_6"}, {"inbound_nodes": [[["conv2d_6", 0, 0, {}]]], "config": {"epsilon": 0.001, "name": "batch_normalization_6", "beta_constraint": null, "moving_variance_initializer": {"config": {}, "class_name": "Ones"}, "center": true, "beta_regularizer": null, "momentum": 0.99, "axis": -1, "gamma_regularizer": null, "trainable": true, "beta_initializer": {"config": {}, "class_name": "Zeros"}, "gamma_constraint": null, "moving_mean_initializer": {"config": {}, "class_name": "Zeros"}, "scale": true, "gamma_initializer": {"config": {}, "class_name": "Ones"}}, "class_name": "BatchNormalization", "name": "batch_normalization_6"}, {"inbound_nodes": [[["batch_normalization_6", 0, 0, {}]]], "config": {"activation": "relu", "name": "activation_6", "trainable": true}, "class_name": "Activation", "name": "activation_6"}, {"inbound_nodes": [[["activation_6", 0, 0, {}]]], "config": {"kernel_constraint": null, "strides": [1, 1], "bias_initializer": {"config": {}, "class_name": "Zeros"}, "name": "conv2d_7", "activity_regularizer": null, "padding": "same", "dilation_rate": [1, 1], "activation": "linear", "kernel_size": [3, 3], "filters": 16, "use_bias": true, "bias_constraint": null, "bias_regularizer": null, "kernel_initializer": {"config": {"mode": "fan_in", "seed": null, "distribution": "normal", "scale": 2.0}, "class_name": "VarianceScaling"}, "trainable": true, "data_format": "channels_last", "kernel_regularizer": {"config": {"l1": 0.0, "l2": 9.999999747378752e-05}, "class_name": "L1L2"}}, "class_name": "Conv2D", "name": "conv2d_7"}, {"inbound_nodes": [[["conv2d_7", 0, 0, {}]]], "config": {"epsilon": 0.001, "name": "batch_normalization_7", "beta_constraint": null, "moving_variance_initializer": {"config": {}, "class_name": "Ones"}, "center": true, "beta_regularizer": null, "momentum": 0.99, "axis": -1, "gamma_regularizer": null, "trainable": true, "beta_initializer": {"config": {}, "class_name": "Zeros"}, "gamma_constraint": null, "moving_mean_initializer": {"config": {}, "class_name": "Zeros"}, "scale": true, "gamma_initializer": {"config": {}, "class_name": "Ones"}}, "class_name": "BatchNormalization", "name": "batch_normalization_7"}, {"inbound_nodes": [[["activation_5", 0, 0, {}], ["batch_normalization_7", 0, 0, {}]]], "config": {"name": "add_3", "trainable": true}, "class_name": "Add", "name": "add_3"}, {"inbound_nodes": [[["add_3", 0, 0, {}]]], "config": {"activation": "relu", "name": "activation_7", "trainable": true}, "class_name": "Activation", "name": "activation_7"}, {"inbound_nodes": [[["activation_7", 0, 0, {}]]], "config": {"kernel_constraint": null, "strides": [1, 1], "bias_initializer": {"config": {}, "class_name": "Zeros"}, "name": "conv2d_8", "activity_regularizer": null, "padding": "same", "dilation_rate": [1, 1], "activation": "linear", "kernel_size": [3, 3], "filters": 16, "use_bias": true, "bias_constraint": null, "bias_regularizer": null, "kernel_initializer": {"config": {"mode": "fan_in", "seed": null, "distribution": "normal", "scale": 2.0}, "class_name": "VarianceScaling"}, "trainable": true, "data_format": "channels_last", "kernel_regularizer": {"config": {"l1": 0.0, "l2": 9.999999747378752e-05}, "class_name": "L1L2"}}, "class_name": "Conv2D", "name": "conv2d_8"}, {"inbound_nodes": [[["conv2d_8", 0, 0, {}]]], "config": {"epsilon": 0.001, "name": "batch_normalization_8", "beta_constraint": null, "moving_variance_initializer": {"config": {}, "class_name": "Ones"}, "center": true, "beta_regularizer": null, "momentum": 0.99, "axis": -1, "gamma_regularizer": null, "trainable": true, "beta_initializer": {"config": {}, "class_name": "Zeros"}, "gamma_constraint": null, "moving_mean_initializer": {"config": {}, "class_name": "Zeros"}, "scale": true, "gamma_initializer": {"config": {}, "class_name": "Ones"}}, "class_name": "BatchNormalization", "name": "batch_normalization_8"}, {"inbound_nodes": [[["batch_normalization_8", 0, 0, {}]]], "config": {"activation": "relu", "name": "activation_8", "trainable": true}, "class_name": "Activation", "name": "activation_8"}, {"inbound_nodes": [[["activation_8", 0, 0, {}]]], "config": {"kernel_constraint": null, "strides": [1, 1], "bias_initializer": {"config": {}, "class_name": "Zeros"}, "name": "conv2d_9", "activity_regularizer": null, "padding": "same", "dilation_rate": [1, 1], "activation": "linear", "kernel_size": [3, 3], "filters": 16, "use_bias": true, "bias_constraint": null, "bias_regularizer": null, "kernel_initializer": {"config": {"mode": "fan_in", "seed": null, "distribution": "normal", "scale": 2.0}, "class_name": "VarianceScaling"}, "trainable": true, "data_format": "channels_last", "kernel_regularizer": {"config": {"l1": 0.0, "l2": 9.999999747378752e-05}, "class_name": "L1L2"}}, "class_name": "Conv2D", "name": "conv2d_9"}, {"inbound_nodes": [[["conv2d_9", 0, 0, {}]]], "config": {"epsilon": 0.001, "name": "batch_normalization_9", "beta_constraint": null, "moving_variance_initializer": {"config": {}, "class_name": "Ones"}, "center": true, "beta_regularizer": null, "momentum": 0.99, "axis": -1, "gamma_regularizer": null, "trainable": true, "beta_initializer": {"config": {}, "class_name": "Zeros"}, "gamma_constraint": null, "moving_mean_initializer": {"config": {}, "class_name": "Zeros"}, "scale": true, "gamma_initializer": {"config": {}, "class_name": "Ones"}}, "class_name": "BatchNormalization", "name": "batch_normalization_9"}, {"inbound_nodes": [[["activation_7", 0, 0, {}], ["batch_normalization_9", 0, 0, {}]]], "config": {"name": "add_4", "trainable": true}, "class_name": "Add", "name": "add_4"}, {"inbound_nodes": [[["add_4", 0, 0, {}]]], "config": {"activation": "relu", "name": "activation_9", "trainable": true}, "class_name": "Activation", "name": "activation_9"}, {"inbound_nodes": [[["activation_9", 0, 0, {}]]], "config": {"kernel_constraint": null, "strides": [1, 1], "bias_initializer": {"config": {}, "class_name": "Zeros"}, "name": "conv2d_10", "activity_regularizer": null, "padding": "same", "dilation_rate": [1, 1], "activation": "linear", "kernel_size": [3, 3], "filters": 16, "use_bias": true, "bias_constraint": null, "bias_regularizer": null, "kernel_initializer": {"config": {"mode": "fan_in", "seed": null, "distribution": "normal", "scale": 2.0}, "class_name": "VarianceScaling"}, "trainable": true, "data_format": "channels_last", "kernel_regularizer": {"config": {"l1": 0.0, "l2": 9.999999747378752e-05}, "class_name": "L1L2"}}, "class_name": "Conv2D", "name": "conv2d_10"}, {"inbound_nodes": [[["conv2d_10", 0, 0, {}]]], "config": {"epsilon": 0.001, "name": "batch_normalization_10", "beta_constraint": null, "moving_variance_initializer": {"config": {}, "class_name": "Ones"}, "center": true, "beta_regularizer": null, "momentum": 0.99, "axis": -1, "gamma_regularizer": null, "trainable": true, "beta_initializer": {"config": {}, "class_name": "Zeros"}, "gamma_constraint": null, "moving_mean_initializer": {"config": {}, "class_name": "Zeros"}, "scale": true, "gamma_initializer": {"config": {}, "class_name": "Ones"}}, "class_name": "BatchNormalization", "name": "batch_normalization_10"}, {"inbound_nodes": [[["batch_normalization_10", 0, 0, {}]]], "config": {"activation": "relu", "name": "activation_10", "trainable": true}, "class_name": "Activation", "name": "activation_10"}, {"inbound_nodes": [[["activation_10", 0, 0, {}]]], "config": {"kernel_constraint": null, "strides": [1, 1], "bias_initializer": {"config": {}, "class_name": "Zeros"}, "name": "conv2d_11", "activity_regularizer": null, "padding": "same", "dilation_rate": [1, 1], "activation": "linear", "kernel_size": [3, 3], "filters": 16, "use_bias": true, "bias_constraint": null, "bias_regularizer": null, "kernel_initializer": {"config": {"mode": "fan_in", "seed": null, "distribution": "normal", "scale": 2.0}, "class_name": "VarianceScaling"}, "trainable": true, "data_format": "channels_last", "kernel_regularizer": {"config": {"l1": 0.0, "l2": 9.999999747378752e-05}, "class_name": "L1L2"}}, "class_name": "Conv2D", "name": "conv2d_11"}, {"inbound_nodes": [[["conv2d_11", 0, 0, {}]]], "config": {"epsilon": 0.001, "name": "batch_normalization_11", "beta_constraint": null, "moving_variance_initializer": {"config": {}, "class_name": "Ones"}, "center": true, "beta_regularizer": null, "momentum": 0.99, "axis": -1, "gamma_regularizer": null, "trainable": true, "beta_initializer": {"config": {}, "class_name": "Zeros"}, "gamma_constraint": null, "moving_mean_initializer": {"config": {}, "class_name": "Zeros"}, "scale": true, "gamma_initializer": {"config": {}, "class_name": "Ones"}}, "class_name": "BatchNormalization", "name": "batch_normalization_11"}, {"inbound_nodes": [[["activation_9", 0, 0, {}], ["batch_normalization_11", 0, 0, {}]]], "config": {"name": "add_5", "trainable": true}, "class_name": "Add", "name": "add_5"}, {"inbound_nodes": [[["add_5", 0, 0, {}]]], "config": {"activation": "relu", "name": "activation_11", "trainable": true}, "class_name": "Activation", "name": "activation_11"}, {"inbound_nodes": [[["activation_11", 0, 0, {}]]], "config": {"kernel_constraint": null, "strides": [1, 1], "bias_initializer": {"config": {}, "class_name": "Zeros"}, "name": "conv2d_12", "activity_regularizer": null, "padding": "same", "dilation_rate": [1, 1], "activation": "linear", "kernel_size": [3, 3], "filters": 16, "use_bias": true, "bias_constraint": null, "bias_regularizer": null, "kernel_initializer": {"config": {"mode": "fan_in", "seed": null, "distribution": "normal", "scale": 2.0}, "class_name": "VarianceScaling"}, "trainable": true, "data_format": "channels_last", "kernel_regularizer": {"config": {"l1": 0.0, "l2": 9.999999747378752e-05}, "class_name": "L1L2"}}, "class_name": "Conv2D", "name": "conv2d_12"}, {"inbound_nodes": [[["conv2d_12", 0, 0, {}]]], "config": {"epsilon": 0.001, "name": "batch_normalization_12", "beta_constraint": null, "moving_variance_initializer": {"config": {}, "class_name": "Ones"}, "center": true, "beta_regularizer": null, "momentum": 0.99, "axis": -1, "gamma_regularizer": null, "trainable": true, "beta_initializer": {"config": {}, "class_name": "Zeros"}, "gamma_constraint": null, "moving_mean_initializer": {"config": {}, "class_name": "Zeros"}, "scale": true, "gamma_initializer": {"config": {}, "class_name": "Ones"}}, "class_name": "BatchNormalization", "name": "batch_normalization_12"}, {"inbound_nodes": [[["batch_normalization_12", 0, 0, {}]]], "config": {"activation": "relu", "name": "activation_12", "trainable": true}, "class_name": "Activation", "name": "activation_12"}, {"inbound_nodes": [[["activation_12", 0, 0, {}]]], "config": {"kernel_constraint": null, "strides": [1, 1], "bias_initializer": {"config": {}, "class_name": "Zeros"}, "name": "conv2d_13", "activity_regularizer": null, "padding": "same", "dilation_rate": [1, 1], "activation": "linear", "kernel_size": [3, 3], "filters": 16, "use_bias": true, "bias_constraint": null, "bias_regularizer": null, "kernel_initializer": {"config": {"mode": "fan_in", "seed": null, "distribution": "normal", "scale": 2.0}, "class_name": "VarianceScaling"}, "trainable": true, "data_format": "channels_last", "kernel_regularizer": {"config": {"l1": 0.0, "l2": 9.999999747378752e-05}, "class_name": "L1L2"}}, "class_name": "Conv2D", "name": "conv2d_13"}, {"inbound_nodes": [[["conv2d_13", 0, 0, {}]]], "config": {"epsilon": 0.001, "name": "batch_normalization_13", "beta_constraint": null, "moving_variance_initializer": {"config": {}, "class_name": "Ones"}, "center": true, "beta_regularizer": null, "momentum": 0.99, "axis": -1, "gamma_regularizer": null, "trainable": true, "beta_initializer": {"config": {}, "class_name": "Zeros"}, "gamma_constraint": null, "moving_mean_initializer": {"config": {}, "class_name": "Zeros"}, "scale": true, "gamma_initializer": {"config": {}, "class_name": "Ones"}}, "class_name": "BatchNormalization", "name": "batch_normalization_13"}, {"inbound_nodes": [[["activation_11", 0, 0, {}], ["batch_normalization_13", 0, 0, {}]]], "config": {"name": "add_6", "trainable": true}, "class_name": "Add", "name": "add_6"}, {"inbound_nodes": [[["add_6", 0, 0, {}]]], "config": {"activation": "relu", "name": "activation_13", "trainable": true}, "class_name": "Activation", "name": "activation_13"}, {"inbound_nodes": [[["activation_13", 0, 0, {}]]], "config": {"kernel_constraint": null, "strides": [1, 1], "bias_initializer": {"config": {}, "class_name": "Zeros"}, "name": "conv2d_14", "activity_regularizer": null, "padding": "same", "dilation_rate": [1, 1], "activation": "linear", "kernel_size": [3, 3], "filters": 16, "use_bias": true, "bias_constraint": null, "bias_regularizer": null, "kernel_initializer": {"config": {"mode": "fan_in", "seed": null, "distribution": "normal", "scale": 2.0}, "class_name": "VarianceScaling"}, "trainable": true, "data_format": "channels_last", "kernel_regularizer": {"config": {"l1": 0.0, "l2": 9.999999747378752e-05}, "class_name": "L1L2"}}, "class_name": "Conv2D", "name": "conv2d_14"}, {"inbound_nodes": [[["conv2d_14", 0, 0, {}]]], "config": {"epsilon": 0.001, "name": "batch_normalization_14", "beta_constraint": null, "moving_variance_initializer": {"config": {}, "class_name": "Ones"}, "center": true, "beta_regularizer": null, "momentum": 0.99, "axis": -1, "gamma_regularizer": null, "trainable": true, "beta_initializer": {"config": {}, "class_name": "Zeros"}, "gamma_constraint": null, "moving_mean_initializer": {"config": {}, "class_name": "Zeros"}, "scale": true, "gamma_initializer": {"config": {}, "class_name": "Ones"}}, "class_name": "BatchNormalization", "name": "batch_normalization_14"}, {"inbound_nodes": [[["batch_normalization_14", 0, 0, {}]]], "config": {"activation": "relu", "name": "activation_14", "trainable": true}, "class_name": "Activation", "name": "activation_14"}, {"inbound_nodes": [[["activation_14", 0, 0, {}]]], "config": {"kernel_constraint": null, "strides": [1, 1], "bias_initializer": {"config": {}, "class_name": "Zeros"}, "name": "conv2d_15", "activity_regularizer": null, "padding": "same", "dilation_rate": [1, 1], "activation": "linear", "kernel_size": [3, 3], "filters": 16, "use_bias": true, "bias_constraint": null, "bias_regularizer": null, "kernel_initializer": {"config": {"mode": "fan_in", "seed": null, "distribution": "normal", "scale": 2.0}, "class_name": "VarianceScaling"}, "trainable": true, "data_format": "channels_last", "kernel_regularizer": {"config": {"l1": 0.0, "l2": 9.999999747378752e-05}, "class_name": "L1L2"}}, "class_name": "Conv2D", "name": "conv2d_15"}, {"inbound_nodes": [[["conv2d_15", 0, 0, {}]]], "config": {"epsilon": 0.001, "name": "batch_normalization_15", "beta_constraint": null, "moving_variance_initializer": {"config": {}, "class_name": "Ones"}, "center": true, "beta_regularizer": null, "momentum": 0.99, "axis": -1, "gamma_regularizer": null, "trainable": true, "beta_initializer": {"config": {}, "class_name": "Zeros"}, "gamma_constraint": null, "moving_mean_initializer": {"config": {}, "class_name": "Zeros"}, "scale": true, "gamma_initializer": {"config": {}, "class_name": "Ones"}}, "class_name": "BatchNormalization", "name": "batch_normalization_15"}, {"inbound_nodes": [[["activation_13", 0, 0, {}], ["batch_normalization_15", 0, 0, {}]]], "config": {"name": "add_7", "trainable": true}, "class_name": "Add", "name": "add_7"}, {"inbound_nodes": [[["add_7", 0, 0, {}]]], "config": {"activation": "relu", "name": "activation_15", "trainable": true}, "class_name": "Activation", "name": "activation_15"}, {"inbound_nodes": [[["activation_15", 0, 0, {}]]], "config": {"kernel_constraint": null, "strides": [2, 2], "bias_initializer": {"config": {}, "class_name": "Zeros"}, "name": "conv2d_16", "activity_regularizer": null, "padding": "same", "dilation_rate": [1, 1], "activation": "linear", "kernel_size": [3, 3], "filters": 32, "use_bias": true, "bias_constraint": null, "bias_regularizer": null, "kernel_initializer": {"config": {"mode": "fan_in", "seed": null, "distribution": "normal", "scale": 2.0}, "class_name": "VarianceScaling"}, "trainable": true, "data_format": "channels_last", "kernel_regularizer": {"config": {"l1": 0.0, "l2": 9.999999747378752e-05}, "class_name": "L1L2"}}, "class_name": "Conv2D", "name": "conv2d_16"}, {"inbound_nodes": [[["conv2d_16", 0, 0, {}]]], "config": {"epsilon": 0.001, "name": "batch_normalization_16", "beta_constraint": null, "moving_variance_initializer": {"config": {}, "class_name": "Ones"}, "center": true, "beta_regularizer": null, "momentum": 0.99, "axis": -1, "gamma_regularizer": null, "trainable": true, "beta_initializer": {"config": {}, "class_name": "Zeros"}, "gamma_constraint": null, "moving_mean_initializer": {"config": {}, "class_name": "Zeros"}, "scale": true, "gamma_initializer": {"config": {}, "class_name": "Ones"}}, "class_name": "BatchNormalization", "name": "batch_normalization_16"}, {"inbound_nodes": [[["batch_normalization_16", 0, 0, {}]]], "config": {"activation": "relu", "name": "activation_16", "trainable": true}, "class_name": "Activation", "name": "activation_16"}, {"inbound_nodes": [[["activation_16", 0, 0, {}]]], "config": {"kernel_constraint": null, "strides": [1, 1], "bias_initializer": {"config": {}, "class_name": "Zeros"}, "name": "conv2d_17", "activity_regularizer": null, "padding": "same", "dilation_rate": [1, 1], "activation": "linear", "kernel_size": [3, 3], "filters": 32, "use_bias": true, "bias_constraint": null, "bias_regularizer": null, "kernel_initializer": {"config": {"mode": "fan_in", "seed": null, "distribution": "normal", "scale": 2.0}, "class_name": "VarianceScaling"}, "trainable": true, "data_format": "channels_last", "kernel_regularizer": {"config": {"l1": 0.0, "l2": 9.999999747378752e-05}, "class_name": "L1L2"}}, "class_name": "Conv2D", "name": "conv2d_17"}, {"inbound_nodes": [[["activation_15", 0, 0, {}]]], "config": {"kernel_constraint": null, "strides": [2, 2], "bias_initializer": {"config": {}, "class_name": "Zeros"}, "name": "conv2d_18", "activity_regularizer": null, "padding": "same", "dilation_rate": [1, 1], "activation": "linear", "kernel_size": [1, 1], "filters": 32, "use_bias": true, "bias_constraint": null, "bias_regularizer": null, "kernel_initializer": {"config": {"mode": "fan_in", "seed": null, "distribution": "normal", "scale": 2.0}, "class_name": "VarianceScaling"}, "trainable": true, "data_format": "channels_last", "kernel_regularizer": {"config": {"l1": 0.0, "l2": 9.999999747378752e-05}, "class_name": "L1L2"}}, "class_name": "Conv2D", "name": "conv2d_18"}, {"inbound_nodes": [[["conv2d_17", 0, 0, {}]]], "config": {"epsilon": 0.001, "name": "batch_normalization_17", "beta_constraint": null, "moving_variance_initializer": {"config": {}, "class_name": "Ones"}, "center": true, "beta_regularizer": null, "momentum": 0.99, "axis": -1, "gamma_regularizer": null, "trainable": true, "beta_initializer": {"config": {}, "class_name": "Zeros"}, "gamma_constraint": null, "moving_mean_initializer": {"config": {}, "class_name": "Zeros"}, "scale": true, "gamma_initializer": {"config": {}, "class_name": "Ones"}}, "class_name": "BatchNormalization", "name": "batch_normalization_17"}, {"inbound_nodes": [[["conv2d_18", 0, 0, {}], ["batch_normalization_17", 0, 0, {}]]], "config": {"name": "add_8", "trainable": true}, "class_name": "Add", "name": "add_8"}, {"inbound_nodes": [[["add_8", 0, 0, {}]]], "config": {"activation": "relu", "name": "activation_17", "trainable": true}, "class_name": "Activation", "name": "activation_17"}, {"inbound_nodes": [[["activation_17", 0, 0, {}]]], "config": {"kernel_constraint": null, "strides": [1, 1], "bias_initializer": {"config": {}, "class_name": "Zeros"}, "name": "conv2d_19", "activity_regularizer": null, "padding": "same", "dilation_rate": [1, 1], "activation": "linear", "kernel_size": [3, 3], "filters": 32, "use_bias": true, "bias_constraint": null, "bias_regularizer": null, "kernel_initializer": {"config": {"mode": "fan_in", "seed": null, "distribution": "normal", "scale": 2.0}, "class_name": "VarianceScaling"}, "trainable": true, "data_format": "channels_last", "kernel_regularizer": {"config": {"l1": 0.0, "l2": 9.999999747378752e-05}, "class_name": "L1L2"}}, "class_name": "Conv2D", "name": "conv2d_19"}, {"inbound_nodes": [[["conv2d_19", 0, 0, {}]]], "config": {"epsilon": 0.001, "name": "batch_normalization_18", "beta_constraint": null, "moving_variance_initializer": {"config": {}, "class_name": "Ones"}, "center": true, "beta_regularizer": null, "momentum": 0.99, "axis": -1, "gamma_regularizer": null, "trainable": true, "beta_initializer": {"config": {}, "class_name": "Zeros"}, "gamma_constraint": null, "moving_mean_initializer": {"config": {}, "class_name": "Zeros"}, "scale": true, "gamma_initializer": {"config": {}, "class_name": "Ones"}}, "class_name": "BatchNormalization", "name": "batch_normalization_18"}, {"inbound_nodes": [[["batch_normalization_18", 0, 0, {}]]], "config": {"activation": "relu", "name": "activation_18", "trainable": true}, "class_name": "Activation", "name": "activation_18"}, {"inbound_nodes": [[["activation_18", 0, 0, {}]]], "config": {"kernel_constraint": null, "strides": [1, 1], "bias_initializer": {"config": {}, "class_name": "Zeros"}, "name": "conv2d_20", "activity_regularizer": null, "padding": "same", "dilation_rate": [1, 1], "activation": "linear", "kernel_size": [3, 3], "filters": 32, "use_bias": true, "bias_constraint": null, "bias_regularizer": null, "kernel_initializer": {"config": {"mode": "fan_in", "seed": null, "distribution": "normal", "scale": 2.0}, "class_name": "VarianceScaling"}, "trainable": true, "data_format": "channels_last", "kernel_regularizer": {"config": {"l1": 0.0, "l2": 9.999999747378752e-05}, "class_name": "L1L2"}}, "class_name": "Conv2D", "name": "conv2d_20"}, {"inbound_nodes": [[["conv2d_20", 0, 0, {}]]], "config": {"epsilon": 0.001, "name": "batch_normalization_19", "beta_constraint": null, "moving_variance_initializer": {"config": {}, "class_name": "Ones"}, "center": true, "beta_regularizer": null, "momentum": 0.99, "axis": -1, "gamma_regularizer": null, "trainable": true, "beta_initializer": {"config": {}, "class_name": "Zeros"}, "gamma_constraint": null, "moving_mean_initializer": {"config": {}, "class_name": "Zeros"}, "scale": true, "gamma_initializer": {"config": {}, "class_name": "Ones"}}, "class_name": "BatchNormalization", "name": "batch_normalization_19"}, {"inbound_nodes": [[["activation_17", 0, 0, {}], ["batch_normalization_19", 0, 0, {}]]], "config": {"name": "add_9", "trainable": true}, "class_name": "Add", "name": "add_9"}, {"inbound_nodes": [[["add_9", 0, 0, {}]]], "config": {"activation": "relu", "name": "activation_19", "trainable": true}, "class_name": "Activation", "name": "activation_19"}, {"inbound_nodes": [[["activation_19", 0, 0, {}]]], "config": {"kernel_constraint": null, "strides": [1, 1], "bias_initializer": {"config": {}, "class_name": "Zeros"}, "name": "conv2d_21", "activity_regularizer": null, "padding": "same", "dilation_rate": [1, 1], "activation": "linear", "kernel_size": [3, 3], "filters": 32, "use_bias": true, "bias_constraint": null, "bias_regularizer": null, "kernel_initializer": {"config": {"mode": "fan_in", "seed": null, "distribution": "normal", "scale": 2.0}, "class_name": "VarianceScaling"}, "trainable": true, "data_format": "channels_last", "kernel_regularizer": {"config": {"l1": 0.0, "l2": 9.999999747378752e-05}, "class_name": "L1L2"}}, "class_name": "Conv2D", "name": "conv2d_21"}, {"inbound_nodes": [[["conv2d_21", 0, 0, {}]]], "config": {"epsilon": 0.001, "name": "batch_normalization_20", "beta_constraint": null, "moving_variance_initializer": {"config": {}, "class_name": "Ones"}, "center": true, "beta_regularizer": null, "momentum": 0.99, "axis": -1, "gamma_regularizer": null, "trainable": true, "beta_initializer": {"config": {}, "class_name": "Zeros"}, "gamma_constraint": null, "moving_mean_initializer": {"config": {}, "class_name": "Zeros"}, "scale": true, "gamma_initializer": {"config": {}, "class_name": "Ones"}}, "class_name": "BatchNormalization", "name": "batch_normalization_20"}, {"inbound_nodes": [[["batch_normalization_20", 0, 0, {}]]], "config": {"activation": "relu", "name": "activation_20", "trainable": true}, "class_name": "Activation", "name": "activation_20"}, {"inbound_nodes": [[["activation_20", 0, 0, {}]]], "config": {"kernel_constraint": null, "strides": [1, 1], "bias_initializer": {"config": {}, "class_name": "Zeros"}, "name": "conv2d_22", "activity_regularizer": null, "padding": "same", "dilation_rate": [1, 1], "activation": "linear", "kernel_size": [3, 3], "filters": 32, "use_bias": true, "bias_constraint": null, "bias_regularizer": null, "kernel_initializer": {"config": {"mode": "fan_in", "seed": null, "distribution": "normal", "scale": 2.0}, "class_name": "VarianceScaling"}, "trainable": true, "data_format": "channels_last", "kernel_regularizer": {"config": {"l1": 0.0, "l2": 9.999999747378752e-05}, "class_name": "L1L2"}}, "class_name": "Conv2D", "name": "conv2d_22"}, {"inbound_nodes": [[["conv2d_22", 0, 0, {}]]], "config": {"epsilon": 0.001, "name": "batch_normalization_21", "beta_constraint": null, "moving_variance_initializer": {"config": {}, "class_name": "Ones"}, "center": true, "beta_regularizer": null, "momentum": 0.99, "axis": -1, "gamma_regularizer": null, "trainable": true, "beta_initializer": {"config": {}, "class_name": "Zeros"}, "gamma_constraint": null, "moving_mean_initializer": {"config": {}, "class_name": "Zeros"}, "scale": true, "gamma_initializer": {"config": {}, "class_name": "Ones"}}, "class_name": "BatchNormalization", "name": "batch_normalization_21"}, {"inbound_nodes": [[["activation_19", 0, 0, {}], ["batch_normalization_21", 0, 0, {}]]], "config": {"name": "add_10", "trainable": true}, "class_name": "Add", "name": "add_10"}, {"inbound_nodes": [[["add_10", 0, 0, {}]]], "config": {"activation": "relu", "name": "activation_21", "trainable": true}, "class_name": "Activation", "name": "activation_21"}, {"inbound_nodes": [[["activation_21", 0, 0, {}]]], "config": {"kernel_constraint": null, "strides": [1, 1], "bias_initializer": {"config": {}, "class_name": "Zeros"}, "name": "conv2d_23", "activity_regularizer": null, "padding": "same", "dilation_rate": [1, 1], "activation": "linear", "kernel_size": [3, 3], "filters": 32, "use_bias": true, "bias_constraint": null, "bias_regularizer": null, "kernel_initializer": {"config": {"mode": "fan_in", "seed": null, "distribution": "normal", "scale": 2.0}, "class_name": "VarianceScaling"}, "trainable": true, "data_format": "channels_last", "kernel_regularizer": {"config": {"l1": 0.0, "l2": 9.999999747378752e-05}, "class_name": "L1L2"}}, "class_name": "Conv2D", "name": "conv2d_23"}, {"inbound_nodes": [[["conv2d_23", 0, 0, {}]]], "config": {"epsilon": 0.001, "name": "batch_normalization_22", "beta_constraint": null, "moving_variance_initializer": {"config": {}, "class_name": "Ones"}, "center": true, "beta_regularizer": null, "momentum": 0.99, "axis": -1, "gamma_regularizer": null, "trainable": true, "beta_initializer": {"config": {}, "class_name": "Zeros"}, "gamma_constraint": null, "moving_mean_initializer": {"config": {}, "class_name": "Zeros"}, "scale": true, "gamma_initializer": {"config": {}, "class_name": "Ones"}}, "class_name": "BatchNormalization", "name": "batch_normalization_22"}, {"inbound_nodes": [[["batch_normalization_22", 0, 0, {}]]], "config": {"activation": "relu", "name": "activation_22", "trainable": true}, "class_name": "Activation", "name": "activation_22"}, {"inbound_nodes": [[["activation_22", 0, 0, {}]]], "config": {"kernel_constraint": null, "strides": [1, 1], "bias_initializer": {"config": {}, "class_name": "Zeros"}, "name": "conv2d_24", "activity_regularizer": null, "padding": "same", "dilation_rate": [1, 1], "activation": "linear", "kernel_size": [3, 3], "filters": 32, "use_bias": true, "bias_constraint": null, "bias_regularizer": null, "kernel_initializer": {"config": {"mode": "fan_in", "seed": null, "distribution": "normal", "scale": 2.0}, "class_name": "VarianceScaling"}, "trainable": true, "data_format": "channels_last", "kernel_regularizer": {"config": {"l1": 0.0, "l2": 9.999999747378752e-05}, "class_name": "L1L2"}}, "class_name": "Conv2D", "name": "conv2d_24"}, {"inbound_nodes": [[["conv2d_24", 0, 0, {}]]], "config": {"epsilon": 0.001, "name": "batch_normalization_23", "beta_constraint": null, "moving_variance_initializer": {"config": {}, "class_name": "Ones"}, "center": true, "beta_regularizer": null, "momentum": 0.99, "axis": -1, "gamma_regularizer": null, "trainable": true, "beta_initializer": {"config": {}, "class_name": "Zeros"}, "gamma_constraint": null, "moving_mean_initializer": {"config": {}, "class_name": "Zeros"}, "scale": true, "gamma_initializer": {"config": {}, "class_name": "Ones"}}, "class_name": "BatchNormalization", "name": "batch_normalization_23"}, {"inbound_nodes": [[["activation_21", 0, 0, {}], ["batch_normalization_23", 0, 0, {}]]], "config": {"name": "add_11", "trainable": true}, "class_name": "Add", "name": "add_11"}, {"inbound_nodes": [[["add_11", 0, 0, {}]]], "config": {"activation": "relu", "name": "activation_23", "trainable": true}, "class_name": "Activation", "name": "activation_23"}, {"inbound_nodes": [[["activation_23", 0, 0, {}]]], "config": {"kernel_constraint": null, "strides": [1, 1], "bias_initializer": {"config": {}, "class_name": "Zeros"}, "name": "conv2d_25", "activity_regularizer": null, "padding": "same", "dilation_rate": [1, 1], "activation": "linear", "kernel_size": [3, 3], "filters": 32, "use_bias": true, "bias_constraint": null, "bias_regularizer": null, "kernel_initializer": {"config": {"mode": "fan_in", "seed": null, "distribution": "normal", "scale": 2.0}, "class_name": "VarianceScaling"}, "trainable": true, "data_format": "channels_last", "kernel_regularizer": {"config": {"l1": 0.0, "l2": 9.999999747378752e-05}, "class_name": "L1L2"}}, "class_name": "Conv2D", "name": "conv2d_25"}, {"inbound_nodes": [[["conv2d_25", 0, 0, {}]]], "config": {"epsilon": 0.001, "name": "batch_normalization_24", "beta_constraint": null, "moving_variance_initializer": {"config": {}, "class_name": "Ones"}, "center": true, "beta_regularizer": null, "momentum": 0.99, "axis": -1, "gamma_regularizer": null, "trainable": true, "beta_initializer": {"config": {}, "class_name": "Zeros"}, "gamma_constraint": null, "moving_mean_initializer": {"config": {}, "class_name": "Zeros"}, "scale": true, "gamma_initializer": {"config": {}, "class_name": "Ones"}}, "class_name": "BatchNormalization", "name": "batch_normalization_24"}, {"inbound_nodes": [[["batch_normalization_24", 0, 0, {}]]], "config": {"activation": "relu", "name": "activation_24", "trainable": true}, "class_name": "Activation", "name": "activation_24"}, {"inbound_nodes": [[["activation_24", 0, 0, {}]]], "config": {"kernel_constraint": null, "strides": [1, 1], "bias_initializer": {"config": {}, "class_name": "Zeros"}, "name": "conv2d_26", "activity_regularizer": null, "padding": "same", "dilation_rate": [1, 1], "activation": "linear", "kernel_size": [3, 3], "filters": 32, "use_bias": true, "bias_constraint": null, "bias_regularizer": null, "kernel_initializer": {"config": {"mode": "fan_in", "seed": null, "distribution": "normal", "scale": 2.0}, "class_name": "VarianceScaling"}, "trainable": true, "data_format": "channels_last", "kernel_regularizer": {"config": {"l1": 0.0, "l2": 9.999999747378752e-05}, "class_name": "L1L2"}}, "class_name": "Conv2D", "name": "conv2d_26"}, {"inbound_nodes": [[["conv2d_26", 0, 0, {}]]], "config": {"epsilon": 0.001, "name": "batch_normalization_25", "beta_constraint": null, "moving_variance_initializer": {"config": {}, "class_name": "Ones"}, "center": true, "beta_regularizer": null, "momentum": 0.99, "axis": -1, "gamma_regularizer": null, "trainable": true, "beta_initializer": {"config": {}, "class_name": "Zeros"}, "gamma_constraint": null, "moving_mean_initializer": {"config": {}, "class_name": "Zeros"}, "scale": true, "gamma_initializer": {"config": {}, "class_name": "Ones"}}, "class_name": "BatchNormalization", "name": "batch_normalization_25"}, {"inbound_nodes": [[["activation_23", 0, 0, {}], ["batch_normalization_25", 0, 0, {}]]], "config": {"name": "add_12", "trainable": true}, "class_name": "Add", "name": "add_12"}, {"inbound_nodes": [[["add_12", 0, 0, {}]]], "config": {"activation": "relu", "name": "activation_25", "trainable": true}, "class_name": "Activation", "name": "activation_25"}, {"inbound_nodes": [[["activation_25", 0, 0, {}]]], "config": {"kernel_constraint": null, "strides": [1, 1], "bias_initializer": {"config": {}, "class_name": "Zeros"}, "name": "conv2d_27", "activity_regularizer": null, "padding": "same", "dilation_rate": [1, 1], "activation": "linear", "kernel_size": [3, 3], "filters": 32, "use_bias": true, "bias_constraint": null, "bias_regularizer": null, "kernel_initializer": {"config": {"mode": "fan_in", "seed": null, "distribution": "normal", "scale": 2.0}, "class_name": "VarianceScaling"}, "trainable": true, "data_format": "channels_last", "kernel_regularizer": {"config": {"l1": 0.0, "l2": 9.999999747378752e-05}, "class_name": "L1L2"}}, "class_name": "Conv2D", "name": "conv2d_27"}, {"inbound_nodes": [[["conv2d_27", 0, 0, {}]]], "config": {"epsilon": 0.001, "name": "batch_normalization_26", "beta_constraint": null, "moving_variance_initializer": {"config": {}, "class_name": "Ones"}, "center": true, "beta_regularizer": null, "momentum": 0.99, "axis": -1, "gamma_regularizer": null, "trainable": true, "beta_initializer": {"config": {}, "class_name": "Zeros"}, "gamma_constraint": null, "moving_mean_initializer": {"config": {}, "class_name": "Zeros"}, "scale": true, "gamma_initializer": {"config": {}, "class_name": "Ones"}}, "class_name": "BatchNormalization", "name": "batch_normalization_26"}, {"inbound_nodes": [[["batch_normalization_26", 0, 0, {}]]], "config": {"activation": "relu", "name": "activation_26", "trainable": true}, "class_name": "Activation", "name": "activation_26"}, {"inbound_nodes": [[["activation_26", 0, 0, {}]]], "config": {"kernel_constraint": null, "strides": [1, 1], "bias_initializer": {"config": {}, "class_name": "Zeros"}, "name": "conv2d_28", "activity_regularizer": null, "padding": "same", "dilation_rate": [1, 1], "activation": "linear", "kernel_size": [3, 3], "filters": 32, "use_bias": true, "bias_constraint": null, "bias_regularizer": null, "kernel_initializer": {"config": {"mode": "fan_in", "seed": null, "distribution": "normal", "scale": 2.0}, "class_name": "VarianceScaling"}, "trainable": true, "data_format": "channels_last", "kernel_regularizer": {"config": {"l1": 0.0, "l2": 9.999999747378752e-05}, "class_name": "L1L2"}}, "class_name": "Conv2D", "name": "conv2d_28"}, {"inbound_nodes": [[["conv2d_28", 0, 0, {}]]], "config": {"epsilon": 0.001, "name": "batch_normalization_27", "beta_constraint": null, "moving_variance_initializer": {"config": {}, "class_name": "Ones"}, "center": true, "beta_regularizer": null, "momentum": 0.99, "axis": -1, "gamma_regularizer": null, "trainable": true, "beta_initializer": {"config": {}, "class_name": "Zeros"}, "gamma_constraint": null, "moving_mean_initializer": {"config": {}, "class_name": "Zeros"}, "scale": true, "gamma_initializer": {"config": {}, "class_name": "Ones"}}, "class_name": "BatchNormalization", "name": "batch_normalization_27"}, {"inbound_nodes": [[["activation_25", 0, 0, {}], ["batch_normalization_27", 0, 0, {}]]], "config": {"name": "add_13", "trainable": true}, "class_name": "Add", "name": "add_13"}, {"inbound_nodes": [[["add_13", 0, 0, {}]]], "config": {"activation": "relu", "name": "activation_27", "trainable": true}, "class_name": "Activation", "name": "activation_27"}, {"inbound_nodes": [[["activation_27", 0, 0, {}]]], "config": {"kernel_constraint": null, "strides": [1, 1], "bias_initializer": {"config": {}, "class_name": "Zeros"}, "name": "conv2d_29", "activity_regularizer": null, "padding": "same", "dilation_rate": [1, 1], "activation": "linear", "kernel_size": [3, 3], "filters": 32, "use_bias": true, "bias_constraint": null, "bias_regularizer": null, "kernel_initializer": {"config": {"mode": "fan_in", "seed": null, "distribution": "normal", "scale": 2.0}, "class_name": "VarianceScaling"}, "trainable": true, "data_format": "channels_last", "kernel_regularizer": {"config": {"l1": 0.0, "l2": 9.999999747378752e-05}, "class_name": "L1L2"}}, "class_name": "Conv2D", "name": "conv2d_29"}, {"inbound_nodes": [[["conv2d_29", 0, 0, {}]]], "config": {"epsilon": 0.001, "name": "batch_normalization_28", "beta_constraint": null, "moving_variance_initializer": {"config": {}, "class_name": "Ones"}, "center": true, "beta_regularizer": null, "momentum": 0.99, "axis": -1, "gamma_regularizer": null, "trainable": true, "beta_initializer": {"config": {}, "class_name": "Zeros"}, "gamma_constraint": null, "moving_mean_initializer": {"config": {}, "class_name": "Zeros"}, "scale": true, "gamma_initializer": {"config": {}, "class_name": "Ones"}}, "class_name": "BatchNormalization", "name": "batch_normalization_28"}, {"inbound_nodes": [[["batch_normalization_28", 0, 0, {}]]], "config": {"activation": "relu", "name": "activation_28", "trainable": true}, "class_name": "Activation", "name": "activation_28"}, {"inbound_nodes": [[["activation_28", 0, 0, {}]]], "config": {"kernel_constraint": null, "strides": [1, 1], "bias_initializer": {"config": {}, "class_name": "Zeros"}, "name": "conv2d_30", "activity_regularizer": null, "padding": "same", "dilation_rate": [1, 1], "activation": "linear", "kernel_size": [3, 3], "filters": 32, "use_bias": true, "bias_constraint": null, "bias_regularizer": null, "kernel_initializer": {"config": {"mode": "fan_in", "seed": null, "distribution": "normal", "scale": 2.0}, "class_name": "VarianceScaling"}, "trainable": true, "data_format": "channels_last", "kernel_regularizer": {"config": {"l1": 0.0, "l2": 9.999999747378752e-05}, "class_name": "L1L2"}}, "class_name": "Conv2D", "name": "conv2d_30"}, {"inbound_nodes": [[["conv2d_30", 0, 0, {}]]], "config": {"epsilon": 0.001, "name": "batch_normalization_29", "beta_constraint": null, "moving_variance_initializer": {"config": {}, "class_name": "Ones"}, "center": true, "beta_regularizer": null, "momentum": 0.99, "axis": -1, "gamma_regularizer": null, "trainable": true, "beta_initializer": {"config": {}, "class_name": "Zeros"}, "gamma_constraint": null, "moving_mean_initializer": {"config": {}, "class_name": "Zeros"}, "scale": true, "gamma_initializer": {"config": {}, "class_name": "Ones"}}, "class_name": "BatchNormalization", "name": "batch_normalization_29"}, {"inbound_nodes": [[["activation_27", 0, 0, {}], ["batch_normalization_29", 0, 0, {}]]], "config": {"name": "add_14", "trainable": true}, "class_name": "Add", "name": "add_14"}, {"inbound_nodes": [[["add_14", 0, 0, {}]]], "config": {"activation": "relu", "name": "activation_29", "trainable": true}, "class_name": "Activation", "name": "activation_29"}, {"inbound_nodes": [[["activation_29", 0, 0, {}]]], "config": {"kernel_constraint": null, "strides": [2, 2], "bias_initializer": {"config": {}, "class_name": "Zeros"}, "name": "conv2d_31", "activity_regularizer": null, "padding": "same", "dilation_rate": [1, 1], "activation": "linear", "kernel_size": [3, 3], "filters": 64, "use_bias": true, "bias_constraint": null, "bias_regularizer": null, "kernel_initializer": {"config": {"mode": "fan_in", "seed": null, "distribution": "normal", "scale": 2.0}, "class_name": "VarianceScaling"}, "trainable": true, "data_format": "channels_last", "kernel_regularizer": {"config": {"l1": 0.0, "l2": 9.999999747378752e-05}, "class_name": "L1L2"}}, "class_name": "Conv2D", "name": "conv2d_31"}, {"inbound_nodes": [[["conv2d_31", 0, 0, {}]]], "config": {"epsilon": 0.001, "name": "batch_normalization_30", "beta_constraint": null, "moving_variance_initializer": {"config": {}, "class_name": "Ones"}, "center": true, "beta_regularizer": null, "momentum": 0.99, "axis": -1, "gamma_regularizer": null, "trainable": true, "beta_initializer": {"config": {}, "class_name": "Zeros"}, "gamma_constraint": null, "moving_mean_initializer": {"config": {}, "class_name": "Zeros"}, "scale": true, "gamma_initializer": {"config": {}, "class_name": "Ones"}}, "class_name": "BatchNormalization", "name": "batch_normalization_30"}, {"inbound_nodes": [[["batch_normalization_30", 0, 0, {}]]], "config": {"activation": "relu", "name": "activation_30", "trainable": true}, "class_name": "Activation", "name": "activation_30"}, {"inbound_nodes": [[["activation_30", 0, 0, {}]]], "config": {"kernel_constraint": null, "strides": [1, 1], "bias_initializer": {"config": {}, "class_name": "Zeros"}, "name": "conv2d_32", "activity_regularizer": null, "padding": "same", "dilation_rate": [1, 1], "activation": "linear", "kernel_size": [3, 3], "filters": 64, "use_bias": true, "bias_constraint": null, "bias_regularizer": null, "kernel_initializer": {"config": {"mode": "fan_in", "seed": null, "distribution": "normal", "scale": 2.0}, "class_name": "VarianceScaling"}, "trainable": true, "data_format": "channels_last", "kernel_regularizer": {"config": {"l1": 0.0, "l2": 9.999999747378752e-05}, "class_name": "L1L2"}}, "class_name": "Conv2D", "name": "conv2d_32"}, {"inbound_nodes": [[["activation_29", 0, 0, {}]]], "config": {"kernel_constraint": null, "strides": [2, 2], "bias_initializer": {"config": {}, "class_name": "Zeros"}, "name": "conv2d_33", "activity_regularizer": null, "padding": "same", "dilation_rate": [1, 1], "activation": "linear", "kernel_size": [1, 1], "filters": 64, "use_bias": true, "bias_constraint": null, "bias_regularizer": null, "kernel_initializer": {"config": {"mode": "fan_in", "seed": null, "distribution": "normal", "scale": 2.0}, "class_name": "VarianceScaling"}, "trainable": true, "data_format": "channels_last", "kernel_regularizer": {"config": {"l1": 0.0, "l2": 9.999999747378752e-05}, "class_name": "L1L2"}}, "class_name": "Conv2D", "name": "conv2d_33"}, {"inbound_nodes": [[["conv2d_32", 0, 0, {}]]], "config": {"epsilon": 0.001, "name": "batch_normalization_31", "beta_constraint": null, "moving_variance_initializer": {"config": {}, "class_name": "Ones"}, "center": true, "beta_regularizer": null, "momentum": 0.99, "axis": -1, "gamma_regularizer": null, "trainable": true, "beta_initializer": {"config": {}, "class_name": "Zeros"}, "gamma_constraint": null, "moving_mean_initializer": {"config": {}, "class_name": "Zeros"}, "scale": true, "gamma_initializer": {"config": {}, "class_name": "Ones"}}, "class_name": "BatchNormalization", "name": "batch_normalization_31"}, {"inbound_nodes": [[["conv2d_33", 0, 0, {}], ["batch_normalization_31", 0, 0, {}]]], "config": {"name": "add_15", "trainable": true}, "class_name": "Add", "name": "add_15"}, {"inbound_nodes": [[["add_15", 0, 0, {}]]], "config": {"activation": "relu", "name": "activation_31", "trainable": true}, "class_name": "Activation", "name": "activation_31"}, {"inbound_nodes": [[["activation_31", 0, 0, {}]]], "config": {"kernel_constraint": null, "strides": [1, 1], "bias_initializer": {"config": {}, "class_name": "Zeros"}, "name": "conv2d_34", "activity_regularizer": null, "padding": "same", "dilation_rate": [1, 1], "activation": "linear", "kernel_size": [3, 3], "filters": 64, "use_bias": true, "bias_constraint": null, "bias_regularizer": null, "kernel_initializer": {"config": {"mode": "fan_in", "seed": null, "distribution": "normal", "scale": 2.0}, "class_name": "VarianceScaling"}, "trainable": true, "data_format": "channels_last", "kernel_regularizer": {"config": {"l1": 0.0, "l2": 9.999999747378752e-05}, "class_name": "L1L2"}}, "class_name": "Conv2D", "name": "conv2d_34"}, {"inbound_nodes": [[["conv2d_34", 0, 0, {}]]], "config": {"epsilon": 0.001, "name": "batch_normalization_32", "beta_constraint": null, "moving_variance_initializer": {"config": {}, "class_name": "Ones"}, "center": true, "beta_regularizer": null, "momentum": 0.99, "axis": -1, "gamma_regularizer": null, "trainable": true, "beta_initializer": {"config": {}, "class_name": "Zeros"}, "gamma_constraint": null, "moving_mean_initializer": {"config": {}, "class_name": "Zeros"}, "scale": true, "gamma_initializer": {"config": {}, "class_name": "Ones"}}, "class_name": "BatchNormalization", "name": "batch_normalization_32"}, {"inbound_nodes": [[["batch_normalization_32", 0, 0, {}]]], "config": {"activation": "relu", "name": "activation_32", "trainable": true}, "class_name": "Activation", "name": "activation_32"}, {"inbound_nodes": [[["activation_32", 0, 0, {}]]], "config": {"kernel_constraint": null, "strides": [1, 1], "bias_initializer": {"config": {}, "class_name": "Zeros"}, "name": "conv2d_35", "activity_regularizer": null, "padding": "same", "dilation_rate": [1, 1], "activation": "linear", "kernel_size": [3, 3], "filters": 64, "use_bias": true, "bias_constraint": null, "bias_regularizer": null, "kernel_initializer": {"config": {"mode": "fan_in", "seed": null, "distribution": "normal", "scale": 2.0}, "class_name": "VarianceScaling"}, "trainable": true, "data_format": "channels_last", "kernel_regularizer": {"config": {"l1": 0.0, "l2": 9.999999747378752e-05}, "class_name": "L1L2"}}, "class_name": "Conv2D", "name": "conv2d_35"}, {"inbound_nodes": [[["conv2d_35", 0, 0, {}]]], "config": {"epsilon": 0.001, "name": "batch_normalization_33", "beta_constraint": null, "moving_variance_initializer": {"config": {}, "class_name": "Ones"}, "center": true, "beta_regularizer": null, "momentum": 0.99, "axis": -1, "gamma_regularizer": null, "trainable": true, "beta_initializer": {"config": {}, "class_name": "Zeros"}, "gamma_constraint": null, "moving_mean_initializer": {"config": {}, "class_name": "Zeros"}, "scale": true, "gamma_initializer": {"config": {}, "class_name": "Ones"}}, "class_name": "BatchNormalization", "name": "batch_normalization_33"}, {"inbound_nodes": [[["activation_31", 0, 0, {}], ["batch_normalization_33", 0, 0, {}]]], "config": {"name": "add_16", "trainable": true}, "class_name": "Add", "name": "add_16"}, {"inbound_nodes": [[["add_16", 0, 0, {}]]], "config": {"activation": "relu", "name": "activation_33", "trainable": true}, "class_name": "Activation", "name": "activation_33"}, {"inbound_nodes": [[["activation_33", 0, 0, {}]]], "config": {"kernel_constraint": null, "strides": [1, 1], "bias_initializer": {"config": {}, "class_name": "Zeros"}, "name": "conv2d_36", "activity_regularizer": null, "padding": "same", "dilation_rate": [1, 1], "activation": "linear", "kernel_size": [3, 3], "filters": 64, "use_bias": true, "bias_constraint": null, "bias_regularizer": null, "kernel_initializer": {"config": {"mode": "fan_in", "seed": null, "distribution": "normal", "scale": 2.0}, "class_name": "VarianceScaling"}, "trainable": true, "data_format": "channels_last", "kernel_regularizer": {"config": {"l1": 0.0, "l2": 9.999999747378752e-05}, "class_name": "L1L2"}}, "class_name": "Conv2D", "name": "conv2d_36"}, {"inbound_nodes": [[["conv2d_36", 0, 0, {}]]], "config": {"epsilon": 0.001, "name": "batch_normalization_34", "beta_constraint": null, "moving_variance_initializer": {"config": {}, "class_name": "Ones"}, "center": true, "beta_regularizer": null, "momentum": 0.99, "axis": -1, "gamma_regularizer": null, "trainable": true, "beta_initializer": {"config": {}, "class_name": "Zeros"}, "gamma_constraint": null, "moving_mean_initializer": {"config": {}, "class_name": "Zeros"}, "scale": true, "gamma_initializer": {"config": {}, "class_name": "Ones"}}, "class_name": "BatchNormalization", "name": "batch_normalization_34"}, {"inbound_nodes": [[["batch_normalization_34", 0, 0, {}]]], "config": {"activation": "relu", "name": "activation_34", "trainable": true}, "class_name": "Activation", "name": "activation_34"}, {"inbound_nodes": [[["activation_34", 0, 0, {}]]], "config": {"kernel_constraint": null, "strides": [1, 1], "bias_initializer": {"config": {}, "class_name": "Zeros"}, "name": "conv2d_37", "activity_regularizer": null, "padding": "same", "dilation_rate": [1, 1], "activation": "linear", "kernel_size": [3, 3], "filters": 64, "use_bias": true, "bias_constraint": null, "bias_regularizer": null, "kernel_initializer": {"config": {"mode": "fan_in", "seed": null, "distribution": "normal", "scale": 2.0}, "class_name": "VarianceScaling"}, "trainable": true, "data_format": "channels_last", "kernel_regularizer": {"config": {"l1": 0.0, "l2": 9.999999747378752e-05}, "class_name": "L1L2"}}, "class_name": "Conv2D", "name": "conv2d_37"}, {"inbound_nodes": [[["conv2d_37", 0, 0, {}]]], "config": {"epsilon": 0.001, "name": "batch_normalization_35", "beta_constraint": null, "moving_variance_initializer": {"config": {}, "class_name": "Ones"}, "center": true, "beta_regularizer": null, "momentum": 0.99, "axis": -1, "gamma_regularizer": null, "trainable": true, "beta_initializer": {"config": {}, "class_name": "Zeros"}, "gamma_constraint": null, "moving_mean_initializer": {"config": {}, "class_name": "Zeros"}, "scale": true, "gamma_initializer": {"config": {}, "class_name": "Ones"}}, "class_name": "BatchNormalization", "name": "batch_normalization_35"}, {"inbound_nodes": [[["activation_33", 0, 0, {}], ["batch_normalization_35", 0, 0, {}]]], "config": {"name": "add_17", "trainable": true}, "class_name": "Add", "name": "add_17"}, {"inbound_nodes": [[["add_17", 0, 0, {}]]], "config": {"activation": "relu", "name": "activation_35", "trainable": true}, "class_name": "Activation", "name": "activation_35"}, {"inbound_nodes": [[["activation_35", 0, 0, {}]]], "config": {"kernel_constraint": null, "strides": [1, 1], "bias_initializer": {"config": {}, "class_name": "Zeros"}, "name": "conv2d_38", "activity_regularizer": null, "padding": "same", "dilation_rate": [1, 1], "activation": "linear", "kernel_size": [3, 3], "filters": 64, "use_bias": true, "bias_constraint": null, "bias_regularizer": null, "kernel_initializer": {"config": {"mode": "fan_in", "seed": null, "distribution": "normal", "scale": 2.0}, "class_name": "VarianceScaling"}, "trainable": true, "data_format": "channels_last", "kernel_regularizer": {"config": {"l1": 0.0, "l2": 9.999999747378752e-05}, "class_name": "L1L2"}}, "class_name": "Conv2D", "name": "conv2d_38"}, {"inbound_nodes": [[["conv2d_38", 0, 0, {}]]], "config": {"epsilon": 0.001, "name": "batch_normalization_36", "beta_constraint": null, "moving_variance_initializer": {"config": {}, "class_name": "Ones"}, "center": true, "beta_regularizer": null, "momentum": 0.99, "axis": -1, "gamma_regularizer": null, "trainable": true, "beta_initializer": {"config": {}, "class_name": "Zeros"}, "gamma_constraint": null, "moving_mean_initializer": {"config": {}, "class_name": "Zeros"}, "scale": true, "gamma_initializer": {"config": {}, "class_name": "Ones"}}, "class_name": "BatchNormalization", "name": "batch_normalization_36"}, {"inbound_nodes": [[["batch_normalization_36", 0, 0, {}]]], "config": {"activation": "relu", "name": "activation_36", "trainable": true}, "class_name": "Activation", "name": "activation_36"}, {"inbound_nodes": [[["activation_36", 0, 0, {}]]], "config": {"kernel_constraint": null, "strides": [1, 1], "bias_initializer": {"config": {}, "class_name": "Zeros"}, "name": "conv2d_39", "activity_regularizer": null, "padding": "same", "dilation_rate": [1, 1], "activation": "linear", "kernel_size": [3, 3], "filters": 64, "use_bias": true, "bias_constraint": null, "bias_regularizer": null, "kernel_initializer": {"config": {"mode": "fan_in", "seed": null, "distribution": "normal", "scale": 2.0}, "class_name": "VarianceScaling"}, "trainable": true, "data_format": "channels_last", "kernel_regularizer": {"config": {"l1": 0.0, "l2": 9.999999747378752e-05}, "class_name": "L1L2"}}, "class_name": "Conv2D", "name": "conv2d_39"}, {"inbound_nodes": [[["conv2d_39", 0, 0, {}]]], "config": {"epsilon": 0.001, "name": "batch_normalization_37", "beta_constraint": null, "moving_variance_initializer": {"config": {}, "class_name": "Ones"}, "center": true, "beta_regularizer": null, "momentum": 0.99, "axis": -1, "gamma_regularizer": null, "trainable": true, "beta_initializer": {"config": {}, "class_name": "Zeros"}, "gamma_constraint": null, "moving_mean_initializer": {"config": {}, "class_name": "Zeros"}, "scale": true, "gamma_initializer": {"config": {}, "class_name": "Ones"}}, "class_name": "BatchNormalization", "name": "batch_normalization_37"}, {"inbound_nodes": [[["activation_35", 0, 0, {}], ["batch_normalization_37", 0, 0, {}]]], "config": {"name": "add_18", "trainable": true}, "class_name": "Add", "name": "add_18"}, {"inbound_nodes": [[["add_18", 0, 0, {}]]], "config": {"activation": "relu", "name": "activation_37", "trainable": true}, "class_name": "Activation", "name": "activation_37"}, {"inbound_nodes": [[["activation_37", 0, 0, {}]]], "config": {"kernel_constraint": null, "strides": [1, 1], "bias_initializer": {"config": {}, "class_name": "Zeros"}, "name": "conv2d_40", "activity_regularizer": null, "padding": "same", "dilation_rate": [1, 1], "activation": "linear", "kernel_size": [3, 3], "filters": 64, "use_bias": true, "bias_constraint": null, "bias_regularizer": null, "kernel_initializer": {"config": {"mode": "fan_in", "seed": null, "distribution": "normal", "scale": 2.0}, "class_name": "VarianceScaling"}, "trainable": true, "data_format": "channels_last", "kernel_regularizer": {"config": {"l1": 0.0, "l2": 9.999999747378752e-05}, "class_name": "L1L2"}}, "class_name": "Conv2D", "name": "conv2d_40"}, {"inbound_nodes": [[["conv2d_40", 0, 0, {}]]], "config": {"epsilon": 0.001, "name": "batch_normalization_38", "beta_constraint": null, "moving_variance_initializer": {"config": {}, "class_name": "Ones"}, "center": true, "beta_regularizer": null, "momentum": 0.99, "axis": -1, "gamma_regularizer": null, "trainable": true, "beta_initializer": {"config": {}, "class_name": "Zeros"}, "gamma_constraint": null, "moving_mean_initializer": {"config": {}, "class_name": "Zeros"}, "scale": true, "gamma_initializer": {"config": {}, "class_name": "Ones"}}, "class_name": "BatchNormalization", "name": "batch_normalization_38"}, {"inbound_nodes": [[["batch_normalization_38", 0, 0, {}]]], "config": {"activation": "relu", "name": "activation_38", "trainable": true}, "class_name": "Activation", "name": "activation_38"}, {"inbound_nodes": [[["activation_38", 0, 0, {}]]], "config": {"kernel_constraint": null, "strides": [1, 1], "bias_initializer": {"config": {}, "class_name": "Zeros"}, "name": "conv2d_41", "activity_regularizer": null, "padding": "same", "dilation_rate": [1, 1], "activation": "linear", "kernel_size": [3, 3], "filters": 64, "use_bias": true, "bias_constraint": null, "bias_regularizer": null, "kernel_initializer": {"config": {"mode": "fan_in", "seed": null, "distribution": "normal", "scale": 2.0}, "class_name": "VarianceScaling"}, "trainable": true, "data_format": "channels_last", "kernel_regularizer": {"config": {"l1": 0.0, "l2": 9.999999747378752e-05}, "class_name": "L1L2"}}, "class_name": "Conv2D", "name": "conv2d_41"}, {"inbound_nodes": [[["conv2d_41", 0, 0, {}]]], "config": {"epsilon": 0.001, "name": "batch_normalization_39", "beta_constraint": null, "moving_variance_initializer": {"config": {}, "class_name": "Ones"}, "center": true, "beta_regularizer": null, "momentum": 0.99, "axis": -1, "gamma_regularizer": null, "trainable": true, "beta_initializer": {"config": {}, "class_name": "Zeros"}, "gamma_constraint": null, "moving_mean_initializer": {"config": {}, "class_name": "Zeros"}, "scale": true, "gamma_initializer": {"config": {}, "class_name": "Ones"}}, "class_name": "BatchNormalization", "name": "batch_normalization_39"}, {"inbound_nodes": [[["activation_37", 0, 0, {}], ["batch_normalization_39", 0, 0, {}]]], "config": {"name": "add_19", "trainable": true}, "class_name": "Add", "name": "add_19"}, {"inbound_nodes": [[["add_19", 0, 0, {}]]], "config": {"activation": "relu", "name": "activation_39", "trainable": true}, "class_name": "Activation", "name": "activation_39"}, {"inbound_nodes": [[["activation_39", 0, 0, {}]]], "config": {"kernel_constraint": null, "strides": [1, 1], "bias_initializer": {"config": {}, "class_name": "Zeros"}, "name": "conv2d_42", "activity_regularizer": null, "padding": "same", "dilation_rate": [1, 1], "activation": "linear", "kernel_size": [3, 3], "filters": 64, "use_bias": true, "bias_constraint": null, "bias_regularizer": null, "kernel_initializer": {"config": {"mode": "fan_in", "seed": null, "distribution": "normal", "scale": 2.0}, "class_name": "VarianceScaling"}, "trainable": true, "data_format": "channels_last", "kernel_regularizer": {"config": {"l1": 0.0, "l2": 9.999999747378752e-05}, "class_name": "L1L2"}}, "class_name": "Conv2D", "name": "conv2d_42"}, {"inbound_nodes": [[["conv2d_42", 0, 0, {}]]], "config": {"epsilon": 0.001, "name": "batch_normalization_40", "beta_constraint": null, "moving_variance_initializer": {"config": {}, "class_name": "Ones"}, "center": true, "beta_regularizer": null, "momentum": 0.99, "axis": -1, "gamma_regularizer": null, "trainable": true, "beta_initializer": {"config": {}, "class_name": "Zeros"}, "gamma_constraint": null, "moving_mean_initializer": {"config": {}, "class_name": "Zeros"}, "scale": true, "gamma_initializer": {"config": {}, "class_name": "Ones"}}, "class_name": "BatchNormalization", "name": "batch_normalization_40"}, {"inbound_nodes": [[["batch_normalization_40", 0, 0, {}]]], "config": {"activation": "relu", "name": "activation_40", "trainable": true}, "class_name": "Activation", "name": "activation_40"}, {"inbound_nodes": [[["activation_40", 0, 0, {}]]], "config": {"kernel_constraint": null, "strides": [1, 1], "bias_initializer": {"config": {}, "class_name": "Zeros"}, "name": "conv2d_43", "activity_regularizer": null, "padding": "same", "dilation_rate": [1, 1], "activation": "linear", "kernel_size": [3, 3], "filters": 64, "use_bias": true, "bias_constraint": null, "bias_regularizer": null, "kernel_initializer": {"config": {"mode": "fan_in", "seed": null, "distribution": "normal", "scale": 2.0}, "class_name": "VarianceScaling"}, "trainable": true, "data_format": "channels_last", "kernel_regularizer": {"config": {"l1": 0.0, "l2": 9.999999747378752e-05}, "class_name": "L1L2"}}, "class_name": "Conv2D", "name": "conv2d_43"}, {"inbound_nodes": [[["conv2d_43", 0, 0, {}]]], "config": {"epsilon": 0.001, "name": "batch_normalization_41", "beta_constraint": null, "moving_variance_initializer": {"config": {}, "class_name": "Ones"}, "center": true, "beta_regularizer": null, "momentum": 0.99, "axis": -1, "gamma_regularizer": null, "trainable": true, "beta_initializer": {"config": {}, "class_name": "Zeros"}, "gamma_constraint": null, "moving_mean_initializer": {"config": {}, "class_name": "Zeros"}, "scale": true, "gamma_initializer": {"config": {}, "class_name": "Ones"}}, "class_name": "BatchNormalization", "name": "batch_normalization_41"}, {"inbound_nodes": [[["activation_39", 0, 0, {}], ["batch_normalization_41", 0, 0, {}]]], "config": {"name": "add_20", "trainable": true}, "class_name": "Add", "name": "add_20"}, {"inbound_nodes": [[["add_20", 0, 0, {}]]], "config": {"activation": "relu", "name": "activation_41", "trainable": true}, "class_name": "Activation", "name": "activation_41"}, {"inbound_nodes": [[["activation_41", 0, 0, {}]]], "config": {"kernel_constraint": null, "strides": [1, 1], "bias_initializer": {"config": {}, "class_name": "Zeros"}, "name": "conv2d_44", "activity_regularizer": null, "padding": "same", "dilation_rate": [1, 1], "activation": "linear", "kernel_size": [3, 3], "filters": 64, "use_bias": true, "bias_constraint": null, "bias_regularizer": null, "kernel_initializer": {"config": {"mode": "fan_in", "seed": null, "distribution": "normal", "scale": 2.0}, "class_name": "VarianceScaling"}, "trainable": true, "data_format": "channels_last", "kernel_regularizer": {"config": {"l1": 0.0, "l2": 9.999999747378752e-05}, "class_name": "L1L2"}}, "class_name": "Conv2D", "name": "conv2d_44"}, {"inbound_nodes": [[["conv2d_44", 0, 0, {}]]], "config": {"epsilon": 0.001, "name": "batch_normalization_42", "beta_constraint": null, "moving_variance_initializer": {"config": {}, "class_name": "Ones"}, "center": true, "beta_regularizer": null, "momentum": 0.99, "axis": -1, "gamma_regularizer": null, "trainable": true, "beta_initializer": {"config": {}, "class_name": "Zeros"}, "gamma_constraint": null, "moving_mean_initializer": {"config": {}, "class_name": "Zeros"}, "scale": true, "gamma_initializer": {"config": {}, "class_name": "Ones"}}, "class_name": "BatchNormalization", "name": "batch_normalization_42"}, {"inbound_nodes": [[["batch_normalization_42", 0, 0, {}]]], "config": {"activation": "relu", "name": "activation_42", "trainable": true}, "class_name": "Activation", "name": "activation_42"}, {"inbound_nodes": [[["activation_42", 0, 0, {}]]], "config": {"kernel_constraint": null, "strides": [1, 1], "bias_initializer": {"config": {}, "class_name": "Zeros"}, "name": "conv2d_45", "activity_regularizer": null, "padding": "same", "dilation_rate": [1, 1], "activation": "linear", "kernel_size": [3, 3], "filters": 64, "use_bias": true, "bias_constraint": null, "bias_regularizer": null, "kernel_initializer": {"config": {"mode": "fan_in", "seed": null, "distribution": "normal", "scale": 2.0}, "class_name": "VarianceScaling"}, "trainable": true, "data_format": "channels_last", "kernel_regularizer": {"config": {"l1": 0.0, "l2": 9.999999747378752e-05}, "class_name": "L1L2"}}, "class_name": "Conv2D", "name": "conv2d_45"}, {"inbound_nodes": [[["conv2d_45", 0, 0, {}]]], "config": {"epsilon": 0.001, "name": "batch_normalization_43", "beta_constraint": null, "moving_variance_initializer": {"config": {}, "class_name": "Ones"}, "center": true, "beta_regularizer": null, "momentum": 0.99, "axis": -1, "gamma_regularizer": null, "trainable": true, "beta_initializer": {"config": {}, "class_name": "Zeros"}, "gamma_constraint": null, "moving_mean_initializer": {"config": {}, "class_name": "Zeros"}, "scale": true, "gamma_initializer": {"config": {}, "class_name": "Ones"}}, "class_name": "BatchNormalization", "name": "batch_normalization_43"}, {"inbound_nodes": [[["activation_41", 0, 0, {}], ["batch_normalization_43", 0, 0, {}]]], "config": {"name": "add_21", "trainable": true}, "class_name": "Add", "name": "add_21"}, {"inbound_nodes": [[["add_21", 0, 0, {}]]], "config": {"activation": "relu", "name": "activation_43", "trainable": true}, "class_name": "Activation", "name": "activation_43"}, {"inbound_nodes": [[["activation_43", 0, 0, {}]]], "config": {"strides": [8, 8], "name": "average_pooling2d_1", "trainable": true, "data_format": "channels_last", "padding": "valid", "pool_size": [8, 8]}, "class_name": "AveragePooling2D", "name": "average_pooling2d_1"}, {"inbound_nodes": [[["average_pooling2d_1", 0, 0, {}]]], "config": {"name": "flatten_1", "trainable": true}, "class_name": "Flatten", "name": "flatten_1"}, {"inbound_nodes": [[["flatten_1", 0, 0, {}]]], "config": {"kernel_constraint": null, "units": 10, "bias_initializer": {"config": {}, "class_name": "Zeros"}, "name": "dense_1", "activity_regularizer": null, "trainable": true, "activation": "softmax", "bias_constraint": null, "bias_regularizer": null, "kernel_initializer": {"config": {"mode": "fan_in", "seed": null, "distribution": "normal", "scale": 2.0}, "class_name": "VarianceScaling"}, "use_bias": true, "kernel_regularizer": null}, "class_name": "Dense", "name": "dense_1"}]}, "backend": "tensorflow", "class_name": "Model", "keras_version": "2.1.2"}