{"class_name": "Model", "config": {"layers": [{"class_name": "InputLayer", "inbound_nodes": [], "name": "input_1", "config": {"batch_input_shape": [null, 32, 32, 3], "name": "input_1", "sparse": false, "dtype": "float32"}}, {"class_name": "Conv2D", "inbound_nodes": [[["input_1", 0, 0, {}]]], "name": "conv2d_1", "config": {"trainable": true, "data_format": "channels_last", "bias_constraint": null, "bias_regularizer": null, "use_bias": true, "bias_initializer": {"class_name": "Zeros", "config": {}}, "filters": 16, "kernel_initializer": {"class_name": "VarianceScaling", "config": {"seed": null, "distribution": "normal", "mode": "fan_in", "scale": 2.0}}, "padding": "same", "dilation_rate": [1, 1], "kernel_regularizer": {"class_name": "L1L2", "config": {"l2": 9.999999747378752e-05, "l1": 0.0}}, "kernel_size": [3, 3], "kernel_constraint": null, "name": "conv2d_1", "activity_regularizer": null, "strides": [1, 1], "activation": "linear"}}, {"class_name": "BatchNormalization", "inbound_nodes": [[["conv2d_1", 0, 0, {}]]], "name": "batch_normalization_1", "config": {"trainable": true, "beta_regularizer": null, "beta_initializer": {"class_name": "Zeros", "config": {}}, "gamma_regularizer": null, "scale": true, "moving_mean_initializer": {"class_name": "Zeros", "config": {}}, "axis": -1, "beta_constraint": null, "momentum": 0.99, "moving_variance_initializer": {"class_name": "Ones", "config": {}}, "name": "batch_normalization_1", "epsilon": 0.001, "center": true, "gamma_constraint": null, "gamma_initializer": {"class_name": "Ones", "config": {}}}}, {"class_name": "Activation", "inbound_nodes": [[["batch_normalization_1", 0, 0, {}]]], "name": "activation_1", "config": {"trainable": true, "name": "activation_1", "activation": "relu"}}, {"class_name": "Conv2D", "inbound_nodes": [[["activation_1", 0, 0, {}]]], "name": "conv2d_2", "config": {"trainable": true, "data_format": "channels_last", "bias_constraint": null, "bias_regularizer": null, "use_bias": true, "bias_initializer": {"class_name": "Zeros", "config": {}}, "filters": 16, "kernel_initializer": {"class_name": "VarianceScaling", "config": {"seed": null, "distribution": "normal", "mode": "fan_in", "scale": 2.0}}, "padding": "same", "dilation_rate": [1, 1], "kernel_regularizer": {"class_name": "L1L2", "config": {"l2": 9.999999747378752e-05, "l1": 0.0}}, "kernel_size": [3, 3], "kernel_constraint": null, "name": "conv2d_2", "activity_regularizer": null, "strides": [1, 1], "activation": "linear"}}, {"class_name": "BatchNormalization", "inbound_nodes": [[["conv2d_2", 0, 0, {}]]], "name": "batch_normalization_2", "config": {"trainable": true, "beta_regularizer": null, "beta_initializer": {"class_name": "Zeros", "config": {}}, "gamma_regularizer": null, "scale": true, "moving_mean_initializer": {"class_name": "Zeros", "config": {}}, "axis": -1, "beta_constraint": null, "momentum": 0.99, "moving_variance_initializer": {"class_name": "Ones", "config": {}}, "name": "batch_normalization_2", "epsilon": 0.001, "center": true, "gamma_constraint": null, "gamma_initializer": {"class_name": "Ones", "config": {}}}}, {"class_name": "Activation", "inbound_nodes": [[["batch_normalization_2", 0, 0, {}]]], "name": "activation_2", "config": {"trainable": true, "name": "activation_2", "activation": "relu"}}, {"class_name": "Conv2D", "inbound_nodes": [[["activation_2", 0, 0, {}]]], "name": "conv2d_3", "config": {"trainable": true, "data_format": "channels_last", "bias_constraint": null, "bias_regularizer": null, "use_bias": true, "bias_initializer": {"class_name": "Zeros", "config": {}}, "filters": 16, "kernel_initializer": {"class_name": "VarianceScaling", "config": {"seed": null, "distribution": "normal", "mode": "fan_in", "scale": 2.0}}, "padding": "same", "dilation_rate": [1, 1], "kernel_regularizer": {"class_name": "L1L2", "config": {"l2": 9.999999747378752e-05, "l1": 0.0}}, "kernel_size": [3, 3], "kernel_constraint": null, "name": "conv2d_3", "activity_regularizer": null, "strides": [1, 1], "activation": "linear"}}, {"class_name": "BatchNormalization", "inbound_nodes": [[["conv2d_3", 0, 0, {}]]], "name": "batch_normalization_3", "config": {"trainable": true, "beta_regularizer": null, "beta_initializer": {"class_name": "Zeros", "config": {}}, "gamma_regularizer": null, "scale": true, "moving_mean_initializer": {"class_name": "Zeros", "config": {}}, "axis": -1, "beta_constraint": null, "momentum": 0.99, "moving_variance_initializer": {"class_name": "Ones", "config": {}}, "name": "batch_normalization_3", "epsilon": 0.001, "center": true, "gamma_constraint": null, "gamma_initializer": {"class_name": "Ones", "config": {}}}}, {"class_name": "Add", "inbound_nodes": [[["activation_1", 0, 0, {}], ["batch_normalization_3", 0, 0, {}]]], "name": "add_1", "config": {"trainable": true, "name": "add_1"}}, {"class_name": "Activation", "inbound_nodes": [[["add_1", 0, 0, {}]]], "name": "activation_3", "config": {"trainable": true, "name": "activation_3", "activation": "relu"}}, {"class_name": "Conv2D", "inbound_nodes": [[["activation_3", 0, 0, {}]]], "name": "conv2d_4", "config": {"trainable": true, "data_format": "channels_last", "bias_constraint": null, "bias_regularizer": null, "use_bias": true, "bias_initializer": {"class_name": "Zeros", "config": {}}, "filters": 16, "kernel_initializer": {"class_name": "VarianceScaling", "config": {"seed": null, "distribution": "normal", "mode": "fan_in", "scale": 2.0}}, "padding": "same", "dilation_rate": [1, 1], "kernel_regularizer": {"class_name": "L1L2", "config": {"l2": 9.999999747378752e-05, "l1": 0.0}}, "kernel_size": [3, 3], "kernel_constraint": null, "name": "conv2d_4", "activity_regularizer": null, "strides": [1, 1], "activation": "linear"}}, {"class_name": "BatchNormalization", "inbound_nodes": [[["conv2d_4", 0, 0, {}]]], "name": "batch_normalization_4", "config": {"trainable": true, "beta_regularizer": null, "beta_initializer": {"class_name": "Zeros", "config": {}}, "gamma_regularizer": null, "scale": true, "moving_mean_initializer": {"class_name": "Zeros", "config": {}}, "axis": -1, "beta_constraint": null, "momentum": 0.99, "moving_variance_initializer": {"class_name": "Ones", "config": {}}, "name": "batch_normalization_4", "epsilon": 0.001, "center": true, "gamma_constraint": null, "gamma_initializer": {"class_name": "Ones", "config": {}}}}, {"class_name": "Activation", "inbound_nodes": [[["batch_normalization_4", 0, 0, {}]]], "name": "activation_4", "config": {"trainable": true, "name": "activation_4", "activation": "relu"}}, {"class_name": "Conv2D", "inbound_nodes": [[["activation_4", 0, 0, {}]]], "name": "conv2d_5", "config": {"trainable": true, "data_format": "channels_last", "bias_constraint": null, "bias_regularizer": null, "use_bias": true, "bias_initializer": {"class_name": "Zeros", "config": {}}, "filters": 16, "kernel_initializer": {"class_name": "VarianceScaling", "config": {"seed": null, "distribution": "normal", "mode": "fan_in", "scale": 2.0}}, "padding": "same", "dilation_rate": [1, 1], "kernel_regularizer": {"class_name": "L1L2", "config": {"l2": 9.999999747378752e-05, "l1": 0.0}}, "kernel_size": [3, 3], "kernel_constraint": null, "name": "conv2d_5", "activity_regularizer": null, "strides": [1, 1], "activation": "linear"}}, {"class_name": "BatchNormalization", "inbound_nodes": [[["conv2d_5", 0, 0, {}]]], "name": "batch_normalization_5", "config": {"trainable": true, "beta_regularizer": null, "beta_initializer": {"class_name": "Zeros", "config": {}}, "gamma_regularizer": null, "scale": true, "moving_mean_initializer": {"class_name": "Zeros", "config": {}}, "axis": -1, "beta_constraint": null, "momentum": 0.99, "moving_variance_initializer": {"class_name": "Ones", "config": {}}, "name": "batch_normalization_5", "epsilon": 0.001, "center": true, "gamma_constraint": null, "gamma_initializer": {"class_name": "Ones", "config": {}}}}, {"class_name": "Add", "inbound_nodes": [[["activation_3", 0, 0, {}], ["batch_normalization_5", 0, 0, {}]]], "name": "add_2", "config": {"trainable": true, "name": "add_2"}}, {"class_name": "Activation", "inbound_nodes": [[["add_2", 0, 0, {}]]], "name": "activation_5", "config": {"trainable": true, "name": "activation_5", "activation": "relu"}}, {"class_name": "Conv2D", "inbound_nodes": [[["activation_5", 0, 0, {}]]], "name": "conv2d_6", "config": {"trainable": true, "data_format": "channels_last", "bias_constraint": null, "bias_regularizer": null, "use_bias": true, "bias_initializer": {"class_name": "Zeros", "config": {}}, "filters": 16, "kernel_initializer": {"class_name": "VarianceScaling", "config": {"seed": null, "distribution": "normal", "mode": "fan_in", "scale": 2.0}}, "padding": "same", "dilation_rate": [1, 1], "kernel_regularizer": {"class_name": "L1L2", "config": {"l2": 9.999999747378752e-05, "l1": 0.0}}, "kernel_size": [3, 3], "kernel_constraint": null, "name": "conv2d_6", "activity_regularizer": null, "strides": [1, 1], "activation": "linear"}}, {"class_name": "BatchNormalization", "inbound_nodes": [[["conv2d_6", 0, 0, {}]]], "name": "batch_normalization_6", "config": {"trainable": true, "beta_regularizer": null, "beta_initializer": {"class_name": "Zeros", "config": {}}, "gamma_regularizer": null, "scale": true, "moving_mean_initializer": {"class_name": "Zeros", "config": {}}, "axis": -1, "beta_constraint": null, "momentum": 0.99, "moving_variance_initializer": {"class_name": "Ones", "config": {}}, "name": "batch_normalization_6", "epsilon": 0.001, "center": true, "gamma_constraint": null, "gamma_initializer": {"class_name": "Ones", "config": {}}}}, {"class_name": "Activation", "inbound_nodes": [[["batch_normalization_6", 0, 0, {}]]], "name": "activation_6", "config": {"trainable": true, "name": "activation_6", "activation": "relu"}}, {"class_name": "Conv2D", "inbound_nodes": [[["activation_6", 0, 0, {}]]], "name": "conv2d_7", "config": {"trainable": true, "data_format": "channels_last", "bias_constraint": null, "bias_regularizer": null, "use_bias": true, "bias_initializer": {"class_name": "Zeros", "config": {}}, "filters": 16, "kernel_initializer": {"class_name": "VarianceScaling", "config": {"seed": null, "distribution": "normal", "mode": "fan_in", "scale": 2.0}}, "padding": "same", "dilation_rate": [1, 1], "kernel_regularizer": {"class_name": "L1L2", "config": {"l2": 9.999999747378752e-05, "l1": 0.0}}, "kernel_size": [3, 3], "kernel_constraint": null, "name": "conv2d_7", "activity_regularizer": null, "strides": [1, 1], "activation": "linear"}}, {"class_name": "BatchNormalization", "inbound_nodes": [[["conv2d_7", 0, 0, {}]]], "name": "batch_normalization_7", "config": {"trainable": true, "beta_regularizer": null, "beta_initializer": {"class_name": "Zeros", "config": {}}, "gamma_regularizer": null, "scale": true, "moving_mean_initializer": {"class_name": "Zeros", "config": {}}, "axis": -1, "beta_constraint": null, "momentum": 0.99, "moving_variance_initializer": {"class_name": "Ones", "config": {}}, "name": "batch_normalization_7", "epsilon": 0.001, "center": true, "gamma_constraint": null, "gamma_initializer": {"class_name": "Ones", "config": {}}}}, {"class_name": "Add", "inbound_nodes": [[["activation_5", 0, 0, {}], ["batch_normalization_7", 0, 0, {}]]], "name": "add_3", "config": {"trainable": true, "name": "add_3"}}, {"class_name": "Activation", "inbound_nodes": [[["add_3", 0, 0, {}]]], "name": "activation_7", "config": {"trainable": true, "name": "activation_7", "activation": "relu"}}, {"class_name": "Conv2D", "inbound_nodes": [[["activation_7", 0, 0, {}]]], "name": "conv2d_8", "config": {"trainable": true, "data_format": "channels_last", "bias_constraint": null, "bias_regularizer": null, "use_bias": true, "bias_initializer": {"class_name": "Zeros", "config": {}}, "filters": 16, "kernel_initializer": {"class_name": "VarianceScaling", "config": {"seed": null, "distribution": "normal", "mode": "fan_in", "scale": 2.0}}, "padding": "same", "dilation_rate": [1, 1], "kernel_regularizer": {"class_name": "L1L2", "config": {"l2": 9.999999747378752e-05, "l1": 0.0}}, "kernel_size": [3, 3], "kernel_constraint": null, "name": "conv2d_8", "activity_regularizer": null, "strides": [1, 1], "activation": "linear"}}, {"class_name": "BatchNormalization", "inbound_nodes": [[["conv2d_8", 0, 0, {}]]], "name": "batch_normalization_8", "config": {"trainable": true, "beta_regularizer": null, "beta_initializer": {"class_name": "Zeros", "config": {}}, "gamma_regularizer": null, "scale": true, "moving_mean_initializer": {"class_name": "Zeros", "config": {}}, "axis": -1, "beta_constraint": null, "momentum": 0.99, "moving_variance_initializer": {"class_name": "Ones", "config": {}}, "name": "batch_normalization_8", "epsilon": 0.001, "center": true, "gamma_constraint": null, "gamma_initializer": {"class_name": "Ones", "config": {}}}}, {"class_name": "Activation", "inbound_nodes": [[["batch_normalization_8", 0, 0, {}]]], "name": "activation_8", "config": {"trainable": true, "name": "activation_8", "activation": "relu"}}, {"class_name": "Conv2D", "inbound_nodes": [[["activation_8", 0, 0, {}]]], "name": "conv2d_9", "config": {"trainable": true, "data_format": "channels_last", "bias_constraint": null, "bias_regularizer": null, "use_bias": true, "bias_initializer": {"class_name": "Zeros", "config": {}}, "filters": 16, "kernel_initializer": {"class_name": "VarianceScaling", "config": {"seed": null, "distribution": "normal", "mode": "fan_in", "scale": 2.0}}, "padding": "same", "dilation_rate": [1, 1], "kernel_regularizer": {"class_name": "L1L2", "config": {"l2": 9.999999747378752e-05, "l1": 0.0}}, "kernel_size": [3, 3], "kernel_constraint": null, "name": "conv2d_9", "activity_regularizer": null, "strides": [1, 1], "activation": "linear"}}, {"class_name": "BatchNormalization", "inbound_nodes": [[["conv2d_9", 0, 0, {}]]], "name": "batch_normalization_9", "config": {"trainable": true, "beta_regularizer": null, "beta_initializer": {"class_name": "Zeros", "config": {}}, "gamma_regularizer": null, "scale": true, "moving_mean_initializer": {"class_name": "Zeros", "config": {}}, "axis": -1, "beta_constraint": null, "momentum": 0.99, "moving_variance_initializer": {"class_name": "Ones", "config": {}}, "name": "batch_normalization_9", "epsilon": 0.001, "center": true, "gamma_constraint": null, "gamma_initializer": {"class_name": "Ones", "config": {}}}}, {"class_name": "Add", "inbound_nodes": [[["activation_7", 0, 0, {}], ["batch_normalization_9", 0, 0, {}]]], "name": "add_4", "config": {"trainable": true, "name": "add_4"}}, {"class_name": "Activation", "inbound_nodes": [[["add_4", 0, 0, {}]]], "name": "activation_9", "config": {"trainable": true, "name": "activation_9", "activation": "relu"}}, {"class_name": "Conv2D", "inbound_nodes": [[["activation_9", 0, 0, {}]]], "name": "conv2d_10", "config": {"trainable": true, "data_format": "channels_last", "bias_constraint": null, "bias_regularizer": null, "use_bias": true, "bias_initializer": {"class_name": "Zeros", "config": {}}, "filters": 16, "kernel_initializer": {"class_name": "VarianceScaling", "config": {"seed": null, "distribution": "normal", "mode": "fan_in", "scale": 2.0}}, "padding": "same", "dilation_rate": [1, 1], "kernel_regularizer": {"class_name": "L1L2", "config": {"l2": 9.999999747378752e-05, "l1": 0.0}}, "kernel_size": [3, 3], "kernel_constraint": null, "name": "conv2d_10", "activity_regularizer": null, "strides": [1, 1], "activation": "linear"}}, {"class_name": "BatchNormalization", "inbound_nodes": [[["conv2d_10", 0, 0, {}]]], "name": "batch_normalization_10", "config": {"trainable": true, "beta_regularizer": null, "beta_initializer": {"class_name": "Zeros", "config": {}}, "gamma_regularizer": null, "scale": true, "moving_mean_initializer": {"class_name": "Zeros", "config": {}}, "axis": -1, "beta_constraint": null, "momentum": 0.99, "moving_variance_initializer": {"class_name": "Ones", "config": {}}, "name": "batch_normalization_10", "epsilon": 0.001, "center": true, "gamma_constraint": null, "gamma_initializer": {"class_name": "Ones", "config": {}}}}, {"class_name": "Activation", "inbound_nodes": [[["batch_normalization_10", 0, 0, {}]]], "name": "activation_10", "config": {"trainable": true, "name": "activation_10", "activation": "relu"}}, {"class_name": "Conv2D", "inbound_nodes": [[["activation_10", 0, 0, {}]]], "name": "conv2d_11", "config": {"trainable": true, "data_format": "channels_last", "bias_constraint": null, "bias_regularizer": null, "use_bias": true, "bias_initializer": {"class_name": "Zeros", "config": {}}, "filters": 16, "kernel_initializer": {"class_name": "VarianceScaling", "config": {"seed": null, "distribution": "normal", "mode": "fan_in", "scale": 2.0}}, "padding": "same", "dilation_rate": [1, 1], "kernel_regularizer": {"class_name": "L1L2", "config": {"l2": 9.999999747378752e-05, "l1": 0.0}}, "kernel_size": [3, 3], "kernel_constraint": null, "name": "conv2d_11", "activity_regularizer": null, "strides": [1, 1], "activation": "linear"}}, {"class_name": "BatchNormalization", "inbound_nodes": [[["conv2d_11", 0, 0, {}]]], "name": "batch_normalization_11", "config": {"trainable": true, "beta_regularizer": null, "beta_initializer": {"class_name": "Zeros", "config": {}}, "gamma_regularizer": null, "scale": true, "moving_mean_initializer": {"class_name": "Zeros", "config": {}}, "axis": -1, "beta_constraint": null, "momentum": 0.99, "moving_variance_initializer": {"class_name": "Ones", "config": {}}, "name": "batch_normalization_11", "epsilon": 0.001, "center": true, "gamma_constraint": null, "gamma_initializer": {"class_name": "Ones", "config": {}}}}, {"class_name": "Add", "inbound_nodes": [[["activation_9", 0, 0, {}], ["batch_normalization_11", 0, 0, {}]]], "name": "add_5", "config": {"trainable": true, "name": "add_5"}}, {"class_name": "Activation", "inbound_nodes": [[["add_5", 0, 0, {}]]], "name": "activation_11", "config": {"trainable": true, "name": "activation_11", "activation": "relu"}}, {"class_name": "Conv2D", "inbound_nodes": [[["activation_11", 0, 0, {}]]], "name": "conv2d_12", "config": {"trainable": true, "data_format": "channels_last", "bias_constraint": null, "bias_regularizer": null, "use_bias": true, "bias_initializer": {"class_name": "Zeros", "config": {}}, "filters": 16, "kernel_initializer": {"class_name": "VarianceScaling", "config": {"seed": null, "distribution": "normal", "mode": "fan_in", "scale": 2.0}}, "padding": "same", "dilation_rate": [1, 1], "kernel_regularizer": {"class_name": "L1L2", "config": {"l2": 9.999999747378752e-05, "l1": 0.0}}, "kernel_size": [3, 3], "kernel_constraint": null, "name": "conv2d_12", "activity_regularizer": null, "strides": [1, 1], "activation": "linear"}}, {"class_name": "BatchNormalization", "inbound_nodes": [[["conv2d_12", 0, 0, {}]]], "name": "batch_normalization_12", "config": {"trainable": true, "beta_regularizer": null, "beta_initializer": {"class_name": "Zeros", "config": {}}, "gamma_regularizer": null, "scale": true, "moving_mean_initializer": {"class_name": "Zeros", "config": {}}, "axis": -1, "beta_constraint": null, "momentum": 0.99, "moving_variance_initializer": {"class_name": "Ones", "config": {}}, "name": "batch_normalization_12", "epsilon": 0.001, "center": true, "gamma_constraint": null, "gamma_initializer": {"class_name": "Ones", "config": {}}}}, {"class_name": "Activation", "inbound_nodes": [[["batch_normalization_12", 0, 0, {}]]], "name": "activation_12", "config": {"trainable": true, "name": "activation_12", "activation": "relu"}}, {"class_name": "Conv2D", "inbound_nodes": [[["activation_12", 0, 0, {}]]], "name": "conv2d_13", "config": {"trainable": true, "data_format": "channels_last", "bias_constraint": null, "bias_regularizer": null, "use_bias": true, "bias_initializer": {"class_name": "Zeros", "config": {}}, "filters": 16, "kernel_initializer": {"class_name": "VarianceScaling", "config": {"seed": null, "distribution": "normal", "mode": "fan_in", "scale": 2.0}}, "padding": "same", "dilation_rate": [1, 1], "kernel_regularizer": {"class_name": "L1L2", "config": {"l2": 9.999999747378752e-05, "l1": 0.0}}, "kernel_size": [3, 3], "kernel_constraint": null, "name": "conv2d_13", "activity_regularizer": null, "strides": [1, 1], "activation": "linear"}}, {"class_name": "BatchNormalization", "inbound_nodes": [[["conv2d_13", 0, 0, {}]]], "name": "batch_normalization_13", "config": {"trainable": true, "beta_regularizer": null, "beta_initializer": {"class_name": "Zeros", "config": {}}, "gamma_regularizer": null, "scale": true, "moving_mean_initializer": {"class_name": "Zeros", "config": {}}, "axis": -1, "beta_constraint": null, "momentum": 0.99, "moving_variance_initializer": {"class_name": "Ones", "config": {}}, "name": "batch_normalization_13", "epsilon": 0.001, "center": true, "gamma_constraint": null, "gamma_initializer": {"class_name": "Ones", "config": {}}}}, {"class_name": "Add", "inbound_nodes": [[["activation_11", 0, 0, {}], ["batch_normalization_13", 0, 0, {}]]], "name": "add_6", "config": {"trainable": true, "name": "add_6"}}, {"class_name": "Activation", "inbound_nodes": [[["add_6", 0, 0, {}]]], "name": "activation_13", "config": {"trainable": true, "name": "activation_13", "activation": "relu"}}, {"class_name": "Conv2D", "inbound_nodes": [[["activation_13", 0, 0, {}]]], "name": "conv2d_14", "config": {"trainable": true, "data_format": "channels_last", "bias_constraint": null, "bias_regularizer": null, "use_bias": true, "bias_initializer": {"class_name": "Zeros", "config": {}}, "filters": 16, "kernel_initializer": {"class_name": "VarianceScaling", "config": {"seed": null, "distribution": "normal", "mode": "fan_in", "scale": 2.0}}, "padding": "same", "dilation_rate": [1, 1], "kernel_regularizer": {"class_name": "L1L2", "config": {"l2": 9.999999747378752e-05, "l1": 0.0}}, "kernel_size": [3, 3], "kernel_constraint": null, "name": "conv2d_14", "activity_regularizer": null, "strides": [1, 1], "activation": "linear"}}, {"class_name": "BatchNormalization", "inbound_nodes": [[["conv2d_14", 0, 0, {}]]], "name": "batch_normalization_14", "config": {"trainable": true, "beta_regularizer": null, "beta_initializer": {"class_name": "Zeros", "config": {}}, "gamma_regularizer": null, "scale": true, "moving_mean_initializer": {"class_name": "Zeros", "config": {}}, "axis": -1, "beta_constraint": null, "momentum": 0.99, "moving_variance_initializer": {"class_name": "Ones", "config": {}}, "name": "batch_normalization_14", "epsilon": 0.001, "center": true, "gamma_constraint": null, "gamma_initializer": {"class_name": "Ones", "config": {}}}}, {"class_name": "Activation", "inbound_nodes": [[["batch_normalization_14", 0, 0, {}]]], "name": "activation_14", "config": {"trainable": true, "name": "activation_14", "activation": "relu"}}, {"class_name": "Conv2D", "inbound_nodes": [[["activation_14", 0, 0, {}]]], "name": "conv2d_15", "config": {"trainable": true, "data_format": "channels_last", "bias_constraint": null, "bias_regularizer": null, "use_bias": true, "bias_initializer": {"class_name": "Zeros", "config": {}}, "filters": 16, "kernel_initializer": {"class_name": "VarianceScaling", "config": {"seed": null, "distribution": "normal", "mode": "fan_in", "scale": 2.0}}, "padding": "same", "dilation_rate": [1, 1], "kernel_regularizer": {"class_name": "L1L2", "config": {"l2": 9.999999747378752e-05, "l1": 0.0}}, "kernel_size": [3, 3], "kernel_constraint": null, "name": "conv2d_15", "activity_regularizer": null, "strides": [1, 1], "activation": "linear"}}, {"class_name": "BatchNormalization", "inbound_nodes": [[["conv2d_15", 0, 0, {}]]], "name": "batch_normalization_15", "config": {"trainable": true, "beta_regularizer": null, "beta_initializer": {"class_name": "Zeros", "config": {}}, "gamma_regularizer": null, "scale": true, "moving_mean_initializer": {"class_name": "Zeros", "config": {}}, "axis": -1, "beta_constraint": null, "momentum": 0.99, "moving_variance_initializer": {"class_name": "Ones", "config": {}}, "name": "batch_normalization_15", "epsilon": 0.001, "center": true, "gamma_constraint": null, "gamma_initializer": {"class_name": "Ones", "config": {}}}}, {"class_name": "Add", "inbound_nodes": [[["activation_13", 0, 0, {}], ["batch_normalization_15", 0, 0, {}]]], "name": "add_7", "config": {"trainable": true, "name": "add_7"}}, {"class_name": "Activation", "inbound_nodes": [[["add_7", 0, 0, {}]]], "name": "activation_15", "config": {"trainable": true, "name": "activation_15", "activation": "relu"}}, {"class_name": "Conv2D", "inbound_nodes": [[["activation_15", 0, 0, {}]]], "name": "conv2d_16", "config": {"trainable": true, "data_format": "channels_last", "bias_constraint": null, "bias_regularizer": null, "use_bias": true, "bias_initializer": {"class_name": "Zeros", "config": {}}, "filters": 16, "kernel_initializer": {"class_name": "VarianceScaling", "config": {"seed": null, "distribution": "normal", "mode": "fan_in", "scale": 2.0}}, "padding": "same", "dilation_rate": [1, 1], "kernel_regularizer": {"class_name": "L1L2", "config": {"l2": 9.999999747378752e-05, "l1": 0.0}}, "kernel_size": [3, 3], "kernel_constraint": null, "name": "conv2d_16", "activity_regularizer": null, "strides": [1, 1], "activation": "linear"}}, {"class_name": "BatchNormalization", "inbound_nodes": [[["conv2d_16", 0, 0, {}]]], "name": "batch_normalization_16", "config": {"trainable": true, "beta_regularizer": null, "beta_initializer": {"class_name": "Zeros", "config": {}}, "gamma_regularizer": null, "scale": true, "moving_mean_initializer": {"class_name": "Zeros", "config": {}}, "axis": -1, "beta_constraint": null, "momentum": 0.99, "moving_variance_initializer": {"class_name": "Ones", "config": {}}, "name": "batch_normalization_16", "epsilon": 0.001, "center": true, "gamma_constraint": null, "gamma_initializer": {"class_name": "Ones", "config": {}}}}, {"class_name": "Activation", "inbound_nodes": [[["batch_normalization_16", 0, 0, {}]]], "name": "activation_16", "config": {"trainable": true, "name": "activation_16", "activation": "relu"}}, {"class_name": "Conv2D", "inbound_nodes": [[["activation_16", 0, 0, {}]]], "name": "conv2d_17", "config": {"trainable": true, "data_format": "channels_last", "bias_constraint": null, "bias_regularizer": null, "use_bias": true, "bias_initializer": {"class_name": "Zeros", "config": {}}, "filters": 16, "kernel_initializer": {"class_name": "VarianceScaling", "config": {"seed": null, "distribution": "normal", "mode": "fan_in", "scale": 2.0}}, "padding": "same", "dilation_rate": [1, 1], "kernel_regularizer": {"class_name": "L1L2", "config": {"l2": 9.999999747378752e-05, "l1": 0.0}}, "kernel_size": [3, 3], "kernel_constraint": null, "name": "conv2d_17", "activity_regularizer": null, "strides": [1, 1], "activation": "linear"}}, {"class_name": "BatchNormalization", "inbound_nodes": [[["conv2d_17", 0, 0, {}]]], "name": "batch_normalization_17", "config": {"trainable": true, "beta_regularizer": null, "beta_initializer": {"class_name": "Zeros", "config": {}}, "gamma_regularizer": null, "scale": true, "moving_mean_initializer": {"class_name": "Zeros", "config": {}}, "axis": -1, "beta_constraint": null, "momentum": 0.99, "moving_variance_initializer": {"class_name": "Ones", "config": {}}, "name": "batch_normalization_17", "epsilon": 0.001, "center": true, "gamma_constraint": null, "gamma_initializer": {"class_name": "Ones", "config": {}}}}, {"class_name": "Add", "inbound_nodes": [[["activation_15", 0, 0, {}], ["batch_normalization_17", 0, 0, {}]]], "name": "add_8", "config": {"trainable": true, "name": "add_8"}}, {"class_name": "Activation", "inbound_nodes": [[["add_8", 0, 0, {}]]], "name": "activation_17", "config": {"trainable": true, "name": "activation_17", "activation": "relu"}}, {"class_name": "Conv2D", "inbound_nodes": [[["activation_17", 0, 0, {}]]], "name": "conv2d_18", "config": {"trainable": true, "data_format": "channels_last", "bias_constraint": null, "bias_regularizer": null, "use_bias": true, "bias_initializer": {"class_name": "Zeros", "config": {}}, "filters": 16, "kernel_initializer": {"class_name": "VarianceScaling", "config": {"seed": null, "distribution": "normal", "mode": "fan_in", "scale": 2.0}}, "padding": "same", "dilation_rate": [1, 1], "kernel_regularizer": {"class_name": "L1L2", "config": {"l2": 9.999999747378752e-05, "l1": 0.0}}, "kernel_size": [3, 3], "kernel_constraint": null, "name": "conv2d_18", "activity_regularizer": null, "strides": [1, 1], "activation": "linear"}}, {"class_name": "BatchNormalization", "inbound_nodes": [[["conv2d_18", 0, 0, {}]]], "name": "batch_normalization_18", "config": {"trainable": true, "beta_regularizer": null, "beta_initializer": {"class_name": "Zeros", "config": {}}, "gamma_regularizer": null, "scale": true, "moving_mean_initializer": {"class_name": "Zeros", "config": {}}, "axis": -1, "beta_constraint": null, "momentum": 0.99, "moving_variance_initializer": {"class_name": "Ones", "config": {}}, "name": "batch_normalization_18", "epsilon": 0.001, "center": true, "gamma_constraint": null, "gamma_initializer": {"class_name": "Ones", "config": {}}}}, {"class_name": "Activation", "inbound_nodes": [[["batch_normalization_18", 0, 0, {}]]], "name": "activation_18", "config": {"trainable": true, "name": "activation_18", "activation": "relu"}}, {"class_name": "Conv2D", "inbound_nodes": [[["activation_18", 0, 0, {}]]], "name": "conv2d_19", "config": {"trainable": true, "data_format": "channels_last", "bias_constraint": null, "bias_regularizer": null, "use_bias": true, "bias_initializer": {"class_name": "Zeros", "config": {}}, "filters": 16, "kernel_initializer": {"class_name": "VarianceScaling", "config": {"seed": null, "distribution": "normal", "mode": "fan_in", "scale": 2.0}}, "padding": "same", "dilation_rate": [1, 1], "kernel_regularizer": {"class_name": "L1L2", "config": {"l2": 9.999999747378752e-05, "l1": 0.0}}, "kernel_size": [3, 3], "kernel_constraint": null, "name": "conv2d_19", "activity_regularizer": null, "strides": [1, 1], "activation": "linear"}}, {"class_name": "BatchNormalization", "inbound_nodes": [[["conv2d_19", 0, 0, {}]]], "name": "batch_normalization_19", "config": {"trainable": true, "beta_regularizer": null, "beta_initializer": {"class_name": "Zeros", "config": {}}, "gamma_regularizer": null, "scale": true, "moving_mean_initializer": {"class_name": "Zeros", "config": {}}, "axis": -1, "beta_constraint": null, "momentum": 0.99, "moving_variance_initializer": {"class_name": "Ones", "config": {}}, "name": "batch_normalization_19", "epsilon": 0.001, "center": true, "gamma_constraint": null, "gamma_initializer": {"class_name": "Ones", "config": {}}}}, {"class_name": "Add", "inbound_nodes": [[["activation_17", 0, 0, {}], ["batch_normalization_19", 0, 0, {}]]], "name": "add_9", "config": {"trainable": true, "name": "add_9"}}, {"class_name": "Activation", "inbound_nodes": [[["add_9", 0, 0, {}]]], "name": "activation_19", "config": {"trainable": true, "name": "activation_19", "activation": "relu"}}, {"class_name": "Conv2D", "inbound_nodes": [[["activation_19", 0, 0, {}]]], "name": "conv2d_20", "config": {"trainable": true, "data_format": "channels_last", "bias_constraint": null, "bias_regularizer": null, "use_bias": true, "bias_initializer": {"class_name": "Zeros", "config": {}}, "filters": 16, "kernel_initializer": {"class_name": "VarianceScaling", "config": {"seed": null, "distribution": "normal", "mode": "fan_in", "scale": 2.0}}, "padding": "same", "dilation_rate": [1, 1], "kernel_regularizer": {"class_name": "L1L2", "config": {"l2": 9.999999747378752e-05, "l1": 0.0}}, "kernel_size": [3, 3], "kernel_constraint": null, "name": "conv2d_20", "activity_regularizer": null, "strides": [1, 1], "activation": "linear"}}, {"class_name": "BatchNormalization", "inbound_nodes": [[["conv2d_20", 0, 0, {}]]], "name": "batch_normalization_20", "config": {"trainable": true, "beta_regularizer": null, "beta_initializer": {"class_name": "Zeros", "config": {}}, "gamma_regularizer": null, "scale": true, "moving_mean_initializer": {"class_name": "Zeros", "config": {}}, "axis": -1, "beta_constraint": null, "momentum": 0.99, "moving_variance_initializer": {"class_name": "Ones", "config": {}}, "name": "batch_normalization_20", "epsilon": 0.001, "center": true, "gamma_constraint": null, "gamma_initializer": {"class_name": "Ones", "config": {}}}}, {"class_name": "Activation", "inbound_nodes": [[["batch_normalization_20", 0, 0, {}]]], "name": "activation_20", "config": {"trainable": true, "name": "activation_20", "activation": "relu"}}, {"class_name": "Conv2D", "inbound_nodes": [[["activation_20", 0, 0, {}]]], "name": "conv2d_21", "config": {"trainable": true, "data_format": "channels_last", "bias_constraint": null, "bias_regularizer": null, "use_bias": true, "bias_initializer": {"class_name": "Zeros", "config": {}}, "filters": 16, "kernel_initializer": {"class_name": "VarianceScaling", "config": {"seed": null, "distribution": "normal", "mode": "fan_in", "scale": 2.0}}, "padding": "same", "dilation_rate": [1, 1], "kernel_regularizer": {"class_name": "L1L2", "config": {"l2": 9.999999747378752e-05, "l1": 0.0}}, "kernel_size": [3, 3], "kernel_constraint": null, "name": "conv2d_21", "activity_regularizer": null, "strides": [1, 1], "activation": "linear"}}, {"class_name": "BatchNormalization", "inbound_nodes": [[["conv2d_21", 0, 0, {}]]], "name": "batch_normalization_21", "config": {"trainable": true, "beta_regularizer": null, "beta_initializer": {"class_name": "Zeros", "config": {}}, "gamma_regularizer": null, "scale": true, "moving_mean_initializer": {"class_name": "Zeros", "config": {}}, "axis": -1, "beta_constraint": null, "momentum": 0.99, "moving_variance_initializer": {"class_name": "Ones", "config": {}}, "name": "batch_normalization_21", "epsilon": 0.001, "center": true, "gamma_constraint": null, "gamma_initializer": {"class_name": "Ones", "config": {}}}}, {"class_name": "Add", "inbound_nodes": [[["activation_19", 0, 0, {}], ["batch_normalization_21", 0, 0, {}]]], "name": "add_10", "config": {"trainable": true, "name": "add_10"}}, {"class_name": "Activation", "inbound_nodes": [[["add_10", 0, 0, {}]]], "name": "activation_21", "config": {"trainable": true, "name": "activation_21", "activation": "relu"}}, {"class_name": "Conv2D", "inbound_nodes": [[["activation_21", 0, 0, {}]]], "name": "conv2d_22", "config": {"trainable": true, "data_format": "channels_last", "bias_constraint": null, "bias_regularizer": null, "use_bias": true, "bias_initializer": {"class_name": "Zeros", "config": {}}, "filters": 16, "kernel_initializer": {"class_name": "VarianceScaling", "config": {"seed": null, "distribution": "normal", "mode": "fan_in", "scale": 2.0}}, "padding": "same", "dilation_rate": [1, 1], "kernel_regularizer": {"class_name": "L1L2", "config": {"l2": 9.999999747378752e-05, "l1": 0.0}}, "kernel_size": [3, 3], "kernel_constraint": null, "name": "conv2d_22", "activity_regularizer": null, "strides": [1, 1], "activation": "linear"}}, {"class_name": "BatchNormalization", "inbound_nodes": [[["conv2d_22", 0, 0, {}]]], "name": "batch_normalization_22", "config": {"trainable": true, "beta_regularizer": null, "beta_initializer": {"class_name": "Zeros", "config": {}}, "gamma_regularizer": null, "scale": true, "moving_mean_initializer": {"class_name": "Zeros", "config": {}}, "axis": -1, "beta_constraint": null, "momentum": 0.99, "moving_variance_initializer": {"class_name": "Ones", "config": {}}, "name": "batch_normalization_22", "epsilon": 0.001, "center": true, "gamma_constraint": null, "gamma_initializer": {"class_name": "Ones", "config": {}}}}, {"class_name": "Activation", "inbound_nodes": [[["batch_normalization_22", 0, 0, {}]]], "name": "activation_22", "config": {"trainable": true, "name": "activation_22", "activation": "relu"}}, {"class_name": "Conv2D", "inbound_nodes": [[["activation_22", 0, 0, {}]]], "name": "conv2d_23", "config": {"trainable": true, "data_format": "channels_last", "bias_constraint": null, "bias_regularizer": null, "use_bias": true, "bias_initializer": {"class_name": "Zeros", "config": {}}, "filters": 16, "kernel_initializer": {"class_name": "VarianceScaling", "config": {"seed": null, "distribution": "normal", "mode": "fan_in", "scale": 2.0}}, "padding": "same", "dilation_rate": [1, 1], "kernel_regularizer": {"class_name": "L1L2", "config": {"l2": 9.999999747378752e-05, "l1": 0.0}}, "kernel_size": [3, 3], "kernel_constraint": null, "name": "conv2d_23", "activity_regularizer": null, "strides": [1, 1], "activation": "linear"}}, {"class_name": "BatchNormalization", "inbound_nodes": [[["conv2d_23", 0, 0, {}]]], "name": "batch_normalization_23", "config": {"trainable": true, "beta_regularizer": null, "beta_initializer": {"class_name": "Zeros", "config": {}}, "gamma_regularizer": null, "scale": true, "moving_mean_initializer": {"class_name": "Zeros", "config": {}}, "axis": -1, "beta_constraint": null, "momentum": 0.99, "moving_variance_initializer": {"class_name": "Ones", "config": {}}, "name": "batch_normalization_23", "epsilon": 0.001, "center": true, "gamma_constraint": null, "gamma_initializer": {"class_name": "Ones", "config": {}}}}, {"class_name": "Add", "inbound_nodes": [[["activation_21", 0, 0, {}], ["batch_normalization_23", 0, 0, {}]]], "name": "add_11", "config": {"trainable": true, "name": "add_11"}}, {"class_name": "Activation", "inbound_nodes": [[["add_11", 0, 0, {}]]], "name": "activation_23", "config": {"trainable": true, "name": "activation_23", "activation": "relu"}}, {"class_name": "Conv2D", "inbound_nodes": [[["activation_23", 0, 0, {}]]], "name": "conv2d_24", "config": {"trainable": true, "data_format": "channels_last", "bias_constraint": null, "bias_regularizer": null, "use_bias": true, "bias_initializer": {"class_name": "Zeros", "config": {}}, "filters": 16, "kernel_initializer": {"class_name": "VarianceScaling", "config": {"seed": null, "distribution": "normal", "mode": "fan_in", "scale": 2.0}}, "padding": "same", "dilation_rate": [1, 1], "kernel_regularizer": {"class_name": "L1L2", "config": {"l2": 9.999999747378752e-05, "l1": 0.0}}, "kernel_size": [3, 3], "kernel_constraint": null, "name": "conv2d_24", "activity_regularizer": null, "strides": [1, 1], "activation": "linear"}}, {"class_name": "BatchNormalization", "inbound_nodes": [[["conv2d_24", 0, 0, {}]]], "name": "batch_normalization_24", "config": {"trainable": true, "beta_regularizer": null, "beta_initializer": {"class_name": "Zeros", "config": {}}, "gamma_regularizer": null, "scale": true, "moving_mean_initializer": {"class_name": "Zeros", "config": {}}, "axis": -1, "beta_constraint": null, "momentum": 0.99, "moving_variance_initializer": {"class_name": "Ones", "config": {}}, "name": "batch_normalization_24", "epsilon": 0.001, "center": true, "gamma_constraint": null, "gamma_initializer": {"class_name": "Ones", "config": {}}}}, {"class_name": "Activation", "inbound_nodes": [[["batch_normalization_24", 0, 0, {}]]], "name": "activation_24", "config": {"trainable": true, "name": "activation_24", "activation": "relu"}}, {"class_name": "Conv2D", "inbound_nodes": [[["activation_24", 0, 0, {}]]], "name": "conv2d_25", "config": {"trainable": true, "data_format": "channels_last", "bias_constraint": null, "bias_regularizer": null, "use_bias": true, "bias_initializer": {"class_name": "Zeros", "config": {}}, "filters": 16, "kernel_initializer": {"class_name": "VarianceScaling", "config": {"seed": null, "distribution": "normal", "mode": "fan_in", "scale": 2.0}}, "padding": "same", "dilation_rate": [1, 1], "kernel_regularizer": {"class_name": "L1L2", "config": {"l2": 9.999999747378752e-05, "l1": 0.0}}, "kernel_size": [3, 3], "kernel_constraint": null, "name": "conv2d_25", "activity_regularizer": null, "strides": [1, 1], "activation": "linear"}}, {"class_name": "BatchNormalization", "inbound_nodes": [[["conv2d_25", 0, 0, {}]]], "name": "batch_normalization_25", "config": {"trainable": true, "beta_regularizer": null, "beta_initializer": {"class_name": "Zeros", "config": {}}, "gamma_regularizer": null, "scale": true, "moving_mean_initializer": {"class_name": "Zeros", "config": {}}, "axis": -1, "beta_constraint": null, "momentum": 0.99, "moving_variance_initializer": {"class_name": "Ones", "config": {}}, "name": "batch_normalization_25", "epsilon": 0.001, "center": true, "gamma_constraint": null, "gamma_initializer": {"class_name": "Ones", "config": {}}}}, {"class_name": "Add", "inbound_nodes": [[["activation_23", 0, 0, {}], ["batch_normalization_25", 0, 0, {}]]], "name": "add_12", "config": {"trainable": true, "name": "add_12"}}, {"class_name": "Activation", "inbound_nodes": [[["add_12", 0, 0, {}]]], "name": "activation_25", "config": {"trainable": true, "name": "activation_25", "activation": "relu"}}, {"class_name": "Conv2D", "inbound_nodes": [[["activation_25", 0, 0, {}]]], "name": "conv2d_26", "config": {"trainable": true, "data_format": "channels_last", "bias_constraint": null, "bias_regularizer": null, "use_bias": true, "bias_initializer": {"class_name": "Zeros", "config": {}}, "filters": 16, "kernel_initializer": {"class_name": "VarianceScaling", "config": {"seed": null, "distribution": "normal", "mode": "fan_in", "scale": 2.0}}, "padding": "same", "dilation_rate": [1, 1], "kernel_regularizer": {"class_name": "L1L2", "config": {"l2": 9.999999747378752e-05, "l1": 0.0}}, "kernel_size": [3, 3], "kernel_constraint": null, "name": "conv2d_26", "activity_regularizer": null, "strides": [1, 1], "activation": "linear"}}, {"class_name": "BatchNormalization", "inbound_nodes": [[["conv2d_26", 0, 0, {}]]], "name": "batch_normalization_26", "config": {"trainable": true, "beta_regularizer": null, "beta_initializer": {"class_name": "Zeros", "config": {}}, "gamma_regularizer": null, "scale": true, "moving_mean_initializer": {"class_name": "Zeros", "config": {}}, "axis": -1, "beta_constraint": null, "momentum": 0.99, "moving_variance_initializer": {"class_name": "Ones", "config": {}}, "name": "batch_normalization_26", "epsilon": 0.001, "center": true, "gamma_constraint": null, "gamma_initializer": {"class_name": "Ones", "config": {}}}}, {"class_name": "Activation", "inbound_nodes": [[["batch_normalization_26", 0, 0, {}]]], "name": "activation_26", "config": {"trainable": true, "name": "activation_26", "activation": "relu"}}, {"class_name": "Conv2D", "inbound_nodes": [[["activation_26", 0, 0, {}]]], "name": "conv2d_27", "config": {"trainable": true, "data_format": "channels_last", "bias_constraint": null, "bias_regularizer": null, "use_bias": true, "bias_initializer": {"class_name": "Zeros", "config": {}}, "filters": 16, "kernel_initializer": {"class_name": "VarianceScaling", "config": {"seed": null, "distribution": "normal", "mode": "fan_in", "scale": 2.0}}, "padding": "same", "dilation_rate": [1, 1], "kernel_regularizer": {"class_name": "L1L2", "config": {"l2": 9.999999747378752e-05, "l1": 0.0}}, "kernel_size": [3, 3], "kernel_constraint": null, "name": "conv2d_27", "activity_regularizer": null, "strides": [1, 1], "activation": "linear"}}, {"class_name": "BatchNormalization", "inbound_nodes": [[["conv2d_27", 0, 0, {}]]], "name": "batch_normalization_27", "config": {"trainable": true, "beta_regularizer": null, "beta_initializer": {"class_name": "Zeros", "config": {}}, "gamma_regularizer": null, "scale": true, "moving_mean_initializer": {"class_name": "Zeros", "config": {}}, "axis": -1, "beta_constraint": null, "momentum": 0.99, "moving_variance_initializer": {"class_name": "Ones", "config": {}}, "name": "batch_normalization_27", "epsilon": 0.001, "center": true, "gamma_constraint": null, "gamma_initializer": {"class_name": "Ones", "config": {}}}}, {"class_name": "Add", "inbound_nodes": [[["activation_25", 0, 0, {}], ["batch_normalization_27", 0, 0, {}]]], "name": "add_13", "config": {"trainable": true, "name": "add_13"}}, {"class_name": "Activation", "inbound_nodes": [[["add_13", 0, 0, {}]]], "name": "activation_27", "config": {"trainable": true, "name": "activation_27", "activation": "relu"}}, {"class_name": "Conv2D", "inbound_nodes": [[["activation_27", 0, 0, {}]]], "name": "conv2d_28", "config": {"trainable": true, "data_format": "channels_last", "bias_constraint": null, "bias_regularizer": null, "use_bias": true, "bias_initializer": {"class_name": "Zeros", "config": {}}, "filters": 16, "kernel_initializer": {"class_name": "VarianceScaling", "config": {"seed": null, "distribution": "normal", "mode": "fan_in", "scale": 2.0}}, "padding": "same", "dilation_rate": [1, 1], "kernel_regularizer": {"class_name": "L1L2", "config": {"l2": 9.999999747378752e-05, "l1": 0.0}}, "kernel_size": [3, 3], "kernel_constraint": null, "name": "conv2d_28", "activity_regularizer": null, "strides": [1, 1], "activation": "linear"}}, {"class_name": "BatchNormalization", "inbound_nodes": [[["conv2d_28", 0, 0, {}]]], "name": "batch_normalization_28", "config": {"trainable": true, "beta_regularizer": null, "beta_initializer": {"class_name": "Zeros", "config": {}}, "gamma_regularizer": null, "scale": true, "moving_mean_initializer": {"class_name": "Zeros", "config": {}}, "axis": -1, "beta_constraint": null, "momentum": 0.99, "moving_variance_initializer": {"class_name": "Ones", "config": {}}, "name": "batch_normalization_28", "epsilon": 0.001, "center": true, "gamma_constraint": null, "gamma_initializer": {"class_name": "Ones", "config": {}}}}, {"class_name": "Activation", "inbound_nodes": [[["batch_normalization_28", 0, 0, {}]]], "name": "activation_28", "config": {"trainable": true, "name": "activation_28", "activation": "relu"}}, {"class_name": "Conv2D", "inbound_nodes": [[["activation_28", 0, 0, {}]]], "name": "conv2d_29", "config": {"trainable": true, "data_format": "channels_last", "bias_constraint": null, "bias_regularizer": null, "use_bias": true, "bias_initializer": {"class_name": "Zeros", "config": {}}, "filters": 16, "kernel_initializer": {"class_name": "VarianceScaling", "config": {"seed": null, "distribution": "normal", "mode": "fan_in", "scale": 2.0}}, "padding": "same", "dilation_rate": [1, 1], "kernel_regularizer": {"class_name": "L1L2", "config": {"l2": 9.999999747378752e-05, "l1": 0.0}}, "kernel_size": [3, 3], "kernel_constraint": null, "name": "conv2d_29", "activity_regularizer": null, "strides": [1, 1], "activation": "linear"}}, {"class_name": "BatchNormalization", "inbound_nodes": [[["conv2d_29", 0, 0, {}]]], "name": "batch_normalization_29", "config": {"trainable": true, "beta_regularizer": null, "beta_initializer": {"class_name": "Zeros", "config": {}}, "gamma_regularizer": null, "scale": true, "moving_mean_initializer": {"class_name": "Zeros", "config": {}}, "axis": -1, "beta_constraint": null, "momentum": 0.99, "moving_variance_initializer": {"class_name": "Ones", "config": {}}, "name": "batch_normalization_29", "epsilon": 0.001, "center": true, "gamma_constraint": null, "gamma_initializer": {"class_name": "Ones", "config": {}}}}, {"class_name": "Add", "inbound_nodes": [[["activation_27", 0, 0, {}], ["batch_normalization_29", 0, 0, {}]]], "name": "add_14", "config": {"trainable": true, "name": "add_14"}}, {"class_name": "Activation", "inbound_nodes": [[["add_14", 0, 0, {}]]], "name": "activation_29", "config": {"trainable": true, "name": "activation_29", "activation": "relu"}}, {"class_name": "Conv2D", "inbound_nodes": [[["activation_29", 0, 0, {}]]], "name": "conv2d_30", "config": {"trainable": true, "data_format": "channels_last", "bias_constraint": null, "bias_regularizer": null, "use_bias": true, "bias_initializer": {"class_name": "Zeros", "config": {}}, "filters": 16, "kernel_initializer": {"class_name": "VarianceScaling", "config": {"seed": null, "distribution": "normal", "mode": "fan_in", "scale": 2.0}}, "padding": "same", "dilation_rate": [1, 1], "kernel_regularizer": {"class_name": "L1L2", "config": {"l2": 9.999999747378752e-05, "l1": 0.0}}, "kernel_size": [3, 3], "kernel_constraint": null, "name": "conv2d_30", "activity_regularizer": null, "strides": [1, 1], "activation": "linear"}}, {"class_name": "BatchNormalization", "inbound_nodes": [[["conv2d_30", 0, 0, {}]]], "name": "batch_normalization_30", "config": {"trainable": true, "beta_regularizer": null, "beta_initializer": {"class_name": "Zeros", "config": {}}, "gamma_regularizer": null, "scale": true, "moving_mean_initializer": {"class_name": "Zeros", "config": {}}, "axis": -1, "beta_constraint": null, "momentum": 0.99, "moving_variance_initializer": {"class_name": "Ones", "config": {}}, "name": "batch_normalization_30", "epsilon": 0.001, "center": true, "gamma_constraint": null, "gamma_initializer": {"class_name": "Ones", "config": {}}}}, {"class_name": "Activation", "inbound_nodes": [[["batch_normalization_30", 0, 0, {}]]], "name": "activation_30", "config": {"trainable": true, "name": "activation_30", "activation": "relu"}}, {"class_name": "Conv2D", "inbound_nodes": [[["activation_30", 0, 0, {}]]], "name": "conv2d_31", "config": {"trainable": true, "data_format": "channels_last", "bias_constraint": null, "bias_regularizer": null, "use_bias": true, "bias_initializer": {"class_name": "Zeros", "config": {}}, "filters": 16, "kernel_initializer": {"class_name": "VarianceScaling", "config": {"seed": null, "distribution": "normal", "mode": "fan_in", "scale": 2.0}}, "padding": "same", "dilation_rate": [1, 1], "kernel_regularizer": {"class_name": "L1L2", "config": {"l2": 9.999999747378752e-05, "l1": 0.0}}, "kernel_size": [3, 3], "kernel_constraint": null, "name": "conv2d_31", "activity_regularizer": null, "strides": [1, 1], "activation": "linear"}}, {"class_name": "BatchNormalization", "inbound_nodes": [[["conv2d_31", 0, 0, {}]]], "name": "batch_normalization_31", "config": {"trainable": true, "beta_regularizer": null, "beta_initializer": {"class_name": "Zeros", "config": {}}, "gamma_regularizer": null, "scale": true, "moving_mean_initializer": {"class_name": "Zeros", "config": {}}, "axis": -1, "beta_constraint": null, "momentum": 0.99, "moving_variance_initializer": {"class_name": "Ones", "config": {}}, "name": "batch_normalization_31", "epsilon": 0.001, "center": true, "gamma_constraint": null, "gamma_initializer": {"class_name": "Ones", "config": {}}}}, {"class_name": "Add", "inbound_nodes": [[["activation_29", 0, 0, {}], ["batch_normalization_31", 0, 0, {}]]], "name": "add_15", "config": {"trainable": true, "name": "add_15"}}, {"class_name": "Activation", "inbound_nodes": [[["add_15", 0, 0, {}]]], "name": "activation_31", "config": {"trainable": true, "name": "activation_31", "activation": "relu"}}, {"class_name": "Conv2D", "inbound_nodes": [[["activation_31", 0, 0, {}]]], "name": "conv2d_32", "config": {"trainable": true, "data_format": "channels_last", "bias_constraint": null, "bias_regularizer": null, "use_bias": true, "bias_initializer": {"class_name": "Zeros", "config": {}}, "filters": 16, "kernel_initializer": {"class_name": "VarianceScaling", "config": {"seed": null, "distribution": "normal", "mode": "fan_in", "scale": 2.0}}, "padding": "same", "dilation_rate": [1, 1], "kernel_regularizer": {"class_name": "L1L2", "config": {"l2": 9.999999747378752e-05, "l1": 0.0}}, "kernel_size": [3, 3], "kernel_constraint": null, "name": "conv2d_32", "activity_regularizer": null, "strides": [1, 1], "activation": "linear"}}, {"class_name": "BatchNormalization", "inbound_nodes": [[["conv2d_32", 0, 0, {}]]], "name": "batch_normalization_32", "config": {"trainable": true, "beta_regularizer": null, "beta_initializer": {"class_name": "Zeros", "config": {}}, "gamma_regularizer": null, "scale": true, "moving_mean_initializer": {"class_name": "Zeros", "config": {}}, "axis": -1, "beta_constraint": null, "momentum": 0.99, "moving_variance_initializer": {"class_name": "Ones", "config": {}}, "name": "batch_normalization_32", "epsilon": 0.001, "center": true, "gamma_constraint": null, "gamma_initializer": {"class_name": "Ones", "config": {}}}}, {"class_name": "Activation", "inbound_nodes": [[["batch_normalization_32", 0, 0, {}]]], "name": "activation_32", "config": {"trainable": true, "name": "activation_32", "activation": "relu"}}, {"class_name": "Conv2D", "inbound_nodes": [[["activation_32", 0, 0, {}]]], "name": "conv2d_33", "config": {"trainable": true, "data_format": "channels_last", "bias_constraint": null, "bias_regularizer": null, "use_bias": true, "bias_initializer": {"class_name": "Zeros", "config": {}}, "filters": 16, "kernel_initializer": {"class_name": "VarianceScaling", "config": {"seed": null, "distribution": "normal", "mode": "fan_in", "scale": 2.0}}, "padding": "same", "dilation_rate": [1, 1], "kernel_regularizer": {"class_name": "L1L2", "config": {"l2": 9.999999747378752e-05, "l1": 0.0}}, "kernel_size": [3, 3], "kernel_constraint": null, "name": "conv2d_33", "activity_regularizer": null, "strides": [1, 1], "activation": "linear"}}, {"class_name": "BatchNormalization", "inbound_nodes": [[["conv2d_33", 0, 0, {}]]], "name": "batch_normalization_33", "config": {"trainable": true, "beta_regularizer": null, "beta_initializer": {"class_name": "Zeros", "config": {}}, "gamma_regularizer": null, "scale": true, "moving_mean_initializer": {"class_name": "Zeros", "config": {}}, "axis": -1, "beta_constraint": null, "momentum": 0.99, "moving_variance_initializer": {"class_name": "Ones", "config": {}}, "name": "batch_normalization_33", "epsilon": 0.001, "center": true, "gamma_constraint": null, "gamma_initializer": {"class_name": "Ones", "config": {}}}}, {"class_name": "Add", "inbound_nodes": [[["activation_31", 0, 0, {}], ["batch_normalization_33", 0, 0, {}]]], "name": "add_16", "config": {"trainable": true, "name": "add_16"}}, {"class_name": "Activation", "inbound_nodes": [[["add_16", 0, 0, {}]]], "name": "activation_33", "config": {"trainable": true, "name": "activation_33", "activation": "relu"}}, {"class_name": "Conv2D", "inbound_nodes": [[["activation_33", 0, 0, {}]]], "name": "conv2d_34", "config": {"trainable": true, "data_format": "channels_last", "bias_constraint": null, "bias_regularizer": null, "use_bias": true, "bias_initializer": {"class_name": "Zeros", "config": {}}, "filters": 16, "kernel_initializer": {"class_name": "VarianceScaling", "config": {"seed": null, "distribution": "normal", "mode": "fan_in", "scale": 2.0}}, "padding": "same", "dilation_rate": [1, 1], "kernel_regularizer": {"class_name": "L1L2", "config": {"l2": 9.999999747378752e-05, "l1": 0.0}}, "kernel_size": [3, 3], "kernel_constraint": null, "name": "conv2d_34", "activity_regularizer": null, "strides": [1, 1], "activation": "linear"}}, {"class_name": "BatchNormalization", "inbound_nodes": [[["conv2d_34", 0, 0, {}]]], "name": "batch_normalization_34", "config": {"trainable": true, "beta_regularizer": null, "beta_initializer": {"class_name": "Zeros", "config": {}}, "gamma_regularizer": null, "scale": true, "moving_mean_initializer": {"class_name": "Zeros", "config": {}}, "axis": -1, "beta_constraint": null, "momentum": 0.99, "moving_variance_initializer": {"class_name": "Ones", "config": {}}, "name": "batch_normalization_34", "epsilon": 0.001, "center": true, "gamma_constraint": null, "gamma_initializer": {"class_name": "Ones", "config": {}}}}, {"class_name": "Activation", "inbound_nodes": [[["batch_normalization_34", 0, 0, {}]]], "name": "activation_34", "config": {"trainable": true, "name": "activation_34", "activation": "relu"}}, {"class_name": "Conv2D", "inbound_nodes": [[["activation_34", 0, 0, {}]]], "name": "conv2d_35", "config": {"trainable": true, "data_format": "channels_last", "bias_constraint": null, "bias_regularizer": null, "use_bias": true, "bias_initializer": {"class_name": "Zeros", "config": {}}, "filters": 16, "kernel_initializer": {"class_name": "VarianceScaling", "config": {"seed": null, "distribution": "normal", "mode": "fan_in", "scale": 2.0}}, "padding": "same", "dilation_rate": [1, 1], "kernel_regularizer": {"class_name": "L1L2", "config": {"l2": 9.999999747378752e-05, "l1": 0.0}}, "kernel_size": [3, 3], "kernel_constraint": null, "name": "conv2d_35", "activity_regularizer": null, "strides": [1, 1], "activation": "linear"}}, {"class_name": "BatchNormalization", "inbound_nodes": [[["conv2d_35", 0, 0, {}]]], "name": "batch_normalization_35", "config": {"trainable": true, "beta_regularizer": null, "beta_initializer": {"class_name": "Zeros", "config": {}}, "gamma_regularizer": null, "scale": true, "moving_mean_initializer": {"class_name": "Zeros", "config": {}}, "axis": -1, "beta_constraint": null, "momentum": 0.99, "moving_variance_initializer": {"class_name": "Ones", "config": {}}, "name": "batch_normalization_35", "epsilon": 0.001, "center": true, "gamma_constraint": null, "gamma_initializer": {"class_name": "Ones", "config": {}}}}, {"class_name": "Add", "inbound_nodes": [[["activation_33", 0, 0, {}], ["batch_normalization_35", 0, 0, {}]]], "name": "add_17", "config": {"trainable": true, "name": "add_17"}}, {"class_name": "Activation", "inbound_nodes": [[["add_17", 0, 0, {}]]], "name": "activation_35", "config": {"trainable": true, "name": "activation_35", "activation": "relu"}}, {"class_name": "Conv2D", "inbound_nodes": [[["activation_35", 0, 0, {}]]], "name": "conv2d_36", "config": {"trainable": true, "data_format": "channels_last", "bias_constraint": null, "bias_regularizer": null, "use_bias": true, "bias_initializer": {"class_name": "Zeros", "config": {}}, "filters": 16, "kernel_initializer": {"class_name": "VarianceScaling", "config": {"seed": null, "distribution": "normal", "mode": "fan_in", "scale": 2.0}}, "padding": "same", "dilation_rate": [1, 1], "kernel_regularizer": {"class_name": "L1L2", "config": {"l2": 9.999999747378752e-05, "l1": 0.0}}, "kernel_size": [3, 3], "kernel_constraint": null, "name": "conv2d_36", "activity_regularizer": null, "strides": [1, 1], "activation": "linear"}}, {"class_name": "BatchNormalization", "inbound_nodes": [[["conv2d_36", 0, 0, {}]]], "name": "batch_normalization_36", "config": {"trainable": true, "beta_regularizer": null, "beta_initializer": {"class_name": "Zeros", "config": {}}, "gamma_regularizer": null, "scale": true, "moving_mean_initializer": {"class_name": "Zeros", "config": {}}, "axis": -1, "beta_constraint": null, "momentum": 0.99, "moving_variance_initializer": {"class_name": "Ones", "config": {}}, "name": "batch_normalization_36", "epsilon": 0.001, "center": true, "gamma_constraint": null, "gamma_initializer": {"class_name": "Ones", "config": {}}}}, {"class_name": "Activation", "inbound_nodes": [[["batch_normalization_36", 0, 0, {}]]], "name": "activation_36", "config": {"trainable": true, "name": "activation_36", "activation": "relu"}}, {"class_name": "Conv2D", "inbound_nodes": [[["activation_36", 0, 0, {}]]], "name": "conv2d_37", "config": {"trainable": true, "data_format": "channels_last", "bias_constraint": null, "bias_regularizer": null, "use_bias": true, "bias_initializer": {"class_name": "Zeros", "config": {}}, "filters": 16, "kernel_initializer": {"class_name": "VarianceScaling", "config": {"seed": null, "distribution": "normal", "mode": "fan_in", "scale": 2.0}}, "padding": "same", "dilation_rate": [1, 1], "kernel_regularizer": {"class_name": "L1L2", "config": {"l2": 9.999999747378752e-05, "l1": 0.0}}, "kernel_size": [3, 3], "kernel_constraint": null, "name": "conv2d_37", "activity_regularizer": null, "strides": [1, 1], "activation": "linear"}}, {"class_name": "BatchNormalization", "inbound_nodes": [[["conv2d_37", 0, 0, {}]]], "name": "batch_normalization_37", "config": {"trainable": true, "beta_regularizer": null, "beta_initializer": {"class_name": "Zeros", "config": {}}, "gamma_regularizer": null, "scale": true, "moving_mean_initializer": {"class_name": "Zeros", "config": {}}, "axis": -1, "beta_constraint": null, "momentum": 0.99, "moving_variance_initializer": {"class_name": "Ones", "config": {}}, "name": "batch_normalization_37", "epsilon": 0.001, "center": true, "gamma_constraint": null, "gamma_initializer": {"class_name": "Ones", "config": {}}}}, {"class_name": "Add", "inbound_nodes": [[["activation_35", 0, 0, {}], ["batch_normalization_37", 0, 0, {}]]], "name": "add_18", "config": {"trainable": true, "name": "add_18"}}, {"class_name": "Activation", "inbound_nodes": [[["add_18", 0, 0, {}]]], "name": "activation_37", "config": {"trainable": true, "name": "activation_37", "activation": "relu"}}, {"class_name": "Conv2D", "inbound_nodes": [[["activation_37", 0, 0, {}]]], "name": "conv2d_38", "config": {"trainable": true, "data_format": "channels_last", "bias_constraint": null, "bias_regularizer": null, "use_bias": true, "bias_initializer": {"class_name": "Zeros", "config": {}}, "filters": 32, "kernel_initializer": {"class_name": "VarianceScaling", "config": {"seed": null, "distribution": "normal", "mode": "fan_in", "scale": 2.0}}, "padding": "same", "dilation_rate": [1, 1], "kernel_regularizer": {"class_name": "L1L2", "config": {"l2": 9.999999747378752e-05, "l1": 0.0}}, "kernel_size": [3, 3], "kernel_constraint": null, "name": "conv2d_38", "activity_regularizer": null, "strides": [2, 2], "activation": "linear"}}, {"class_name": "BatchNormalization", "inbound_nodes": [[["conv2d_38", 0, 0, {}]]], "name": "batch_normalization_38", "config": {"trainable": true, "beta_regularizer": null, "beta_initializer": {"class_name": "Zeros", "config": {}}, "gamma_regularizer": null, "scale": true, "moving_mean_initializer": {"class_name": "Zeros", "config": {}}, "axis": -1, "beta_constraint": null, "momentum": 0.99, "moving_variance_initializer": {"class_name": "Ones", "config": {}}, "name": "batch_normalization_38", "epsilon": 0.001, "center": true, "gamma_constraint": null, "gamma_initializer": {"class_name": "Ones", "config": {}}}}, {"class_name": "Activation", "inbound_nodes": [[["batch_normalization_38", 0, 0, {}]]], "name": "activation_38", "config": {"trainable": true, "name": "activation_38", "activation": "relu"}}, {"class_name": "Conv2D", "inbound_nodes": [[["activation_38", 0, 0, {}]]], "name": "conv2d_39", "config": {"trainable": true, "data_format": "channels_last", "bias_constraint": null, "bias_regularizer": null, "use_bias": true, "bias_initializer": {"class_name": "Zeros", "config": {}}, "filters": 32, "kernel_initializer": {"class_name": "VarianceScaling", "config": {"seed": null, "distribution": "normal", "mode": "fan_in", "scale": 2.0}}, "padding": "same", "dilation_rate": [1, 1], "kernel_regularizer": {"class_name": "L1L2", "config": {"l2": 9.999999747378752e-05, "l1": 0.0}}, "kernel_size": [3, 3], "kernel_constraint": null, "name": "conv2d_39", "activity_regularizer": null, "strides": [1, 1], "activation": "linear"}}, {"class_name": "Conv2D", "inbound_nodes": [[["activation_37", 0, 0, {}]]], "name": "conv2d_40", "config": {"trainable": true, "data_format": "channels_last", "bias_constraint": null, "bias_regularizer": null, "use_bias": true, "bias_initializer": {"class_name": "Zeros", "config": {}}, "filters": 32, "kernel_initializer": {"class_name": "VarianceScaling", "config": {"seed": null, "distribution": "normal", "mode": "fan_in", "scale": 2.0}}, "padding": "same", "dilation_rate": [1, 1], "kernel_regularizer": {"class_name": "L1L2", "config": {"l2": 9.999999747378752e-05, "l1": 0.0}}, "kernel_size": [1, 1], "kernel_constraint": null, "name": "conv2d_40", "activity_regularizer": null, "strides": [2, 2], "activation": "linear"}}, {"class_name": "BatchNormalization", "inbound_nodes": [[["conv2d_39", 0, 0, {}]]], "name": "batch_normalization_39", "config": {"trainable": true, "beta_regularizer": null, "beta_initializer": {"class_name": "Zeros", "config": {}}, "gamma_regularizer": null, "scale": true, "moving_mean_initializer": {"class_name": "Zeros", "config": {}}, "axis": -1, "beta_constraint": null, "momentum": 0.99, "moving_variance_initializer": {"class_name": "Ones", "config": {}}, "name": "batch_normalization_39", "epsilon": 0.001, "center": true, "gamma_constraint": null, "gamma_initializer": {"class_name": "Ones", "config": {}}}}, {"class_name": "Add", "inbound_nodes": [[["conv2d_40", 0, 0, {}], ["batch_normalization_39", 0, 0, {}]]], "name": "add_19", "config": {"trainable": true, "name": "add_19"}}, {"class_name": "Activation", "inbound_nodes": [[["add_19", 0, 0, {}]]], "name": "activation_39", "config": {"trainable": true, "name": "activation_39", "activation": "relu"}}, {"class_name": "Conv2D", "inbound_nodes": [[["activation_39", 0, 0, {}]]], "name": "conv2d_41", "config": {"trainable": true, "data_format": "channels_last", "bias_constraint": null, "bias_regularizer": null, "use_bias": true, "bias_initializer": {"class_name": "Zeros", "config": {}}, "filters": 32, "kernel_initializer": {"class_name": "VarianceScaling", "config": {"seed": null, "distribution": "normal", "mode": "fan_in", "scale": 2.0}}, "padding": "same", "dilation_rate": [1, 1], "kernel_regularizer": {"class_name": "L1L2", "config": {"l2": 9.999999747378752e-05, "l1": 0.0}}, "kernel_size": [3, 3], "kernel_constraint": null, "name": "conv2d_41", "activity_regularizer": null, "strides": [1, 1], "activation": "linear"}}, {"class_name": "BatchNormalization", "inbound_nodes": [[["conv2d_41", 0, 0, {}]]], "name": "batch_normalization_40", "config": {"trainable": true, "beta_regularizer": null, "beta_initializer": {"class_name": "Zeros", "config": {}}, "gamma_regularizer": null, "scale": true, "moving_mean_initializer": {"class_name": "Zeros", "config": {}}, "axis": -1, "beta_constraint": null, "momentum": 0.99, "moving_variance_initializer": {"class_name": "Ones", "config": {}}, "name": "batch_normalization_40", "epsilon": 0.001, "center": true, "gamma_constraint": null, "gamma_initializer": {"class_name": "Ones", "config": {}}}}, {"class_name": "Activation", "inbound_nodes": [[["batch_normalization_40", 0, 0, {}]]], "name": "activation_40", "config": {"trainable": true, "name": "activation_40", "activation": "relu"}}, {"class_name": "Conv2D", "inbound_nodes": [[["activation_40", 0, 0, {}]]], "name": "conv2d_42", "config": {"trainable": true, "data_format": "channels_last", "bias_constraint": null, "bias_regularizer": null, "use_bias": true, "bias_initializer": {"class_name": "Zeros", "config": {}}, "filters": 32, "kernel_initializer": {"class_name": "VarianceScaling", "config": {"seed": null, "distribution": "normal", "mode": "fan_in", "scale": 2.0}}, "padding": "same", "dilation_rate": [1, 1], "kernel_regularizer": {"class_name": "L1L2", "config": {"l2": 9.999999747378752e-05, "l1": 0.0}}, "kernel_size": [3, 3], "kernel_constraint": null, "name": "conv2d_42", "activity_regularizer": null, "strides": [1, 1], "activation": "linear"}}, {"class_name": "BatchNormalization", "inbound_nodes": [[["conv2d_42", 0, 0, {}]]], "name": "batch_normalization_41", "config": {"trainable": true, "beta_regularizer": null, "beta_initializer": {"class_name": "Zeros", "config": {}}, "gamma_regularizer": null, "scale": true, "moving_mean_initializer": {"class_name": "Zeros", "config": {}}, "axis": -1, "beta_constraint": null, "momentum": 0.99, "moving_variance_initializer": {"class_name": "Ones", "config": {}}, "name": "batch_normalization_41", "epsilon": 0.001, "center": true, "gamma_constraint": null, "gamma_initializer": {"class_name": "Ones", "config": {}}}}, {"class_name": "Add", "inbound_nodes": [[["activation_39", 0, 0, {}], ["batch_normalization_41", 0, 0, {}]]], "name": "add_20", "config": {"trainable": true, "name": "add_20"}}, {"class_name": "Activation", "inbound_nodes": [[["add_20", 0, 0, {}]]], "name": "activation_41", "config": {"trainable": true, "name": "activation_41", "activation": "relu"}}, {"class_name": "Conv2D", "inbound_nodes": [[["activation_41", 0, 0, {}]]], "name": "conv2d_43", "config": {"trainable": true, "data_format": "channels_last", "bias_constraint": null, "bias_regularizer": null, "use_bias": true, "bias_initializer": {"class_name": "Zeros", "config": {}}, "filters": 32, "kernel_initializer": {"class_name": "VarianceScaling", "config": {"seed": null, "distribution": "normal", "mode": "fan_in", "scale": 2.0}}, "padding": "same", "dilation_rate": [1, 1], "kernel_regularizer": {"class_name": "L1L2", "config": {"l2": 9.999999747378752e-05, "l1": 0.0}}, "kernel_size": [3, 3], "kernel_constraint": null, "name": "conv2d_43", "activity_regularizer": null, "strides": [1, 1], "activation": "linear"}}, {"class_name": "BatchNormalization", "inbound_nodes": [[["conv2d_43", 0, 0, {}]]], "name": "batch_normalization_42", "config": {"trainable": true, "beta_regularizer": null, "beta_initializer": {"class_name": "Zeros", "config": {}}, "gamma_regularizer": null, "scale": true, "moving_mean_initializer": {"class_name": "Zeros", "config": {}}, "axis": -1, "beta_constraint": null, "momentum": 0.99, "moving_variance_initializer": {"class_name": "Ones", "config": {}}, "name": "batch_normalization_42", "epsilon": 0.001, "center": true, "gamma_constraint": null, "gamma_initializer": {"class_name": "Ones", "config": {}}}}, {"class_name": "Activation", "inbound_nodes": [[["batch_normalization_42", 0, 0, {}]]], "name": "activation_42", "config": {"trainable": true, "name": "activation_42", "activation": "relu"}}, {"class_name": "Conv2D", "inbound_nodes": [[["activation_42", 0, 0, {}]]], "name": "conv2d_44", "config": {"trainable": true, "data_format": "channels_last", "bias_constraint": null, "bias_regularizer": null, "use_bias": true, "bias_initializer": {"class_name": "Zeros", "config": {}}, "filters": 32, "kernel_initializer": {"class_name": "VarianceScaling", "config": {"seed": null, "distribution": "normal", "mode": "fan_in", "scale": 2.0}}, "padding": "same", "dilation_rate": [1, 1], "kernel_regularizer": {"class_name": "L1L2", "config": {"l2": 9.999999747378752e-05, "l1": 0.0}}, "kernel_size": [3, 3], "kernel_constraint": null, "name": "conv2d_44", "activity_regularizer": null, "strides": [1, 1], "activation": "linear"}}, {"class_name": "BatchNormalization", "inbound_nodes": [[["conv2d_44", 0, 0, {}]]], "name": "batch_normalization_43", "config": {"trainable": true, "beta_regularizer": null, "beta_initializer": {"class_name": "Zeros", "config": {}}, "gamma_regularizer": null, "scale": true, "moving_mean_initializer": {"class_name": "Zeros", "config": {}}, "axis": -1, "beta_constraint": null, "momentum": 0.99, "moving_variance_initializer": {"class_name": "Ones", "config": {}}, "name": "batch_normalization_43", "epsilon": 0.001, "center": true, "gamma_constraint": null, "gamma_initializer": {"class_name": "Ones", "config": {}}}}, {"class_name": "Add", "inbound_nodes": [[["activation_41", 0, 0, {}], ["batch_normalization_43", 0, 0, {}]]], "name": "add_21", "config": {"trainable": true, "name": "add_21"}}, {"class_name": "Activation", "inbound_nodes": [[["add_21", 0, 0, {}]]], "name": "activation_43", "config": {"trainable": true, "name": "activation_43", "activation": "relu"}}, {"class_name": "Conv2D", "inbound_nodes": [[["activation_43", 0, 0, {}]]], "name": "conv2d_45", "config": {"trainable": true, "data_format": "channels_last", "bias_constraint": null, "bias_regularizer": null, "use_bias": true, "bias_initializer": {"class_name": "Zeros", "config": {}}, "filters": 32, "kernel_initializer": {"class_name": "VarianceScaling", "config": {"seed": null, "distribution": "normal", "mode": "fan_in", "scale": 2.0}}, "padding": "same", "dilation_rate": [1, 1], "kernel_regularizer": {"class_name": "L1L2", "config": {"l2": 9.999999747378752e-05, "l1": 0.0}}, "kernel_size": [3, 3], "kernel_constraint": null, "name": "conv2d_45", "activity_regularizer": null, "strides": [1, 1], "activation": "linear"}}, {"class_name": "BatchNormalization", "inbound_nodes": [[["conv2d_45", 0, 0, {}]]], "name": "batch_normalization_44", "config": {"trainable": true, "beta_regularizer": null, "beta_initializer": {"class_name": "Zeros", "config": {}}, "gamma_regularizer": null, "scale": true, "moving_mean_initializer": {"class_name": "Zeros", "config": {}}, "axis": -1, "beta_constraint": null, "momentum": 0.99, "moving_variance_initializer": {"class_name": "Ones", "config": {}}, "name": "batch_normalization_44", "epsilon": 0.001, "center": true, "gamma_constraint": null, "gamma_initializer": {"class_name": "Ones", "config": {}}}}, {"class_name": "Activation", "inbound_nodes": [[["batch_normalization_44", 0, 0, {}]]], "name": "activation_44", "config": {"trainable": true, "name": "activation_44", "activation": "relu"}}, {"class_name": "Conv2D", "inbound_nodes": [[["activation_44", 0, 0, {}]]], "name": "conv2d_46", "config": {"trainable": true, "data_format": "channels_last", "bias_constraint": null, "bias_regularizer": null, "use_bias": true, "bias_initializer": {"class_name": "Zeros", "config": {}}, "filters": 32, "kernel_initializer": {"class_name": "VarianceScaling", "config": {"seed": null, "distribution": "normal", "mode": "fan_in", "scale": 2.0}}, "padding": "same", "dilation_rate": [1, 1], "kernel_regularizer": {"class_name": "L1L2", "config": {"l2": 9.999999747378752e-05, "l1": 0.0}}, "kernel_size": [3, 3], "kernel_constraint": null, "name": "conv2d_46", "activity_regularizer": null, "strides": [1, 1], "activation": "linear"}}, {"class_name": "BatchNormalization", "inbound_nodes": [[["conv2d_46", 0, 0, {}]]], "name": "batch_normalization_45", "config": {"trainable": true, "beta_regularizer": null, "beta_initializer": {"class_name": "Zeros", "config": {}}, "gamma_regularizer": null, "scale": true, "moving_mean_initializer": {"class_name": "Zeros", "config": {}}, "axis": -1, "beta_constraint": null, "momentum": 0.99, "moving_variance_initializer": {"class_name": "Ones", "config": {}}, "name": "batch_normalization_45", "epsilon": 0.001, "center": true, "gamma_constraint": null, "gamma_initializer": {"class_name": "Ones", "config": {}}}}, {"class_name": "Add", "inbound_nodes": [[["activation_43", 0, 0, {}], ["batch_normalization_45", 0, 0, {}]]], "name": "add_22", "config": {"trainable": true, "name": "add_22"}}, {"class_name": "Activation", "inbound_nodes": [[["add_22", 0, 0, {}]]], "name": "activation_45", "config": {"trainable": true, "name": "activation_45", "activation": "relu"}}, {"class_name": "Conv2D", "inbound_nodes": [[["activation_45", 0, 0, {}]]], "name": "conv2d_47", "config": {"trainable": true, "data_format": "channels_last", "bias_constraint": null, "bias_regularizer": null, "use_bias": true, "bias_initializer": {"class_name": "Zeros", "config": {}}, "filters": 32, "kernel_initializer": {"class_name": "VarianceScaling", "config": {"seed": null, "distribution": "normal", "mode": "fan_in", "scale": 2.0}}, "padding": "same", "dilation_rate": [1, 1], "kernel_regularizer": {"class_name": "L1L2", "config": {"l2": 9.999999747378752e-05, "l1": 0.0}}, "kernel_size": [3, 3], "kernel_constraint": null, "name": "conv2d_47", "activity_regularizer": null, "strides": [1, 1], "activation": "linear"}}, {"class_name": "BatchNormalization", "inbound_nodes": [[["conv2d_47", 0, 0, {}]]], "name": "batch_normalization_46", "config": {"trainable": true, "beta_regularizer": null, "beta_initializer": {"class_name": "Zeros", "config": {}}, "gamma_regularizer": null, "scale": true, "moving_mean_initializer": {"class_name": "Zeros", "config": {}}, "axis": -1, "beta_constraint": null, "momentum": 0.99, "moving_variance_initializer": {"class_name": "Ones", "config": {}}, "name": "batch_normalization_46", "epsilon": 0.001, "center": true, "gamma_constraint": null, "gamma_initializer": {"class_name": "Ones", "config": {}}}}, {"class_name": "Activation", "inbound_nodes": [[["batch_normalization_46", 0, 0, {}]]], "name": "activation_46", "config": {"trainable": true, "name": "activation_46", "activation": "relu"}}, {"class_name": "Conv2D", "inbound_nodes": [[["activation_46", 0, 0, {}]]], "name": "conv2d_48", "config": {"trainable": true, "data_format": "channels_last", "bias_constraint": null, "bias_regularizer": null, "use_bias": true, "bias_initializer": {"class_name": "Zeros", "config": {}}, "filters": 32, "kernel_initializer": {"class_name": "VarianceScaling", "config": {"seed": null, "distribution": "normal", "mode": "fan_in", "scale": 2.0}}, "padding": "same", "dilation_rate": [1, 1], "kernel_regularizer": {"class_name": "L1L2", "config": {"l2": 9.999999747378752e-05, "l1": 0.0}}, "kernel_size": [3, 3], "kernel_constraint": null, "name": "conv2d_48", "activity_regularizer": null, "strides": [1, 1], "activation": "linear"}}, {"class_name": "BatchNormalization", "inbound_nodes": [[["conv2d_48", 0, 0, {}]]], "name": "batch_normalization_47", "config": {"trainable": true, "beta_regularizer": null, "beta_initializer": {"class_name": "Zeros", "config": {}}, "gamma_regularizer": null, "scale": true, "moving_mean_initializer": {"class_name": "Zeros", "config": {}}, "axis": -1, "beta_constraint": null, "momentum": 0.99, "moving_variance_initializer": {"class_name": "Ones", "config": {}}, "name": "batch_normalization_47", "epsilon": 0.001, "center": true, "gamma_constraint": null, "gamma_initializer": {"class_name": "Ones", "config": {}}}}, {"class_name": "Add", "inbound_nodes": [[["activation_45", 0, 0, {}], ["batch_normalization_47", 0, 0, {}]]], "name": "add_23", "config": {"trainable": true, "name": "add_23"}}, {"class_name": "Activation", "inbound_nodes": [[["add_23", 0, 0, {}]]], "name": "activation_47", "config": {"trainable": true, "name": "activation_47", "activation": "relu"}}, {"class_name": "Conv2D", "inbound_nodes": [[["activation_47", 0, 0, {}]]], "name": "conv2d_49", "config": {"trainable": true, "data_format": "channels_last", "bias_constraint": null, "bias_regularizer": null, "use_bias": true, "bias_initializer": {"class_name": "Zeros", "config": {}}, "filters": 32, "kernel_initializer": {"class_name": "VarianceScaling", "config": {"seed": null, "distribution": "normal", "mode": "fan_in", "scale": 2.0}}, "padding": "same", "dilation_rate": [1, 1], "kernel_regularizer": {"class_name": "L1L2", "config": {"l2": 9.999999747378752e-05, "l1": 0.0}}, "kernel_size": [3, 3], "kernel_constraint": null, "name": "conv2d_49", "activity_regularizer": null, "strides": [1, 1], "activation": "linear"}}, {"class_name": "BatchNormalization", "inbound_nodes": [[["conv2d_49", 0, 0, {}]]], "name": "batch_normalization_48", "config": {"trainable": true, "beta_regularizer": null, "beta_initializer": {"class_name": "Zeros", "config": {}}, "gamma_regularizer": null, "scale": true, "moving_mean_initializer": {"class_name": "Zeros", "config": {}}, "axis": -1, "beta_constraint": null, "momentum": 0.99, "moving_variance_initializer": {"class_name": "Ones", "config": {}}, "name": "batch_normalization_48", "epsilon": 0.001, "center": true, "gamma_constraint": null, "gamma_initializer": {"class_name": "Ones", "config": {}}}}, {"class_name": "Activation", "inbound_nodes": [[["batch_normalization_48", 0, 0, {}]]], "name": "activation_48", "config": {"trainable": true, "name": "activation_48", "activation": "relu"}}, {"class_name": "Conv2D", "inbound_nodes": [[["activation_48", 0, 0, {}]]], "name": "conv2d_50", "config": {"trainable": true, "data_format": "channels_last", "bias_constraint": null, "bias_regularizer": null, "use_bias": true, "bias_initializer": {"class_name": "Zeros", "config": {}}, "filters": 32, "kernel_initializer": {"class_name": "VarianceScaling", "config": {"seed": null, "distribution": "normal", "mode": "fan_in", "scale": 2.0}}, "padding": "same", "dilation_rate": [1, 1], "kernel_regularizer": {"class_name": "L1L2", "config": {"l2": 9.999999747378752e-05, "l1": 0.0}}, "kernel_size": [3, 3], "kernel_constraint": null, "name": "conv2d_50", "activity_regularizer": null, "strides": [1, 1], "activation": "linear"}}, {"class_name": "BatchNormalization", "inbound_nodes": [[["conv2d_50", 0, 0, {}]]], "name": "batch_normalization_49", "config": {"trainable": true, "beta_regularizer": null, "beta_initializer": {"class_name": "Zeros", "config": {}}, "gamma_regularizer": null, "scale": true, "moving_mean_initializer": {"class_name": "Zeros", "config": {}}, "axis": -1, "beta_constraint": null, "momentum": 0.99, "moving_variance_initializer": {"class_name": "Ones", "config": {}}, "name": "batch_normalization_49", "epsilon": 0.001, "center": true, "gamma_constraint": null, "gamma_initializer": {"class_name": "Ones", "config": {}}}}, {"class_name": "Add", "inbound_nodes": [[["activation_47", 0, 0, {}], ["batch_normalization_49", 0, 0, {}]]], "name": "add_24", "config": {"trainable": true, "name": "add_24"}}, {"class_name": "Activation", "inbound_nodes": [[["add_24", 0, 0, {}]]], "name": "activation_49", "config": {"trainable": true, "name": "activation_49", "activation": "relu"}}, {"class_name": "Conv2D", "inbound_nodes": [[["activation_49", 0, 0, {}]]], "name": "conv2d_51", "config": {"trainable": true, "data_format": "channels_last", "bias_constraint": null, "bias_regularizer": null, "use_bias": true, "bias_initializer": {"class_name": "Zeros", "config": {}}, "filters": 32, "kernel_initializer": {"class_name": "VarianceScaling", "config": {"seed": null, "distribution": "normal", "mode": "fan_in", "scale": 2.0}}, "padding": "same", "dilation_rate": [1, 1], "kernel_regularizer": {"class_name": "L1L2", "config": {"l2": 9.999999747378752e-05, "l1": 0.0}}, "kernel_size": [3, 3], "kernel_constraint": null, "name": "conv2d_51", "activity_regularizer": null, "strides": [1, 1], "activation": "linear"}}, {"class_name": "BatchNormalization", "inbound_nodes": [[["conv2d_51", 0, 0, {}]]], "name": "batch_normalization_50", "config": {"trainable": true, "beta_regularizer": null, "beta_initializer": {"class_name": "Zeros", "config": {}}, "gamma_regularizer": null, "scale": true, "moving_mean_initializer": {"class_name": "Zeros", "config": {}}, "axis": -1, "beta_constraint": null, "momentum": 0.99, "moving_variance_initializer": {"class_name": "Ones", "config": {}}, "name": "batch_normalization_50", "epsilon": 0.001, "center": true, "gamma_constraint": null, "gamma_initializer": {"class_name": "Ones", "config": {}}}}, {"class_name": "Activation", "inbound_nodes": [[["batch_normalization_50", 0, 0, {}]]], "name": "activation_50", "config": {"trainable": true, "name": "activation_50", "activation": "relu"}}, {"class_name": "Conv2D", "inbound_nodes": [[["activation_50", 0, 0, {}]]], "name": "conv2d_52", "config": {"trainable": true, "data_format": "channels_last", "bias_constraint": null, "bias_regularizer": null, "use_bias": true, "bias_initializer": {"class_name": "Zeros", "config": {}}, "filters": 32, "kernel_initializer": {"class_name": "VarianceScaling", "config": {"seed": null, "distribution": "normal", "mode": "fan_in", "scale": 2.0}}, "padding": "same", "dilation_rate": [1, 1], "kernel_regularizer": {"class_name": "L1L2", "config": {"l2": 9.999999747378752e-05, "l1": 0.0}}, "kernel_size": [3, 3], "kernel_constraint": null, "name": "conv2d_52", "activity_regularizer": null, "strides": [1, 1], "activation": "linear"}}, {"class_name": "BatchNormalization", "inbound_nodes": [[["conv2d_52", 0, 0, {}]]], "name": "batch_normalization_51", "config": {"trainable": true, "beta_regularizer": null, "beta_initializer": {"class_name": "Zeros", "config": {}}, "gamma_regularizer": null, "scale": true, "moving_mean_initializer": {"class_name": "Zeros", "config": {}}, "axis": -1, "beta_constraint": null, "momentum": 0.99, "moving_variance_initializer": {"class_name": "Ones", "config": {}}, "name": "batch_normalization_51", "epsilon": 0.001, "center": true, "gamma_constraint": null, "gamma_initializer": {"class_name": "Ones", "config": {}}}}, {"class_name": "Add", "inbound_nodes": [[["activation_49", 0, 0, {}], ["batch_normalization_51", 0, 0, {}]]], "name": "add_25", "config": {"trainable": true, "name": "add_25"}}, {"class_name": "Activation", "inbound_nodes": [[["add_25", 0, 0, {}]]], "name": "activation_51", "config": {"trainable": true, "name": "activation_51", "activation": "relu"}}, {"class_name": "Conv2D", "inbound_nodes": [[["activation_51", 0, 0, {}]]], "name": "conv2d_53", "config": {"trainable": true, "data_format": "channels_last", "bias_constraint": null, "bias_regularizer": null, "use_bias": true, "bias_initializer": {"class_name": "Zeros", "config": {}}, "filters": 32, "kernel_initializer": {"class_name": "VarianceScaling", "config": {"seed": null, "distribution": "normal", "mode": "fan_in", "scale": 2.0}}, "padding": "same", "dilation_rate": [1, 1], "kernel_regularizer": {"class_name": "L1L2", "config": {"l2": 9.999999747378752e-05, "l1": 0.0}}, "kernel_size": [3, 3], "kernel_constraint": null, "name": "conv2d_53", "activity_regularizer": null, "strides": [1, 1], "activation": "linear"}}, {"class_name": "BatchNormalization", "inbound_nodes": [[["conv2d_53", 0, 0, {}]]], "name": "batch_normalization_52", "config": {"trainable": true, "beta_regularizer": null, "beta_initializer": {"class_name": "Zeros", "config": {}}, "gamma_regularizer": null, "scale": true, "moving_mean_initializer": {"class_name": "Zeros", "config": {}}, "axis": -1, "beta_constraint": null, "momentum": 0.99, "moving_variance_initializer": {"class_name": "Ones", "config": {}}, "name": "batch_normalization_52", "epsilon": 0.001, "center": true, "gamma_constraint": null, "gamma_initializer": {"class_name": "Ones", "config": {}}}}, {"class_name": "Activation", "inbound_nodes": [[["batch_normalization_52", 0, 0, {}]]], "name": "activation_52", "config": {"trainable": true, "name": "activation_52", "activation": "relu"}}, {"class_name": "Conv2D", "inbound_nodes": [[["activation_52", 0, 0, {}]]], "name": "conv2d_54", "config": {"trainable": true, "data_format": "channels_last", "bias_constraint": null, "bias_regularizer": null, "use_bias": true, "bias_initializer": {"class_name": "Zeros", "config": {}}, "filters": 32, "kernel_initializer": {"class_name": "VarianceScaling", "config": {"seed": null, "distribution": "normal", "mode": "fan_in", "scale": 2.0}}, "padding": "same", "dilation_rate": [1, 1], "kernel_regularizer": {"class_name": "L1L2", "config": {"l2": 9.999999747378752e-05, "l1": 0.0}}, "kernel_size": [3, 3], "kernel_constraint": null, "name": "conv2d_54", "activity_regularizer": null, "strides": [1, 1], "activation": "linear"}}, {"class_name": "BatchNormalization", "inbound_nodes": [[["conv2d_54", 0, 0, {}]]], "name": "batch_normalization_53", "config": {"trainable": true, "beta_regularizer": null, "beta_initializer": {"class_name": "Zeros", "config": {}}, "gamma_regularizer": null, "scale": true, "moving_mean_initializer": {"class_name": "Zeros", "config": {}}, "axis": -1, "beta_constraint": null, "momentum": 0.99, "moving_variance_initializer": {"class_name": "Ones", "config": {}}, "name": "batch_normalization_53", "epsilon": 0.001, "center": true, "gamma_constraint": null, "gamma_initializer": {"class_name": "Ones", "config": {}}}}, {"class_name": "Add", "inbound_nodes": [[["activation_51", 0, 0, {}], ["batch_normalization_53", 0, 0, {}]]], "name": "add_26", "config": {"trainable": true, "name": "add_26"}}, {"class_name": "Activation", "inbound_nodes": [[["add_26", 0, 0, {}]]], "name": "activation_53", "config": {"trainable": true, "name": "activation_53", "activation": "relu"}}, {"class_name": "Conv2D", "inbound_nodes": [[["activation_53", 0, 0, {}]]], "name": "conv2d_55", "config": {"trainable": true, "data_format": "channels_last", "bias_constraint": null, "bias_regularizer": null, "use_bias": true, "bias_initializer": {"class_name": "Zeros", "config": {}}, "filters": 32, "kernel_initializer": {"class_name": "VarianceScaling", "config": {"seed": null, "distribution": "normal", "mode": "fan_in", "scale": 2.0}}, "padding": "same", "dilation_rate": [1, 1], "kernel_regularizer": {"class_name": "L1L2", "config": {"l2": 9.999999747378752e-05, "l1": 0.0}}, "kernel_size": [3, 3], "kernel_constraint": null, "name": "conv2d_55", "activity_regularizer": null, "strides": [1, 1], "activation": "linear"}}, {"class_name": "BatchNormalization", "inbound_nodes": [[["conv2d_55", 0, 0, {}]]], "name": "batch_normalization_54", "config": {"trainable": true, "beta_regularizer": null, "beta_initializer": {"class_name": "Zeros", "config": {}}, "gamma_regularizer": null, "scale": true, "moving_mean_initializer": {"class_name": "Zeros", "config": {}}, "axis": -1, "beta_constraint": null, "momentum": 0.99, "moving_variance_initializer": {"class_name": "Ones", "config": {}}, "name": "batch_normalization_54", "epsilon": 0.001, "center": true, "gamma_constraint": null, "gamma_initializer": {"class_name": "Ones", "config": {}}}}, {"class_name": "Activation", "inbound_nodes": [[["batch_normalization_54", 0, 0, {}]]], "name": "activation_54", "config": {"trainable": true, "name": "activation_54", "activation": "relu"}}, {"class_name": "Conv2D", "inbound_nodes": [[["activation_54", 0, 0, {}]]], "name": "conv2d_56", "config": {"trainable": true, "data_format": "channels_last", "bias_constraint": null, "bias_regularizer": null, "use_bias": true, "bias_initializer": {"class_name": "Zeros", "config": {}}, "filters": 32, "kernel_initializer": {"class_name": "VarianceScaling", "config": {"seed": null, "distribution": "normal", "mode": "fan_in", "scale": 2.0}}, "padding": "same", "dilation_rate": [1, 1], "kernel_regularizer": {"class_name": "L1L2", "config": {"l2": 9.999999747378752e-05, "l1": 0.0}}, "kernel_size": [3, 3], "kernel_constraint": null, "name": "conv2d_56", "activity_regularizer": null, "strides": [1, 1], "activation": "linear"}}, {"class_name": "BatchNormalization", "inbound_nodes": [[["conv2d_56", 0, 0, {}]]], "name": "batch_normalization_55", "config": {"trainable": true, "beta_regularizer": null, "beta_initializer": {"class_name": "Zeros", "config": {}}, "gamma_regularizer": null, "scale": true, "moving_mean_initializer": {"class_name": "Zeros", "config": {}}, "axis": -1, "beta_constraint": null, "momentum": 0.99, "moving_variance_initializer": {"class_name": "Ones", "config": {}}, "name": "batch_normalization_55", "epsilon": 0.001, "center": true, "gamma_constraint": null, "gamma_initializer": {"class_name": "Ones", "config": {}}}}, {"class_name": "Add", "inbound_nodes": [[["activation_53", 0, 0, {}], ["batch_normalization_55", 0, 0, {}]]], "name": "add_27", "config": {"trainable": true, "name": "add_27"}}, {"class_name": "Activation", "inbound_nodes": [[["add_27", 0, 0, {}]]], "name": "activation_55", "config": {"trainable": true, "name": "activation_55", "activation": "relu"}}, {"class_name": "Conv2D", "inbound_nodes": [[["activation_55", 0, 0, {}]]], "name": "conv2d_57", "config": {"trainable": true, "data_format": "channels_last", "bias_constraint": null, "bias_regularizer": null, "use_bias": true, "bias_initializer": {"class_name": "Zeros", "config": {}}, "filters": 32, "kernel_initializer": {"class_name": "VarianceScaling", "config": {"seed": null, "distribution": "normal", "mode": "fan_in", "scale": 2.0}}, "padding": "same", "dilation_rate": [1, 1], "kernel_regularizer": {"class_name": "L1L2", "config": {"l2": 9.999999747378752e-05, "l1": 0.0}}, "kernel_size": [3, 3], "kernel_constraint": null, "name": "conv2d_57", "activity_regularizer": null, "strides": [1, 1], "activation": "linear"}}, {"class_name": "BatchNormalization", "inbound_nodes": [[["conv2d_57", 0, 0, {}]]], "name": "batch_normalization_56", "config": {"trainable": true, "beta_regularizer": null, "beta_initializer": {"class_name": "Zeros", "config": {}}, "gamma_regularizer": null, "scale": true, "moving_mean_initializer": {"class_name": "Zeros", "config": {}}, "axis": -1, "beta_constraint": null, "momentum": 0.99, "moving_variance_initializer": {"class_name": "Ones", "config": {}}, "name": "batch_normalization_56", "epsilon": 0.001, "center": true, "gamma_constraint": null, "gamma_initializer": {"class_name": "Ones", "config": {}}}}, {"class_name": "Activation", "inbound_nodes": [[["batch_normalization_56", 0, 0, {}]]], "name": "activation_56", "config": {"trainable": true, "name": "activation_56", "activation": "relu"}}, {"class_name": "Conv2D", "inbound_nodes": [[["activation_56", 0, 0, {}]]], "name": "conv2d_58", "config": {"trainable": true, "data_format": "channels_last", "bias_constraint": null, "bias_regularizer": null, "use_bias": true, "bias_initializer": {"class_name": "Zeros", "config": {}}, "filters": 32, "kernel_initializer": {"class_name": "VarianceScaling", "config": {"seed": null, "distribution": "normal", "mode": "fan_in", "scale": 2.0}}, "padding": "same", "dilation_rate": [1, 1], "kernel_regularizer": {"class_name": "L1L2", "config": {"l2": 9.999999747378752e-05, "l1": 0.0}}, "kernel_size": [3, 3], "kernel_constraint": null, "name": "conv2d_58", "activity_regularizer": null, "strides": [1, 1], "activation": "linear"}}, {"class_name": "BatchNormalization", "inbound_nodes": [[["conv2d_58", 0, 0, {}]]], "name": "batch_normalization_57", "config": {"trainable": true, "beta_regularizer": null, "beta_initializer": {"class_name": "Zeros", "config": {}}, "gamma_regularizer": null, "scale": true, "moving_mean_initializer": {"class_name": "Zeros", "config": {}}, "axis": -1, "beta_constraint": null, "momentum": 0.99, "moving_variance_initializer": {"class_name": "Ones", "config": {}}, "name": "batch_normalization_57", "epsilon": 0.001, "center": true, "gamma_constraint": null, "gamma_initializer": {"class_name": "Ones", "config": {}}}}, {"class_name": "Add", "inbound_nodes": [[["activation_55", 0, 0, {}], ["batch_normalization_57", 0, 0, {}]]], "name": "add_28", "config": {"trainable": true, "name": "add_28"}}, {"class_name": "Activation", "inbound_nodes": [[["add_28", 0, 0, {}]]], "name": "activation_57", "config": {"trainable": true, "name": "activation_57", "activation": "relu"}}, {"class_name": "Conv2D", "inbound_nodes": [[["activation_57", 0, 0, {}]]], "name": "conv2d_59", "config": {"trainable": true, "data_format": "channels_last", "bias_constraint": null, "bias_regularizer": null, "use_bias": true, "bias_initializer": {"class_name": "Zeros", "config": {}}, "filters": 32, "kernel_initializer": {"class_name": "VarianceScaling", "config": {"seed": null, "distribution": "normal", "mode": "fan_in", "scale": 2.0}}, "padding": "same", "dilation_rate": [1, 1], "kernel_regularizer": {"class_name": "L1L2", "config": {"l2": 9.999999747378752e-05, "l1": 0.0}}, "kernel_size": [3, 3], "kernel_constraint": null, "name": "conv2d_59", "activity_regularizer": null, "strides": [1, 1], "activation": "linear"}}, {"class_name": "BatchNormalization", "inbound_nodes": [[["conv2d_59", 0, 0, {}]]], "name": "batch_normalization_58", "config": {"trainable": true, "beta_regularizer": null, "beta_initializer": {"class_name": "Zeros", "config": {}}, "gamma_regularizer": null, "scale": true, "moving_mean_initializer": {"class_name": "Zeros", "config": {}}, "axis": -1, "beta_constraint": null, "momentum": 0.99, "moving_variance_initializer": {"class_name": "Ones", "config": {}}, "name": "batch_normalization_58", "epsilon": 0.001, "center": true, "gamma_constraint": null, "gamma_initializer": {"class_name": "Ones", "config": {}}}}, {"class_name": "Activation", "inbound_nodes": [[["batch_normalization_58", 0, 0, {}]]], "name": "activation_58", "config": {"trainable": true, "name": "activation_58", "activation": "relu"}}, {"class_name": "Conv2D", "inbound_nodes": [[["activation_58", 0, 0, {}]]], "name": "conv2d_60", "config": {"trainable": true, "data_format": "channels_last", "bias_constraint": null, "bias_regularizer": null, "use_bias": true, "bias_initializer": {"class_name": "Zeros", "config": {}}, "filters": 32, "kernel_initializer": {"class_name": "VarianceScaling", "config": {"seed": null, "distribution": "normal", "mode": "fan_in", "scale": 2.0}}, "padding": "same", "dilation_rate": [1, 1], "kernel_regularizer": {"class_name": "L1L2", "config": {"l2": 9.999999747378752e-05, "l1": 0.0}}, "kernel_size": [3, 3], "kernel_constraint": null, "name": "conv2d_60", "activity_regularizer": null, "strides": [1, 1], "activation": "linear"}}, {"class_name": "BatchNormalization", "inbound_nodes": [[["conv2d_60", 0, 0, {}]]], "name": "batch_normalization_59", "config": {"trainable": true, "beta_regularizer": null, "beta_initializer": {"class_name": "Zeros", "config": {}}, "gamma_regularizer": null, "scale": true, "moving_mean_initializer": {"class_name": "Zeros", "config": {}}, "axis": -1, "beta_constraint": null, "momentum": 0.99, "moving_variance_initializer": {"class_name": "Ones", "config": {}}, "name": "batch_normalization_59", "epsilon": 0.001, "center": true, "gamma_constraint": null, "gamma_initializer": {"class_name": "Ones", "config": {}}}}, {"class_name": "Add", "inbound_nodes": [[["activation_57", 0, 0, {}], ["batch_normalization_59", 0, 0, {}]]], "name": "add_29", "config": {"trainable": true, "name": "add_29"}}, {"class_name": "Activation", "inbound_nodes": [[["add_29", 0, 0, {}]]], "name": "activation_59", "config": {"trainable": true, "name": "activation_59", "activation": "relu"}}, {"class_name": "Conv2D", "inbound_nodes": [[["activation_59", 0, 0, {}]]], "name": "conv2d_61", "config": {"trainable": true, "data_format": "channels_last", "bias_constraint": null, "bias_regularizer": null, "use_bias": true, "bias_initializer": {"class_name": "Zeros", "config": {}}, "filters": 32, "kernel_initializer": {"class_name": "VarianceScaling", "config": {"seed": null, "distribution": "normal", "mode": "fan_in", "scale": 2.0}}, "padding": "same", "dilation_rate": [1, 1], "kernel_regularizer": {"class_name": "L1L2", "config": {"l2": 9.999999747378752e-05, "l1": 0.0}}, "kernel_size": [3, 3], "kernel_constraint": null, "name": "conv2d_61", "activity_regularizer": null, "strides": [1, 1], "activation": "linear"}}, {"class_name": "BatchNormalization", "inbound_nodes": [[["conv2d_61", 0, 0, {}]]], "name": "batch_normalization_60", "config": {"trainable": true, "beta_regularizer": null, "beta_initializer": {"class_name": "Zeros", "config": {}}, "gamma_regularizer": null, "scale": true, "moving_mean_initializer": {"class_name": "Zeros", "config": {}}, "axis": -1, "beta_constraint": null, "momentum": 0.99, "moving_variance_initializer": {"class_name": "Ones", "config": {}}, "name": "batch_normalization_60", "epsilon": 0.001, "center": true, "gamma_constraint": null, "gamma_initializer": {"class_name": "Ones", "config": {}}}}, {"class_name": "Activation", "inbound_nodes": [[["batch_normalization_60", 0, 0, {}]]], "name": "activation_60", "config": {"trainable": true, "name": "activation_60", "activation": "relu"}}, {"class_name": "Conv2D", "inbound_nodes": [[["activation_60", 0, 0, {}]]], "name": "conv2d_62", "config": {"trainable": true, "data_format": "channels_last", "bias_constraint": null, "bias_regularizer": null, "use_bias": true, "bias_initializer": {"class_name": "Zeros", "config": {}}, "filters": 32, "kernel_initializer": {"class_name": "VarianceScaling", "config": {"seed": null, "distribution": "normal", "mode": "fan_in", "scale": 2.0}}, "padding": "same", "dilation_rate": [1, 1], "kernel_regularizer": {"class_name": "L1L2", "config": {"l2": 9.999999747378752e-05, "l1": 0.0}}, "kernel_size": [3, 3], "kernel_constraint": null, "name": "conv2d_62", "activity_regularizer": null, "strides": [1, 1], "activation": "linear"}}, {"class_name": "BatchNormalization", "inbound_nodes": [[["conv2d_62", 0, 0, {}]]], "name": "batch_normalization_61", "config": {"trainable": true, "beta_regularizer": null, "beta_initializer": {"class_name": "Zeros", "config": {}}, "gamma_regularizer": null, "scale": true, "moving_mean_initializer": {"class_name": "Zeros", "config": {}}, "axis": -1, "beta_constraint": null, "momentum": 0.99, "moving_variance_initializer": {"class_name": "Ones", "config": {}}, "name": "batch_normalization_61", "epsilon": 0.001, "center": true, "gamma_constraint": null, "gamma_initializer": {"class_name": "Ones", "config": {}}}}, {"class_name": "Add", "inbound_nodes": [[["activation_59", 0, 0, {}], ["batch_normalization_61", 0, 0, {}]]], "name": "add_30", "config": {"trainable": true, "name": "add_30"}}, {"class_name": "Activation", "inbound_nodes": [[["add_30", 0, 0, {}]]], "name": "activation_61", "config": {"trainable": true, "name": "activation_61", "activation": "relu"}}, {"class_name": "Conv2D", "inbound_nodes": [[["activation_61", 0, 0, {}]]], "name": "conv2d_63", "config": {"trainable": true, "data_format": "channels_last", "bias_constraint": null, "bias_regularizer": null, "use_bias": true, "bias_initializer": {"class_name": "Zeros", "config": {}}, "filters": 32, "kernel_initializer": {"class_name": "VarianceScaling", "config": {"seed": null, "distribution": "normal", "mode": "fan_in", "scale": 2.0}}, "padding": "same", "dilation_rate": [1, 1], "kernel_regularizer": {"class_name": "L1L2", "config": {"l2": 9.999999747378752e-05, "l1": 0.0}}, "kernel_size": [3, 3], "kernel_constraint": null, "name": "conv2d_63", "activity_regularizer": null, "strides": [1, 1], "activation": "linear"}}, {"class_name": "BatchNormalization", "inbound_nodes": [[["conv2d_63", 0, 0, {}]]], "name": "batch_normalization_62", "config": {"trainable": true, "beta_regularizer": null, "beta_initializer": {"class_name": "Zeros", "config": {}}, "gamma_regularizer": null, "scale": true, "moving_mean_initializer": {"class_name": "Zeros", "config": {}}, "axis": -1, "beta_constraint": null, "momentum": 0.99, "moving_variance_initializer": {"class_name": "Ones", "config": {}}, "name": "batch_normalization_62", "epsilon": 0.001, "center": true, "gamma_constraint": null, "gamma_initializer": {"class_name": "Ones", "config": {}}}}, {"class_name": "Activation", "inbound_nodes": [[["batch_normalization_62", 0, 0, {}]]], "name": "activation_62", "config": {"trainable": true, "name": "activation_62", "activation": "relu"}}, {"class_name": "Conv2D", "inbound_nodes": [[["activation_62", 0, 0, {}]]], "name": "conv2d_64", "config": {"trainable": true, "data_format": "channels_last", "bias_constraint": null, "bias_regularizer": null, "use_bias": true, "bias_initializer": {"class_name": "Zeros", "config": {}}, "filters": 32, "kernel_initializer": {"class_name": "VarianceScaling", "config": {"seed": null, "distribution": "normal", "mode": "fan_in", "scale": 2.0}}, "padding": "same", "dilation_rate": [1, 1], "kernel_regularizer": {"class_name": "L1L2", "config": {"l2": 9.999999747378752e-05, "l1": 0.0}}, "kernel_size": [3, 3], "kernel_constraint": null, "name": "conv2d_64", "activity_regularizer": null, "strides": [1, 1], "activation": "linear"}}, {"class_name": "BatchNormalization", "inbound_nodes": [[["conv2d_64", 0, 0, {}]]], "name": "batch_normalization_63", "config": {"trainable": true, "beta_regularizer": null, "beta_initializer": {"class_name": "Zeros", "config": {}}, "gamma_regularizer": null, "scale": true, "moving_mean_initializer": {"class_name": "Zeros", "config": {}}, "axis": -1, "beta_constraint": null, "momentum": 0.99, "moving_variance_initializer": {"class_name": "Ones", "config": {}}, "name": "batch_normalization_63", "epsilon": 0.001, "center": true, "gamma_constraint": null, "gamma_initializer": {"class_name": "Ones", "config": {}}}}, {"class_name": "Add", "inbound_nodes": [[["activation_61", 0, 0, {}], ["batch_normalization_63", 0, 0, {}]]], "name": "add_31", "config": {"trainable": true, "name": "add_31"}}, {"class_name": "Activation", "inbound_nodes": [[["add_31", 0, 0, {}]]], "name": "activation_63", "config": {"trainable": true, "name": "activation_63", "activation": "relu"}}, {"class_name": "Conv2D", "inbound_nodes": [[["activation_63", 0, 0, {}]]], "name": "conv2d_65", "config": {"trainable": true, "data_format": "channels_last", "bias_constraint": null, "bias_regularizer": null, "use_bias": true, "bias_initializer": {"class_name": "Zeros", "config": {}}, "filters": 32, "kernel_initializer": {"class_name": "VarianceScaling", "config": {"seed": null, "distribution": "normal", "mode": "fan_in", "scale": 2.0}}, "padding": "same", "dilation_rate": [1, 1], "kernel_regularizer": {"class_name": "L1L2", "config": {"l2": 9.999999747378752e-05, "l1": 0.0}}, "kernel_size": [3, 3], "kernel_constraint": null, "name": "conv2d_65", "activity_regularizer": null, "strides": [1, 1], "activation": "linear"}}, {"class_name": "BatchNormalization", "inbound_nodes": [[["conv2d_65", 0, 0, {}]]], "name": "batch_normalization_64", "config": {"trainable": true, "beta_regularizer": null, "beta_initializer": {"class_name": "Zeros", "config": {}}, "gamma_regularizer": null, "scale": true, "moving_mean_initializer": {"class_name": "Zeros", "config": {}}, "axis": -1, "beta_constraint": null, "momentum": 0.99, "moving_variance_initializer": {"class_name": "Ones", "config": {}}, "name": "batch_normalization_64", "epsilon": 0.001, "center": true, "gamma_constraint": null, "gamma_initializer": {"class_name": "Ones", "config": {}}}}, {"class_name": "Activation", "inbound_nodes": [[["batch_normalization_64", 0, 0, {}]]], "name": "activation_64", "config": {"trainable": true, "name": "activation_64", "activation": "relu"}}, {"class_name": "Conv2D", "inbound_nodes": [[["activation_64", 0, 0, {}]]], "name": "conv2d_66", "config": {"trainable": true, "data_format": "channels_last", "bias_constraint": null, "bias_regularizer": null, "use_bias": true, "bias_initializer": {"class_name": "Zeros", "config": {}}, "filters": 32, "kernel_initializer": {"class_name": "VarianceScaling", "config": {"seed": null, "distribution": "normal", "mode": "fan_in", "scale": 2.0}}, "padding": "same", "dilation_rate": [1, 1], "kernel_regularizer": {"class_name": "L1L2", "config": {"l2": 9.999999747378752e-05, "l1": 0.0}}, "kernel_size": [3, 3], "kernel_constraint": null, "name": "conv2d_66", "activity_regularizer": null, "strides": [1, 1], "activation": "linear"}}, {"class_name": "BatchNormalization", "inbound_nodes": [[["conv2d_66", 0, 0, {}]]], "name": "batch_normalization_65", "config": {"trainable": true, "beta_regularizer": null, "beta_initializer": {"class_name": "Zeros", "config": {}}, "gamma_regularizer": null, "scale": true, "moving_mean_initializer": {"class_name": "Zeros", "config": {}}, "axis": -1, "beta_constraint": null, "momentum": 0.99, "moving_variance_initializer": {"class_name": "Ones", "config": {}}, "name": "batch_normalization_65", "epsilon": 0.001, "center": true, "gamma_constraint": null, "gamma_initializer": {"class_name": "Ones", "config": {}}}}, {"class_name": "Add", "inbound_nodes": [[["activation_63", 0, 0, {}], ["batch_normalization_65", 0, 0, {}]]], "name": "add_32", "config": {"trainable": true, "name": "add_32"}}, {"class_name": "Activation", "inbound_nodes": [[["add_32", 0, 0, {}]]], "name": "activation_65", "config": {"trainable": true, "name": "activation_65", "activation": "relu"}}, {"class_name": "Conv2D", "inbound_nodes": [[["activation_65", 0, 0, {}]]], "name": "conv2d_67", "config": {"trainable": true, "data_format": "channels_last", "bias_constraint": null, "bias_regularizer": null, "use_bias": true, "bias_initializer": {"class_name": "Zeros", "config": {}}, "filters": 32, "kernel_initializer": {"class_name": "VarianceScaling", "config": {"seed": null, "distribution": "normal", "mode": "fan_in", "scale": 2.0}}, "padding": "same", "dilation_rate": [1, 1], "kernel_regularizer": {"class_name": "L1L2", "config": {"l2": 9.999999747378752e-05, "l1": 0.0}}, "kernel_size": [3, 3], "kernel_constraint": null, "name": "conv2d_67", "activity_regularizer": null, "strides": [1, 1], "activation": "linear"}}, {"class_name": "BatchNormalization", "inbound_nodes": [[["conv2d_67", 0, 0, {}]]], "name": "batch_normalization_66", "config": {"trainable": true, "beta_regularizer": null, "beta_initializer": {"class_name": "Zeros", "config": {}}, "gamma_regularizer": null, "scale": true, "moving_mean_initializer": {"class_name": "Zeros", "config": {}}, "axis": -1, "beta_constraint": null, "momentum": 0.99, "moving_variance_initializer": {"class_name": "Ones", "config": {}}, "name": "batch_normalization_66", "epsilon": 0.001, "center": true, "gamma_constraint": null, "gamma_initializer": {"class_name": "Ones", "config": {}}}}, {"class_name": "Activation", "inbound_nodes": [[["batch_normalization_66", 0, 0, {}]]], "name": "activation_66", "config": {"trainable": true, "name": "activation_66", "activation": "relu"}}, {"class_name": "Conv2D", "inbound_nodes": [[["activation_66", 0, 0, {}]]], "name": "conv2d_68", "config": {"trainable": true, "data_format": "channels_last", "bias_constraint": null, "bias_regularizer": null, "use_bias": true, "bias_initializer": {"class_name": "Zeros", "config": {}}, "filters": 32, "kernel_initializer": {"class_name": "VarianceScaling", "config": {"seed": null, "distribution": "normal", "mode": "fan_in", "scale": 2.0}}, "padding": "same", "dilation_rate": [1, 1], "kernel_regularizer": {"class_name": "L1L2", "config": {"l2": 9.999999747378752e-05, "l1": 0.0}}, "kernel_size": [3, 3], "kernel_constraint": null, "name": "conv2d_68", "activity_regularizer": null, "strides": [1, 1], "activation": "linear"}}, {"class_name": "BatchNormalization", "inbound_nodes": [[["conv2d_68", 0, 0, {}]]], "name": "batch_normalization_67", "config": {"trainable": true, "beta_regularizer": null, "beta_initializer": {"class_name": "Zeros", "config": {}}, "gamma_regularizer": null, "scale": true, "moving_mean_initializer": {"class_name": "Zeros", "config": {}}, "axis": -1, "beta_constraint": null, "momentum": 0.99, "moving_variance_initializer": {"class_name": "Ones", "config": {}}, "name": "batch_normalization_67", "epsilon": 0.001, "center": true, "gamma_constraint": null, "gamma_initializer": {"class_name": "Ones", "config": {}}}}, {"class_name": "Add", "inbound_nodes": [[["activation_65", 0, 0, {}], ["batch_normalization_67", 0, 0, {}]]], "name": "add_33", "config": {"trainable": true, "name": "add_33"}}, {"class_name": "Activation", "inbound_nodes": [[["add_33", 0, 0, {}]]], "name": "activation_67", "config": {"trainable": true, "name": "activation_67", "activation": "relu"}}, {"class_name": "Conv2D", "inbound_nodes": [[["activation_67", 0, 0, {}]]], "name": "conv2d_69", "config": {"trainable": true, "data_format": "channels_last", "bias_constraint": null, "bias_regularizer": null, "use_bias": true, "bias_initializer": {"class_name": "Zeros", "config": {}}, "filters": 32, "kernel_initializer": {"class_name": "VarianceScaling", "config": {"seed": null, "distribution": "normal", "mode": "fan_in", "scale": 2.0}}, "padding": "same", "dilation_rate": [1, 1], "kernel_regularizer": {"class_name": "L1L2", "config": {"l2": 9.999999747378752e-05, "l1": 0.0}}, "kernel_size": [3, 3], "kernel_constraint": null, "name": "conv2d_69", "activity_regularizer": null, "strides": [1, 1], "activation": "linear"}}, {"class_name": "BatchNormalization", "inbound_nodes": [[["conv2d_69", 0, 0, {}]]], "name": "batch_normalization_68", "config": {"trainable": true, "beta_regularizer": null, "beta_initializer": {"class_name": "Zeros", "config": {}}, "gamma_regularizer": null, "scale": true, "moving_mean_initializer": {"class_name": "Zeros", "config": {}}, "axis": -1, "beta_constraint": null, "momentum": 0.99, "moving_variance_initializer": {"class_name": "Ones", "config": {}}, "name": "batch_normalization_68", "epsilon": 0.001, "center": true, "gamma_constraint": null, "gamma_initializer": {"class_name": "Ones", "config": {}}}}, {"class_name": "Activation", "inbound_nodes": [[["batch_normalization_68", 0, 0, {}]]], "name": "activation_68", "config": {"trainable": true, "name": "activation_68", "activation": "relu"}}, {"class_name": "Conv2D", "inbound_nodes": [[["activation_68", 0, 0, {}]]], "name": "conv2d_70", "config": {"trainable": true, "data_format": "channels_last", "bias_constraint": null, "bias_regularizer": null, "use_bias": true, "bias_initializer": {"class_name": "Zeros", "config": {}}, "filters": 32, "kernel_initializer": {"class_name": "VarianceScaling", "config": {"seed": null, "distribution": "normal", "mode": "fan_in", "scale": 2.0}}, "padding": "same", "dilation_rate": [1, 1], "kernel_regularizer": {"class_name": "L1L2", "config": {"l2": 9.999999747378752e-05, "l1": 0.0}}, "kernel_size": [3, 3], "kernel_constraint": null, "name": "conv2d_70", "activity_regularizer": null, "strides": [1, 1], "activation": "linear"}}, {"class_name": "BatchNormalization", "inbound_nodes": [[["conv2d_70", 0, 0, {}]]], "name": "batch_normalization_69", "config": {"trainable": true, "beta_regularizer": null, "beta_initializer": {"class_name": "Zeros", "config": {}}, "gamma_regularizer": null, "scale": true, "moving_mean_initializer": {"class_name": "Zeros", "config": {}}, "axis": -1, "beta_constraint": null, "momentum": 0.99, "moving_variance_initializer": {"class_name": "Ones", "config": {}}, "name": "batch_normalization_69", "epsilon": 0.001, "center": true, "gamma_constraint": null, "gamma_initializer": {"class_name": "Ones", "config": {}}}}, {"class_name": "Add", "inbound_nodes": [[["activation_67", 0, 0, {}], ["batch_normalization_69", 0, 0, {}]]], "name": "add_34", "config": {"trainable": true, "name": "add_34"}}, {"class_name": "Activation", "inbound_nodes": [[["add_34", 0, 0, {}]]], "name": "activation_69", "config": {"trainable": true, "name": "activation_69", "activation": "relu"}}, {"class_name": "Conv2D", "inbound_nodes": [[["activation_69", 0, 0, {}]]], "name": "conv2d_71", "config": {"trainable": true, "data_format": "channels_last", "bias_constraint": null, "bias_regularizer": null, "use_bias": true, "bias_initializer": {"class_name": "Zeros", "config": {}}, "filters": 32, "kernel_initializer": {"class_name": "VarianceScaling", "config": {"seed": null, "distribution": "normal", "mode": "fan_in", "scale": 2.0}}, "padding": "same", "dilation_rate": [1, 1], "kernel_regularizer": {"class_name": "L1L2", "config": {"l2": 9.999999747378752e-05, "l1": 0.0}}, "kernel_size": [3, 3], "kernel_constraint": null, "name": "conv2d_71", "activity_regularizer": null, "strides": [1, 1], "activation": "linear"}}, {"class_name": "BatchNormalization", "inbound_nodes": [[["conv2d_71", 0, 0, {}]]], "name": "batch_normalization_70", "config": {"trainable": true, "beta_regularizer": null, "beta_initializer": {"class_name": "Zeros", "config": {}}, "gamma_regularizer": null, "scale": true, "moving_mean_initializer": {"class_name": "Zeros", "config": {}}, "axis": -1, "beta_constraint": null, "momentum": 0.99, "moving_variance_initializer": {"class_name": "Ones", "config": {}}, "name": "batch_normalization_70", "epsilon": 0.001, "center": true, "gamma_constraint": null, "gamma_initializer": {"class_name": "Ones", "config": {}}}}, {"class_name": "Activation", "inbound_nodes": [[["batch_normalization_70", 0, 0, {}]]], "name": "activation_70", "config": {"trainable": true, "name": "activation_70", "activation": "relu"}}, {"class_name": "Conv2D", "inbound_nodes": [[["activation_70", 0, 0, {}]]], "name": "conv2d_72", "config": {"trainable": true, "data_format": "channels_last", "bias_constraint": null, "bias_regularizer": null, "use_bias": true, "bias_initializer": {"class_name": "Zeros", "config": {}}, "filters": 32, "kernel_initializer": {"class_name": "VarianceScaling", "config": {"seed": null, "distribution": "normal", "mode": "fan_in", "scale": 2.0}}, "padding": "same", "dilation_rate": [1, 1], "kernel_regularizer": {"class_name": "L1L2", "config": {"l2": 9.999999747378752e-05, "l1": 0.0}}, "kernel_size": [3, 3], "kernel_constraint": null, "name": "conv2d_72", "activity_regularizer": null, "strides": [1, 1], "activation": "linear"}}, {"class_name": "BatchNormalization", "inbound_nodes": [[["conv2d_72", 0, 0, {}]]], "name": "batch_normalization_71", "config": {"trainable": true, "beta_regularizer": null, "beta_initializer": {"class_name": "Zeros", "config": {}}, "gamma_regularizer": null, "scale": true, "moving_mean_initializer": {"class_name": "Zeros", "config": {}}, "axis": -1, "beta_constraint": null, "momentum": 0.99, "moving_variance_initializer": {"class_name": "Ones", "config": {}}, "name": "batch_normalization_71", "epsilon": 0.001, "center": true, "gamma_constraint": null, "gamma_initializer": {"class_name": "Ones", "config": {}}}}, {"class_name": "Add", "inbound_nodes": [[["activation_69", 0, 0, {}], ["batch_normalization_71", 0, 0, {}]]], "name": "add_35", "config": {"trainable": true, "name": "add_35"}}, {"class_name": "Activation", "inbound_nodes": [[["add_35", 0, 0, {}]]], "name": "activation_71", "config": {"trainable": true, "name": "activation_71", "activation": "relu"}}, {"class_name": "Conv2D", "inbound_nodes": [[["activation_71", 0, 0, {}]]], "name": "conv2d_73", "config": {"trainable": true, "data_format": "channels_last", "bias_constraint": null, "bias_regularizer": null, "use_bias": true, "bias_initializer": {"class_name": "Zeros", "config": {}}, "filters": 32, "kernel_initializer": {"class_name": "VarianceScaling", "config": {"seed": null, "distribution": "normal", "mode": "fan_in", "scale": 2.0}}, "padding": "same", "dilation_rate": [1, 1], "kernel_regularizer": {"class_name": "L1L2", "config": {"l2": 9.999999747378752e-05, "l1": 0.0}}, "kernel_size": [3, 3], "kernel_constraint": null, "name": "conv2d_73", "activity_regularizer": null, "strides": [1, 1], "activation": "linear"}}, {"class_name": "BatchNormalization", "inbound_nodes": [[["conv2d_73", 0, 0, {}]]], "name": "batch_normalization_72", "config": {"trainable": true, "beta_regularizer": null, "beta_initializer": {"class_name": "Zeros", "config": {}}, "gamma_regularizer": null, "scale": true, "moving_mean_initializer": {"class_name": "Zeros", "config": {}}, "axis": -1, "beta_constraint": null, "momentum": 0.99, "moving_variance_initializer": {"class_name": "Ones", "config": {}}, "name": "batch_normalization_72", "epsilon": 0.001, "center": true, "gamma_constraint": null, "gamma_initializer": {"class_name": "Ones", "config": {}}}}, {"class_name": "Activation", "inbound_nodes": [[["batch_normalization_72", 0, 0, {}]]], "name": "activation_72", "config": {"trainable": true, "name": "activation_72", "activation": "relu"}}, {"class_name": "Conv2D", "inbound_nodes": [[["activation_72", 0, 0, {}]]], "name": "conv2d_74", "config": {"trainable": true, "data_format": "channels_last", "bias_constraint": null, "bias_regularizer": null, "use_bias": true, "bias_initializer": {"class_name": "Zeros", "config": {}}, "filters": 32, "kernel_initializer": {"class_name": "VarianceScaling", "config": {"seed": null, "distribution": "normal", "mode": "fan_in", "scale": 2.0}}, "padding": "same", "dilation_rate": [1, 1], "kernel_regularizer": {"class_name": "L1L2", "config": {"l2": 9.999999747378752e-05, "l1": 0.0}}, "kernel_size": [3, 3], "kernel_constraint": null, "name": "conv2d_74", "activity_regularizer": null, "strides": [1, 1], "activation": "linear"}}, {"class_name": "BatchNormalization", "inbound_nodes": [[["conv2d_74", 0, 0, {}]]], "name": "batch_normalization_73", "config": {"trainable": true, "beta_regularizer": null, "beta_initializer": {"class_name": "Zeros", "config": {}}, "gamma_regularizer": null, "scale": true, "moving_mean_initializer": {"class_name": "Zeros", "config": {}}, "axis": -1, "beta_constraint": null, "momentum": 0.99, "moving_variance_initializer": {"class_name": "Ones", "config": {}}, "name": "batch_normalization_73", "epsilon": 0.001, "center": true, "gamma_constraint": null, "gamma_initializer": {"class_name": "Ones", "config": {}}}}, {"class_name": "Add", "inbound_nodes": [[["activation_71", 0, 0, {}], ["batch_normalization_73", 0, 0, {}]]], "name": "add_36", "config": {"trainable": true, "name": "add_36"}}, {"class_name": "Activation", "inbound_nodes": [[["add_36", 0, 0, {}]]], "name": "activation_73", "config": {"trainable": true, "name": "activation_73", "activation": "relu"}}, {"class_name": "Conv2D", "inbound_nodes": [[["activation_73", 0, 0, {}]]], "name": "conv2d_75", "config": {"trainable": true, "data_format": "channels_last", "bias_constraint": null, "bias_regularizer": null, "use_bias": true, "bias_initializer": {"class_name": "Zeros", "config": {}}, "filters": 64, "kernel_initializer": {"class_name": "VarianceScaling", "config": {"seed": null, "distribution": "normal", "mode": "fan_in", "scale": 2.0}}, "padding": "same", "dilation_rate": [1, 1], "kernel_regularizer": {"class_name": "L1L2", "config": {"l2": 9.999999747378752e-05, "l1": 0.0}}, "kernel_size": [3, 3], "kernel_constraint": null, "name": "conv2d_75", "activity_regularizer": null, "strides": [2, 2], "activation": "linear"}}, {"class_name": "BatchNormalization", "inbound_nodes": [[["conv2d_75", 0, 0, {}]]], "name": "batch_normalization_74", "config": {"trainable": true, "beta_regularizer": null, "beta_initializer": {"class_name": "Zeros", "config": {}}, "gamma_regularizer": null, "scale": true, "moving_mean_initializer": {"class_name": "Zeros", "config": {}}, "axis": -1, "beta_constraint": null, "momentum": 0.99, "moving_variance_initializer": {"class_name": "Ones", "config": {}}, "name": "batch_normalization_74", "epsilon": 0.001, "center": true, "gamma_constraint": null, "gamma_initializer": {"class_name": "Ones", "config": {}}}}, {"class_name": "Activation", "inbound_nodes": [[["batch_normalization_74", 0, 0, {}]]], "name": "activation_74", "config": {"trainable": true, "name": "activation_74", "activation": "relu"}}, {"class_name": "Conv2D", "inbound_nodes": [[["activation_74", 0, 0, {}]]], "name": "conv2d_76", "config": {"trainable": true, "data_format": "channels_last", "bias_constraint": null, "bias_regularizer": null, "use_bias": true, "bias_initializer": {"class_name": "Zeros", "config": {}}, "filters": 64, "kernel_initializer": {"class_name": "VarianceScaling", "config": {"seed": null, "distribution": "normal", "mode": "fan_in", "scale": 2.0}}, "padding": "same", "dilation_rate": [1, 1], "kernel_regularizer": {"class_name": "L1L2", "config": {"l2": 9.999999747378752e-05, "l1": 0.0}}, "kernel_size": [3, 3], "kernel_constraint": null, "name": "conv2d_76", "activity_regularizer": null, "strides": [1, 1], "activation": "linear"}}, {"class_name": "Conv2D", "inbound_nodes": [[["activation_73", 0, 0, {}]]], "name": "conv2d_77", "config": {"trainable": true, "data_format": "channels_last", "bias_constraint": null, "bias_regularizer": null, "use_bias": true, "bias_initializer": {"class_name": "Zeros", "config": {}}, "filters": 64, "kernel_initializer": {"class_name": "VarianceScaling", "config": {"seed": null, "distribution": "normal", "mode": "fan_in", "scale": 2.0}}, "padding": "same", "dilation_rate": [1, 1], "kernel_regularizer": {"class_name": "L1L2", "config": {"l2": 9.999999747378752e-05, "l1": 0.0}}, "kernel_size": [1, 1], "kernel_constraint": null, "name": "conv2d_77", "activity_regularizer": null, "strides": [2, 2], "activation": "linear"}}, {"class_name": "BatchNormalization", "inbound_nodes": [[["conv2d_76", 0, 0, {}]]], "name": "batch_normalization_75", "config": {"trainable": true, "beta_regularizer": null, "beta_initializer": {"class_name": "Zeros", "config": {}}, "gamma_regularizer": null, "scale": true, "moving_mean_initializer": {"class_name": "Zeros", "config": {}}, "axis": -1, "beta_constraint": null, "momentum": 0.99, "moving_variance_initializer": {"class_name": "Ones", "config": {}}, "name": "batch_normalization_75", "epsilon": 0.001, "center": true, "gamma_constraint": null, "gamma_initializer": {"class_name": "Ones", "config": {}}}}, {"class_name": "Add", "inbound_nodes": [[["conv2d_77", 0, 0, {}], ["batch_normalization_75", 0, 0, {}]]], "name": "add_37", "config": {"trainable": true, "name": "add_37"}}, {"class_name": "Activation", "inbound_nodes": [[["add_37", 0, 0, {}]]], "name": "activation_75", "config": {"trainable": true, "name": "activation_75", "activation": "relu"}}, {"class_name": "Conv2D", "inbound_nodes": [[["activation_75", 0, 0, {}]]], "name": "conv2d_78", "config": {"trainable": true, "data_format": "channels_last", "bias_constraint": null, "bias_regularizer": null, "use_bias": true, "bias_initializer": {"class_name": "Zeros", "config": {}}, "filters": 64, "kernel_initializer": {"class_name": "VarianceScaling", "config": {"seed": null, "distribution": "normal", "mode": "fan_in", "scale": 2.0}}, "padding": "same", "dilation_rate": [1, 1], "kernel_regularizer": {"class_name": "L1L2", "config": {"l2": 9.999999747378752e-05, "l1": 0.0}}, "kernel_size": [3, 3], "kernel_constraint": null, "name": "conv2d_78", "activity_regularizer": null, "strides": [1, 1], "activation": "linear"}}, {"class_name": "BatchNormalization", "inbound_nodes": [[["conv2d_78", 0, 0, {}]]], "name": "batch_normalization_76", "config": {"trainable": true, "beta_regularizer": null, "beta_initializer": {"class_name": "Zeros", "config": {}}, "gamma_regularizer": null, "scale": true, "moving_mean_initializer": {"class_name": "Zeros", "config": {}}, "axis": -1, "beta_constraint": null, "momentum": 0.99, "moving_variance_initializer": {"class_name": "Ones", "config": {}}, "name": "batch_normalization_76", "epsilon": 0.001, "center": true, "gamma_constraint": null, "gamma_initializer": {"class_name": "Ones", "config": {}}}}, {"class_name": "Activation", "inbound_nodes": [[["batch_normalization_76", 0, 0, {}]]], "name": "activation_76", "config": {"trainable": true, "name": "activation_76", "activation": "relu"}}, {"class_name": "Conv2D", "inbound_nodes": [[["activation_76", 0, 0, {}]]], "name": "conv2d_79", "config": {"trainable": true, "data_format": "channels_last", "bias_constraint": null, "bias_regularizer": null, "use_bias": true, "bias_initializer": {"class_name": "Zeros", "config": {}}, "filters": 64, "kernel_initializer": {"class_name": "VarianceScaling", "config": {"seed": null, "distribution": "normal", "mode": "fan_in", "scale": 2.0}}, "padding": "same", "dilation_rate": [1, 1], "kernel_regularizer": {"class_name": "L1L2", "config": {"l2": 9.999999747378752e-05, "l1": 0.0}}, "kernel_size": [3, 3], "kernel_constraint": null, "name": "conv2d_79", "activity_regularizer": null, "strides": [1, 1], "activation": "linear"}}, {"class_name": "BatchNormalization", "inbound_nodes": [[["conv2d_79", 0, 0, {}]]], "name": "batch_normalization_77", "config": {"trainable": true, "beta_regularizer": null, "beta_initializer": {"class_name": "Zeros", "config": {}}, "gamma_regularizer": null, "scale": true, "moving_mean_initializer": {"class_name": "Zeros", "config": {}}, "axis": -1, "beta_constraint": null, "momentum": 0.99, "moving_variance_initializer": {"class_name": "Ones", "config": {}}, "name": "batch_normalization_77", "epsilon": 0.001, "center": true, "gamma_constraint": null, "gamma_initializer": {"class_name": "Ones", "config": {}}}}, {"class_name": "Add", "inbound_nodes": [[["activation_75", 0, 0, {}], ["batch_normalization_77", 0, 0, {}]]], "name": "add_38", "config": {"trainable": true, "name": "add_38"}}, {"class_name": "Activation", "inbound_nodes": [[["add_38", 0, 0, {}]]], "name": "activation_77", "config": {"trainable": true, "name": "activation_77", "activation": "relu"}}, {"class_name": "Conv2D", "inbound_nodes": [[["activation_77", 0, 0, {}]]], "name": "conv2d_80", "config": {"trainable": true, "data_format": "channels_last", "bias_constraint": null, "bias_regularizer": null, "use_bias": true, "bias_initializer": {"class_name": "Zeros", "config": {}}, "filters": 64, "kernel_initializer": {"class_name": "VarianceScaling", "config": {"seed": null, "distribution": "normal", "mode": "fan_in", "scale": 2.0}}, "padding": "same", "dilation_rate": [1, 1], "kernel_regularizer": {"class_name": "L1L2", "config": {"l2": 9.999999747378752e-05, "l1": 0.0}}, "kernel_size": [3, 3], "kernel_constraint": null, "name": "conv2d_80", "activity_regularizer": null, "strides": [1, 1], "activation": "linear"}}, {"class_name": "BatchNormalization", "inbound_nodes": [[["conv2d_80", 0, 0, {}]]], "name": "batch_normalization_78", "config": {"trainable": true, "beta_regularizer": null, "beta_initializer": {"class_name": "Zeros", "config": {}}, "gamma_regularizer": null, "scale": true, "moving_mean_initializer": {"class_name": "Zeros", "config": {}}, "axis": -1, "beta_constraint": null, "momentum": 0.99, "moving_variance_initializer": {"class_name": "Ones", "config": {}}, "name": "batch_normalization_78", "epsilon": 0.001, "center": true, "gamma_constraint": null, "gamma_initializer": {"class_name": "Ones", "config": {}}}}, {"class_name": "Activation", "inbound_nodes": [[["batch_normalization_78", 0, 0, {}]]], "name": "activation_78", "config": {"trainable": true, "name": "activation_78", "activation": "relu"}}, {"class_name": "Conv2D", "inbound_nodes": [[["activation_78", 0, 0, {}]]], "name": "conv2d_81", "config": {"trainable": true, "data_format": "channels_last", "bias_constraint": null, "bias_regularizer": null, "use_bias": true, "bias_initializer": {"class_name": "Zeros", "config": {}}, "filters": 64, "kernel_initializer": {"class_name": "VarianceScaling", "config": {"seed": null, "distribution": "normal", "mode": "fan_in", "scale": 2.0}}, "padding": "same", "dilation_rate": [1, 1], "kernel_regularizer": {"class_name": "L1L2", "config": {"l2": 9.999999747378752e-05, "l1": 0.0}}, "kernel_size": [3, 3], "kernel_constraint": null, "name": "conv2d_81", "activity_regularizer": null, "strides": [1, 1], "activation": "linear"}}, {"class_name": "BatchNormalization", "inbound_nodes": [[["conv2d_81", 0, 0, {}]]], "name": "batch_normalization_79", "config": {"trainable": true, "beta_regularizer": null, "beta_initializer": {"class_name": "Zeros", "config": {}}, "gamma_regularizer": null, "scale": true, "moving_mean_initializer": {"class_name": "Zeros", "config": {}}, "axis": -1, "beta_constraint": null, "momentum": 0.99, "moving_variance_initializer": {"class_name": "Ones", "config": {}}, "name": "batch_normalization_79", "epsilon": 0.001, "center": true, "gamma_constraint": null, "gamma_initializer": {"class_name": "Ones", "config": {}}}}, {"class_name": "Add", "inbound_nodes": [[["activation_77", 0, 0, {}], ["batch_normalization_79", 0, 0, {}]]], "name": "add_39", "config": {"trainable": true, "name": "add_39"}}, {"class_name": "Activation", "inbound_nodes": [[["add_39", 0, 0, {}]]], "name": "activation_79", "config": {"trainable": true, "name": "activation_79", "activation": "relu"}}, {"class_name": "Conv2D", "inbound_nodes": [[["activation_79", 0, 0, {}]]], "name": "conv2d_82", "config": {"trainable": true, "data_format": "channels_last", "bias_constraint": null, "bias_regularizer": null, "use_bias": true, "bias_initializer": {"class_name": "Zeros", "config": {}}, "filters": 64, "kernel_initializer": {"class_name": "VarianceScaling", "config": {"seed": null, "distribution": "normal", "mode": "fan_in", "scale": 2.0}}, "padding": "same", "dilation_rate": [1, 1], "kernel_regularizer": {"class_name": "L1L2", "config": {"l2": 9.999999747378752e-05, "l1": 0.0}}, "kernel_size": [3, 3], "kernel_constraint": null, "name": "conv2d_82", "activity_regularizer": null, "strides": [1, 1], "activation": "linear"}}, {"class_name": "BatchNormalization", "inbound_nodes": [[["conv2d_82", 0, 0, {}]]], "name": "batch_normalization_80", "config": {"trainable": true, "beta_regularizer": null, "beta_initializer": {"class_name": "Zeros", "config": {}}, "gamma_regularizer": null, "scale": true, "moving_mean_initializer": {"class_name": "Zeros", "config": {}}, "axis": -1, "beta_constraint": null, "momentum": 0.99, "moving_variance_initializer": {"class_name": "Ones", "config": {}}, "name": "batch_normalization_80", "epsilon": 0.001, "center": true, "gamma_constraint": null, "gamma_initializer": {"class_name": "Ones", "config": {}}}}, {"class_name": "Activation", "inbound_nodes": [[["batch_normalization_80", 0, 0, {}]]], "name": "activation_80", "config": {"trainable": true, "name": "activation_80", "activation": "relu"}}, {"class_name": "Conv2D", "inbound_nodes": [[["activation_80", 0, 0, {}]]], "name": "conv2d_83", "config": {"trainable": true, "data_format": "channels_last", "bias_constraint": null, "bias_regularizer": null, "use_bias": true, "bias_initializer": {"class_name": "Zeros", "config": {}}, "filters": 64, "kernel_initializer": {"class_name": "VarianceScaling", "config": {"seed": null, "distribution": "normal", "mode": "fan_in", "scale": 2.0}}, "padding": "same", "dilation_rate": [1, 1], "kernel_regularizer": {"class_name": "L1L2", "config": {"l2": 9.999999747378752e-05, "l1": 0.0}}, "kernel_size": [3, 3], "kernel_constraint": null, "name": "conv2d_83", "activity_regularizer": null, "strides": [1, 1], "activation": "linear"}}, {"class_name": "BatchNormalization", "inbound_nodes": [[["conv2d_83", 0, 0, {}]]], "name": "batch_normalization_81", "config": {"trainable": true, "beta_regularizer": null, "beta_initializer": {"class_name": "Zeros", "config": {}}, "gamma_regularizer": null, "scale": true, "moving_mean_initializer": {"class_name": "Zeros", "config": {}}, "axis": -1, "beta_constraint": null, "momentum": 0.99, "moving_variance_initializer": {"class_name": "Ones", "config": {}}, "name": "batch_normalization_81", "epsilon": 0.001, "center": true, "gamma_constraint": null, "gamma_initializer": {"class_name": "Ones", "config": {}}}}, {"class_name": "Add", "inbound_nodes": [[["activation_79", 0, 0, {}], ["batch_normalization_81", 0, 0, {}]]], "name": "add_40", "config": {"trainable": true, "name": "add_40"}}, {"class_name": "Activation", "inbound_nodes": [[["add_40", 0, 0, {}]]], "name": "activation_81", "config": {"trainable": true, "name": "activation_81", "activation": "relu"}}, {"class_name": "Conv2D", "inbound_nodes": [[["activation_81", 0, 0, {}]]], "name": "conv2d_84", "config": {"trainable": true, "data_format": "channels_last", "bias_constraint": null, "bias_regularizer": null, "use_bias": true, "bias_initializer": {"class_name": "Zeros", "config": {}}, "filters": 64, "kernel_initializer": {"class_name": "VarianceScaling", "config": {"seed": null, "distribution": "normal", "mode": "fan_in", "scale": 2.0}}, "padding": "same", "dilation_rate": [1, 1], "kernel_regularizer": {"class_name": "L1L2", "config": {"l2": 9.999999747378752e-05, "l1": 0.0}}, "kernel_size": [3, 3], "kernel_constraint": null, "name": "conv2d_84", "activity_regularizer": null, "strides": [1, 1], "activation": "linear"}}, {"class_name": "BatchNormalization", "inbound_nodes": [[["conv2d_84", 0, 0, {}]]], "name": "batch_normalization_82", "config": {"trainable": true, "beta_regularizer": null, "beta_initializer": {"class_name": "Zeros", "config": {}}, "gamma_regularizer": null, "scale": true, "moving_mean_initializer": {"class_name": "Zeros", "config": {}}, "axis": -1, "beta_constraint": null, "momentum": 0.99, "moving_variance_initializer": {"class_name": "Ones", "config": {}}, "name": "batch_normalization_82", "epsilon": 0.001, "center": true, "gamma_constraint": null, "gamma_initializer": {"class_name": "Ones", "config": {}}}}, {"class_name": "Activation", "inbound_nodes": [[["batch_normalization_82", 0, 0, {}]]], "name": "activation_82", "config": {"trainable": true, "name": "activation_82", "activation": "relu"}}, {"class_name": "Conv2D", "inbound_nodes": [[["activation_82", 0, 0, {}]]], "name": "conv2d_85", "config": {"trainable": true, "data_format": "channels_last", "bias_constraint": null, "bias_regularizer": null, "use_bias": true, "bias_initializer": {"class_name": "Zeros", "config": {}}, "filters": 64, "kernel_initializer": {"class_name": "VarianceScaling", "config": {"seed": null, "distribution": "normal", "mode": "fan_in", "scale": 2.0}}, "padding": "same", "dilation_rate": [1, 1], "kernel_regularizer": {"class_name": "L1L2", "config": {"l2": 9.999999747378752e-05, "l1": 0.0}}, "kernel_size": [3, 3], "kernel_constraint": null, "name": "conv2d_85", "activity_regularizer": null, "strides": [1, 1], "activation": "linear"}}, {"class_name": "BatchNormalization", "inbound_nodes": [[["conv2d_85", 0, 0, {}]]], "name": "batch_normalization_83", "config": {"trainable": true, "beta_regularizer": null, "beta_initializer": {"class_name": "Zeros", "config": {}}, "gamma_regularizer": null, "scale": true, "moving_mean_initializer": {"class_name": "Zeros", "config": {}}, "axis": -1, "beta_constraint": null, "momentum": 0.99, "moving_variance_initializer": {"class_name": "Ones", "config": {}}, "name": "batch_normalization_83", "epsilon": 0.001, "center": true, "gamma_constraint": null, "gamma_initializer": {"class_name": "Ones", "config": {}}}}, {"class_name": "Add", "inbound_nodes": [[["activation_81", 0, 0, {}], ["batch_normalization_83", 0, 0, {}]]], "name": "add_41", "config": {"trainable": true, "name": "add_41"}}, {"class_name": "Activation", "inbound_nodes": [[["add_41", 0, 0, {}]]], "name": "activation_83", "config": {"trainable": true, "name": "activation_83", "activation": "relu"}}, {"class_name": "Conv2D", "inbound_nodes": [[["activation_83", 0, 0, {}]]], "name": "conv2d_86", "config": {"trainable": true, "data_format": "channels_last", "bias_constraint": null, "bias_regularizer": null, "use_bias": true, "bias_initializer": {"class_name": "Zeros", "config": {}}, "filters": 64, "kernel_initializer": {"class_name": "VarianceScaling", "config": {"seed": null, "distribution": "normal", "mode": "fan_in", "scale": 2.0}}, "padding": "same", "dilation_rate": [1, 1], "kernel_regularizer": {"class_name": "L1L2", "config": {"l2": 9.999999747378752e-05, "l1": 0.0}}, "kernel_size": [3, 3], "kernel_constraint": null, "name": "conv2d_86", "activity_regularizer": null, "strides": [1, 1], "activation": "linear"}}, {"class_name": "BatchNormalization", "inbound_nodes": [[["conv2d_86", 0, 0, {}]]], "name": "batch_normalization_84", "config": {"trainable": true, "beta_regularizer": null, "beta_initializer": {"class_name": "Zeros", "config": {}}, "gamma_regularizer": null, "scale": true, "moving_mean_initializer": {"class_name": "Zeros", "config": {}}, "axis": -1, "beta_constraint": null, "momentum": 0.99, "moving_variance_initializer": {"class_name": "Ones", "config": {}}, "name": "batch_normalization_84", "epsilon": 0.001, "center": true, "gamma_constraint": null, "gamma_initializer": {"class_name": "Ones", "config": {}}}}, {"class_name": "Activation", "inbound_nodes": [[["batch_normalization_84", 0, 0, {}]]], "name": "activation_84", "config": {"trainable": true, "name": "activation_84", "activation": "relu"}}, {"class_name": "Conv2D", "inbound_nodes": [[["activation_84", 0, 0, {}]]], "name": "conv2d_87", "config": {"trainable": true, "data_format": "channels_last", "bias_constraint": null, "bias_regularizer": null, "use_bias": true, "bias_initializer": {"class_name": "Zeros", "config": {}}, "filters": 64, "kernel_initializer": {"class_name": "VarianceScaling", "config": {"seed": null, "distribution": "normal", "mode": "fan_in", "scale": 2.0}}, "padding": "same", "dilation_rate": [1, 1], "kernel_regularizer": {"class_name": "L1L2", "config": {"l2": 9.999999747378752e-05, "l1": 0.0}}, "kernel_size": [3, 3], "kernel_constraint": null, "name": "conv2d_87", "activity_regularizer": null, "strides": [1, 1], "activation": "linear"}}, {"class_name": "BatchNormalization", "inbound_nodes": [[["conv2d_87", 0, 0, {}]]], "name": "batch_normalization_85", "config": {"trainable": true, "beta_regularizer": null, "beta_initializer": {"class_name": "Zeros", "config": {}}, "gamma_regularizer": null, "scale": true, "moving_mean_initializer": {"class_name": "Zeros", "config": {}}, "axis": -1, "beta_constraint": null, "momentum": 0.99, "moving_variance_initializer": {"class_name": "Ones", "config": {}}, "name": "batch_normalization_85", "epsilon": 0.001, "center": true, "gamma_constraint": null, "gamma_initializer": {"class_name": "Ones", "config": {}}}}, {"class_name": "Add", "inbound_nodes": [[["activation_83", 0, 0, {}], ["batch_normalization_85", 0, 0, {}]]], "name": "add_42", "config": {"trainable": true, "name": "add_42"}}, {"class_name": "Activation", "inbound_nodes": [[["add_42", 0, 0, {}]]], "name": "activation_85", "config": {"trainable": true, "name": "activation_85", "activation": "relu"}}, {"class_name": "Conv2D", "inbound_nodes": [[["activation_85", 0, 0, {}]]], "name": "conv2d_88", "config": {"trainable": true, "data_format": "channels_last", "bias_constraint": null, "bias_regularizer": null, "use_bias": true, "bias_initializer": {"class_name": "Zeros", "config": {}}, "filters": 64, "kernel_initializer": {"class_name": "VarianceScaling", "config": {"seed": null, "distribution": "normal", "mode": "fan_in", "scale": 2.0}}, "padding": "same", "dilation_rate": [1, 1], "kernel_regularizer": {"class_name": "L1L2", "config": {"l2": 9.999999747378752e-05, "l1": 0.0}}, "kernel_size": [3, 3], "kernel_constraint": null, "name": "conv2d_88", "activity_regularizer": null, "strides": [1, 1], "activation": "linear"}}, {"class_name": "BatchNormalization", "inbound_nodes": [[["conv2d_88", 0, 0, {}]]], "name": "batch_normalization_86", "config": {"trainable": true, "beta_regularizer": null, "beta_initializer": {"class_name": "Zeros", "config": {}}, "gamma_regularizer": null, "scale": true, "moving_mean_initializer": {"class_name": "Zeros", "config": {}}, "axis": -1, "beta_constraint": null, "momentum": 0.99, "moving_variance_initializer": {"class_name": "Ones", "config": {}}, "name": "batch_normalization_86", "epsilon": 0.001, "center": true, "gamma_constraint": null, "gamma_initializer": {"class_name": "Ones", "config": {}}}}, {"class_name": "Activation", "inbound_nodes": [[["batch_normalization_86", 0, 0, {}]]], "name": "activation_86", "config": {"trainable": true, "name": "activation_86", "activation": "relu"}}, {"class_name": "Conv2D", "inbound_nodes": [[["activation_86", 0, 0, {}]]], "name": "conv2d_89", "config": {"trainable": true, "data_format": "channels_last", "bias_constraint": null, "bias_regularizer": null, "use_bias": true, "bias_initializer": {"class_name": "Zeros", "config": {}}, "filters": 64, "kernel_initializer": {"class_name": "VarianceScaling", "config": {"seed": null, "distribution": "normal", "mode": "fan_in", "scale": 2.0}}, "padding": "same", "dilation_rate": [1, 1], "kernel_regularizer": {"class_name": "L1L2", "config": {"l2": 9.999999747378752e-05, "l1": 0.0}}, "kernel_size": [3, 3], "kernel_constraint": null, "name": "conv2d_89", "activity_regularizer": null, "strides": [1, 1], "activation": "linear"}}, {"class_name": "BatchNormalization", "inbound_nodes": [[["conv2d_89", 0, 0, {}]]], "name": "batch_normalization_87", "config": {"trainable": true, "beta_regularizer": null, "beta_initializer": {"class_name": "Zeros", "config": {}}, "gamma_regularizer": null, "scale": true, "moving_mean_initializer": {"class_name": "Zeros", "config": {}}, "axis": -1, "beta_constraint": null, "momentum": 0.99, "moving_variance_initializer": {"class_name": "Ones", "config": {}}, "name": "batch_normalization_87", "epsilon": 0.001, "center": true, "gamma_constraint": null, "gamma_initializer": {"class_name": "Ones", "config": {}}}}, {"class_name": "Add", "inbound_nodes": [[["activation_85", 0, 0, {}], ["batch_normalization_87", 0, 0, {}]]], "name": "add_43", "config": {"trainable": true, "name": "add_43"}}, {"class_name": "Activation", "inbound_nodes": [[["add_43", 0, 0, {}]]], "name": "activation_87", "config": {"trainable": true, "name": "activation_87", "activation": "relu"}}, {"class_name": "Conv2D", "inbound_nodes": [[["activation_87", 0, 0, {}]]], "name": "conv2d_90", "config": {"trainable": true, "data_format": "channels_last", "bias_constraint": null, "bias_regularizer": null, "use_bias": true, "bias_initializer": {"class_name": "Zeros", "config": {}}, "filters": 64, "kernel_initializer": {"class_name": "VarianceScaling", "config": {"seed": null, "distribution": "normal", "mode": "fan_in", "scale": 2.0}}, "padding": "same", "dilation_rate": [1, 1], "kernel_regularizer": {"class_name": "L1L2", "config": {"l2": 9.999999747378752e-05, "l1": 0.0}}, "kernel_size": [3, 3], "kernel_constraint": null, "name": "conv2d_90", "activity_regularizer": null, "strides": [1, 1], "activation": "linear"}}, {"class_name": "BatchNormalization", "inbound_nodes": [[["conv2d_90", 0, 0, {}]]], "name": "batch_normalization_88", "config": {"trainable": true, "beta_regularizer": null, "beta_initializer": {"class_name": "Zeros", "config": {}}, "gamma_regularizer": null, "scale": true, "moving_mean_initializer": {"class_name": "Zeros", "config": {}}, "axis": -1, "beta_constraint": null, "momentum": 0.99, "moving_variance_initializer": {"class_name": "Ones", "config": {}}, "name": "batch_normalization_88", "epsilon": 0.001, "center": true, "gamma_constraint": null, "gamma_initializer": {"class_name": "Ones", "config": {}}}}, {"class_name": "Activation", "inbound_nodes": [[["batch_normalization_88", 0, 0, {}]]], "name": "activation_88", "config": {"trainable": true, "name": "activation_88", "activation": "relu"}}, {"class_name": "Conv2D", "inbound_nodes": [[["activation_88", 0, 0, {}]]], "name": "conv2d_91", "config": {"trainable": true, "data_format": "channels_last", "bias_constraint": null, "bias_regularizer": null, "use_bias": true, "bias_initializer": {"class_name": "Zeros", "config": {}}, "filters": 64, "kernel_initializer": {"class_name": "VarianceScaling", "config": {"seed": null, "distribution": "normal", "mode": "fan_in", "scale": 2.0}}, "padding": "same", "dilation_rate": [1, 1], "kernel_regularizer": {"class_name": "L1L2", "config": {"l2": 9.999999747378752e-05, "l1": 0.0}}, "kernel_size": [3, 3], "kernel_constraint": null, "name": "conv2d_91", "activity_regularizer": null, "strides": [1, 1], "activation": "linear"}}, {"class_name": "BatchNormalization", "inbound_nodes": [[["conv2d_91", 0, 0, {}]]], "name": "batch_normalization_89", "config": {"trainable": true, "beta_regularizer": null, "beta_initializer": {"class_name": "Zeros", "config": {}}, "gamma_regularizer": null, "scale": true, "moving_mean_initializer": {"class_name": "Zeros", "config": {}}, "axis": -1, "beta_constraint": null, "momentum": 0.99, "moving_variance_initializer": {"class_name": "Ones", "config": {}}, "name": "batch_normalization_89", "epsilon": 0.001, "center": true, "gamma_constraint": null, "gamma_initializer": {"class_name": "Ones", "config": {}}}}, {"class_name": "Add", "inbound_nodes": [[["activation_87", 0, 0, {}], ["batch_normalization_89", 0, 0, {}]]], "name": "add_44", "config": {"trainable": true, "name": "add_44"}}, {"class_name": "Activation", "inbound_nodes": [[["add_44", 0, 0, {}]]], "name": "activation_89", "config": {"trainable": true, "name": "activation_89", "activation": "relu"}}, {"class_name": "Conv2D", "inbound_nodes": [[["activation_89", 0, 0, {}]]], "name": "conv2d_92", "config": {"trainable": true, "data_format": "channels_last", "bias_constraint": null, "bias_regularizer": null, "use_bias": true, "bias_initializer": {"class_name": "Zeros", "config": {}}, "filters": 64, "kernel_initializer": {"class_name": "VarianceScaling", "config": {"seed": null, "distribution": "normal", "mode": "fan_in", "scale": 2.0}}, "padding": "same", "dilation_rate": [1, 1], "kernel_regularizer": {"class_name": "L1L2", "config": {"l2": 9.999999747378752e-05, "l1": 0.0}}, "kernel_size": [3, 3], "kernel_constraint": null, "name": "conv2d_92", "activity_regularizer": null, "strides": [1, 1], "activation": "linear"}}, {"class_name": "BatchNormalization", "inbound_nodes": [[["conv2d_92", 0, 0, {}]]], "name": "batch_normalization_90", "config": {"trainable": true, "beta_regularizer": null, "beta_initializer": {"class_name": "Zeros", "config": {}}, "gamma_regularizer": null, "scale": true, "moving_mean_initializer": {"class_name": "Zeros", "config": {}}, "axis": -1, "beta_constraint": null, "momentum": 0.99, "moving_variance_initializer": {"class_name": "Ones", "config": {}}, "name": "batch_normalization_90", "epsilon": 0.001, "center": true, "gamma_constraint": null, "gamma_initializer": {"class_name": "Ones", "config": {}}}}, {"class_name": "Activation", "inbound_nodes": [[["batch_normalization_90", 0, 0, {}]]], "name": "activation_90", "config": {"trainable": true, "name": "activation_90", "activation": "relu"}}, {"class_name": "Conv2D", "inbound_nodes": [[["activation_90", 0, 0, {}]]], "name": "conv2d_93", "config": {"trainable": true, "data_format": "channels_last", "bias_constraint": null, "bias_regularizer": null, "use_bias": true, "bias_initializer": {"class_name": "Zeros", "config": {}}, "filters": 64, "kernel_initializer": {"class_name": "VarianceScaling", "config": {"seed": null, "distribution": "normal", "mode": "fan_in", "scale": 2.0}}, "padding": "same", "dilation_rate": [1, 1], "kernel_regularizer": {"class_name": "L1L2", "config": {"l2": 9.999999747378752e-05, "l1": 0.0}}, "kernel_size": [3, 3], "kernel_constraint": null, "name": "conv2d_93", "activity_regularizer": null, "strides": [1, 1], "activation": "linear"}}, {"class_name": "BatchNormalization", "inbound_nodes": [[["conv2d_93", 0, 0, {}]]], "name": "batch_normalization_91", "config": {"trainable": true, "beta_regularizer": null, "beta_initializer": {"class_name": "Zeros", "config": {}}, "gamma_regularizer": null, "scale": true, "moving_mean_initializer": {"class_name": "Zeros", "config": {}}, "axis": -1, "beta_constraint": null, "momentum": 0.99, "moving_variance_initializer": {"class_name": "Ones", "config": {}}, "name": "batch_normalization_91", "epsilon": 0.001, "center": true, "gamma_constraint": null, "gamma_initializer": {"class_name": "Ones", "config": {}}}}, {"class_name": "Add", "inbound_nodes": [[["activation_89", 0, 0, {}], ["batch_normalization_91", 0, 0, {}]]], "name": "add_45", "config": {"trainable": true, "name": "add_45"}}, {"class_name": "Activation", "inbound_nodes": [[["add_45", 0, 0, {}]]], "name": "activation_91", "config": {"trainable": true, "name": "activation_91", "activation": "relu"}}, {"class_name": "Conv2D", "inbound_nodes": [[["activation_91", 0, 0, {}]]], "name": "conv2d_94", "config": {"trainable": true, "data_format": "channels_last", "bias_constraint": null, "bias_regularizer": null, "use_bias": true, "bias_initializer": {"class_name": "Zeros", "config": {}}, "filters": 64, "kernel_initializer": {"class_name": "VarianceScaling", "config": {"seed": null, "distribution": "normal", "mode": "fan_in", "scale": 2.0}}, "padding": "same", "dilation_rate": [1, 1], "kernel_regularizer": {"class_name": "L1L2", "config": {"l2": 9.999999747378752e-05, "l1": 0.0}}, "kernel_size": [3, 3], "kernel_constraint": null, "name": "conv2d_94", "activity_regularizer": null, "strides": [1, 1], "activation": "linear"}}, {"class_name": "BatchNormalization", "inbound_nodes": [[["conv2d_94", 0, 0, {}]]], "name": "batch_normalization_92", "config": {"trainable": true, "beta_regularizer": null, "beta_initializer": {"class_name": "Zeros", "config": {}}, "gamma_regularizer": null, "scale": true, "moving_mean_initializer": {"class_name": "Zeros", "config": {}}, "axis": -1, "beta_constraint": null, "momentum": 0.99, "moving_variance_initializer": {"class_name": "Ones", "config": {}}, "name": "batch_normalization_92", "epsilon": 0.001, "center": true, "gamma_constraint": null, "gamma_initializer": {"class_name": "Ones", "config": {}}}}, {"class_name": "Activation", "inbound_nodes": [[["batch_normalization_92", 0, 0, {}]]], "name": "activation_92", "config": {"trainable": true, "name": "activation_92", "activation": "relu"}}, {"class_name": "Conv2D", "inbound_nodes": [[["activation_92", 0, 0, {}]]], "name": "conv2d_95", "config": {"trainable": true, "data_format": "channels_last", "bias_constraint": null, "bias_regularizer": null, "use_bias": true, "bias_initializer": {"class_name": "Zeros", "config": {}}, "filters": 64, "kernel_initializer": {"class_name": "VarianceScaling", "config": {"seed": null, "distribution": "normal", "mode": "fan_in", "scale": 2.0}}, "padding": "same", "dilation_rate": [1, 1], "kernel_regularizer": {"class_name": "L1L2", "config": {"l2": 9.999999747378752e-05, "l1": 0.0}}, "kernel_size": [3, 3], "kernel_constraint": null, "name": "conv2d_95", "activity_regularizer": null, "strides": [1, 1], "activation": "linear"}}, {"class_name": "BatchNormalization", "inbound_nodes": [[["conv2d_95", 0, 0, {}]]], "name": "batch_normalization_93", "config": {"trainable": true, "beta_regularizer": null, "beta_initializer": {"class_name": "Zeros", "config": {}}, "gamma_regularizer": null, "scale": true, "moving_mean_initializer": {"class_name": "Zeros", "config": {}}, "axis": -1, "beta_constraint": null, "momentum": 0.99, "moving_variance_initializer": {"class_name": "Ones", "config": {}}, "name": "batch_normalization_93", "epsilon": 0.001, "center": true, "gamma_constraint": null, "gamma_initializer": {"class_name": "Ones", "config": {}}}}, {"class_name": "Add", "inbound_nodes": [[["activation_91", 0, 0, {}], ["batch_normalization_93", 0, 0, {}]]], "name": "add_46", "config": {"trainable": true, "name": "add_46"}}, {"class_name": "Activation", "inbound_nodes": [[["add_46", 0, 0, {}]]], "name": "activation_93", "config": {"trainable": true, "name": "activation_93", "activation": "relu"}}, {"class_name": "Conv2D", "inbound_nodes": [[["activation_93", 0, 0, {}]]], "name": "conv2d_96", "config": {"trainable": true, "data_format": "channels_last", "bias_constraint": null, "bias_regularizer": null, "use_bias": true, "bias_initializer": {"class_name": "Zeros", "config": {}}, "filters": 64, "kernel_initializer": {"class_name": "VarianceScaling", "config": {"seed": null, "distribution": "normal", "mode": "fan_in", "scale": 2.0}}, "padding": "same", "dilation_rate": [1, 1], "kernel_regularizer": {"class_name": "L1L2", "config": {"l2": 9.999999747378752e-05, "l1": 0.0}}, "kernel_size": [3, 3], "kernel_constraint": null, "name": "conv2d_96", "activity_regularizer": null, "strides": [1, 1], "activation": "linear"}}, {"class_name": "BatchNormalization", "inbound_nodes": [[["conv2d_96", 0, 0, {}]]], "name": "batch_normalization_94", "config": {"trainable": true, "beta_regularizer": null, "beta_initializer": {"class_name": "Zeros", "config": {}}, "gamma_regularizer": null, "scale": true, "moving_mean_initializer": {"class_name": "Zeros", "config": {}}, "axis": -1, "beta_constraint": null, "momentum": 0.99, "moving_variance_initializer": {"class_name": "Ones", "config": {}}, "name": "batch_normalization_94", "epsilon": 0.001, "center": true, "gamma_constraint": null, "gamma_initializer": {"class_name": "Ones", "config": {}}}}, {"class_name": "Activation", "inbound_nodes": [[["batch_normalization_94", 0, 0, {}]]], "name": "activation_94", "config": {"trainable": true, "name": "activation_94", "activation": "relu"}}, {"class_name": "Conv2D", "inbound_nodes": [[["activation_94", 0, 0, {}]]], "name": "conv2d_97", "config": {"trainable": true, "data_format": "channels_last", "bias_constraint": null, "bias_regularizer": null, "use_bias": true, "bias_initializer": {"class_name": "Zeros", "config": {}}, "filters": 64, "kernel_initializer": {"class_name": "VarianceScaling", "config": {"seed": null, "distribution": "normal", "mode": "fan_in", "scale": 2.0}}, "padding": "same", "dilation_rate": [1, 1], "kernel_regularizer": {"class_name": "L1L2", "config": {"l2": 9.999999747378752e-05, "l1": 0.0}}, "kernel_size": [3, 3], "kernel_constraint": null, "name": "conv2d_97", "activity_regularizer": null, "strides": [1, 1], "activation": "linear"}}, {"class_name": "BatchNormalization", "inbound_nodes": [[["conv2d_97", 0, 0, {}]]], "name": "batch_normalization_95", "config": {"trainable": true, "beta_regularizer": null, "beta_initializer": {"class_name": "Zeros", "config": {}}, "gamma_regularizer": null, "scale": true, "moving_mean_initializer": {"class_name": "Zeros", "config": {}}, "axis": -1, "beta_constraint": null, "momentum": 0.99, "moving_variance_initializer": {"class_name": "Ones", "config": {}}, "name": "batch_normalization_95", "epsilon": 0.001, "center": true, "gamma_constraint": null, "gamma_initializer": {"class_name": "Ones", "config": {}}}}, {"class_name": "Add", "inbound_nodes": [[["activation_93", 0, 0, {}], ["batch_normalization_95", 0, 0, {}]]], "name": "add_47", "config": {"trainable": true, "name": "add_47"}}, {"class_name": "Activation", "inbound_nodes": [[["add_47", 0, 0, {}]]], "name": "activation_95", "config": {"trainable": true, "name": "activation_95", "activation": "relu"}}, {"class_name": "Conv2D", "inbound_nodes": [[["activation_95", 0, 0, {}]]], "name": "conv2d_98", "config": {"trainable": true, "data_format": "channels_last", "bias_constraint": null, "bias_regularizer": null, "use_bias": true, "bias_initializer": {"class_name": "Zeros", "config": {}}, "filters": 64, "kernel_initializer": {"class_name": "VarianceScaling", "config": {"seed": null, "distribution": "normal", "mode": "fan_in", "scale": 2.0}}, "padding": "same", "dilation_rate": [1, 1], "kernel_regularizer": {"class_name": "L1L2", "config": {"l2": 9.999999747378752e-05, "l1": 0.0}}, "kernel_size": [3, 3], "kernel_constraint": null, "name": "conv2d_98", "activity_regularizer": null, "strides": [1, 1], "activation": "linear"}}, {"class_name": "BatchNormalization", "inbound_nodes": [[["conv2d_98", 0, 0, {}]]], "name": "batch_normalization_96", "config": {"trainable": true, "beta_regularizer": null, "beta_initializer": {"class_name": "Zeros", "config": {}}, "gamma_regularizer": null, "scale": true, "moving_mean_initializer": {"class_name": "Zeros", "config": {}}, "axis": -1, "beta_constraint": null, "momentum": 0.99, "moving_variance_initializer": {"class_name": "Ones", "config": {}}, "name": "batch_normalization_96", "epsilon": 0.001, "center": true, "gamma_constraint": null, "gamma_initializer": {"class_name": "Ones", "config": {}}}}, {"class_name": "Activation", "inbound_nodes": [[["batch_normalization_96", 0, 0, {}]]], "name": "activation_96", "config": {"trainable": true, "name": "activation_96", "activation": "relu"}}, {"class_name": "Conv2D", "inbound_nodes": [[["activation_96", 0, 0, {}]]], "name": "conv2d_99", "config": {"trainable": true, "data_format": "channels_last", "bias_constraint": null, "bias_regularizer": null, "use_bias": true, "bias_initializer": {"class_name": "Zeros", "config": {}}, "filters": 64, "kernel_initializer": {"class_name": "VarianceScaling", "config": {"seed": null, "distribution": "normal", "mode": "fan_in", "scale": 2.0}}, "padding": "same", "dilation_rate": [1, 1], "kernel_regularizer": {"class_name": "L1L2", "config": {"l2": 9.999999747378752e-05, "l1": 0.0}}, "kernel_size": [3, 3], "kernel_constraint": null, "name": "conv2d_99", "activity_regularizer": null, "strides": [1, 1], "activation": "linear"}}, {"class_name": "BatchNormalization", "inbound_nodes": [[["conv2d_99", 0, 0, {}]]], "name": "batch_normalization_97", "config": {"trainable": true, "beta_regularizer": null, "beta_initializer": {"class_name": "Zeros", "config": {}}, "gamma_regularizer": null, "scale": true, "moving_mean_initializer": {"class_name": "Zeros", "config": {}}, "axis": -1, "beta_constraint": null, "momentum": 0.99, "moving_variance_initializer": {"class_name": "Ones", "config": {}}, "name": "batch_normalization_97", "epsilon": 0.001, "center": true, "gamma_constraint": null, "gamma_initializer": {"class_name": "Ones", "config": {}}}}, {"class_name": "Add", "inbound_nodes": [[["activation_95", 0, 0, {}], ["batch_normalization_97", 0, 0, {}]]], "name": "add_48", "config": {"trainable": true, "name": "add_48"}}, {"class_name": "Activation", "inbound_nodes": [[["add_48", 0, 0, {}]]], "name": "activation_97", "config": {"trainable": true, "name": "activation_97", "activation": "relu"}}, {"class_name": "Conv2D", "inbound_nodes": [[["activation_97", 0, 0, {}]]], "name": "conv2d_100", "config": {"trainable": true, "data_format": "channels_last", "bias_constraint": null, "bias_regularizer": null, "use_bias": true, "bias_initializer": {"class_name": "Zeros", "config": {}}, "filters": 64, "kernel_initializer": {"class_name": "VarianceScaling", "config": {"seed": null, "distribution": "normal", "mode": "fan_in", "scale": 2.0}}, "padding": "same", "dilation_rate": [1, 1], "kernel_regularizer": {"class_name": "L1L2", "config": {"l2": 9.999999747378752e-05, "l1": 0.0}}, "kernel_size": [3, 3], "kernel_constraint": null, "name": "conv2d_100", "activity_regularizer": null, "strides": [1, 1], "activation": "linear"}}, {"class_name": "BatchNormalization", "inbound_nodes": [[["conv2d_100", 0, 0, {}]]], "name": "batch_normalization_98", "config": {"trainable": true, "beta_regularizer": null, "beta_initializer": {"class_name": "Zeros", "config": {}}, "gamma_regularizer": null, "scale": true, "moving_mean_initializer": {"class_name": "Zeros", "config": {}}, "axis": -1, "beta_constraint": null, "momentum": 0.99, "moving_variance_initializer": {"class_name": "Ones", "config": {}}, "name": "batch_normalization_98", "epsilon": 0.001, "center": true, "gamma_constraint": null, "gamma_initializer": {"class_name": "Ones", "config": {}}}}, {"class_name": "Activation", "inbound_nodes": [[["batch_normalization_98", 0, 0, {}]]], "name": "activation_98", "config": {"trainable": true, "name": "activation_98", "activation": "relu"}}, {"class_name": "Conv2D", "inbound_nodes": [[["activation_98", 0, 0, {}]]], "name": "conv2d_101", "config": {"trainable": true, "data_format": "channels_last", "bias_constraint": null, "bias_regularizer": null, "use_bias": true, "bias_initializer": {"class_name": "Zeros", "config": {}}, "filters": 64, "kernel_initializer": {"class_name": "VarianceScaling", "config": {"seed": null, "distribution": "normal", "mode": "fan_in", "scale": 2.0}}, "padding": "same", "dilation_rate": [1, 1], "kernel_regularizer": {"class_name": "L1L2", "config": {"l2": 9.999999747378752e-05, "l1": 0.0}}, "kernel_size": [3, 3], "kernel_constraint": null, "name": "conv2d_101", "activity_regularizer": null, "strides": [1, 1], "activation": "linear"}}, {"class_name": "BatchNormalization", "inbound_nodes": [[["conv2d_101", 0, 0, {}]]], "name": "batch_normalization_99", "config": {"trainable": true, "beta_regularizer": null, "beta_initializer": {"class_name": "Zeros", "config": {}}, "gamma_regularizer": null, "scale": true, "moving_mean_initializer": {"class_name": "Zeros", "config": {}}, "axis": -1, "beta_constraint": null, "momentum": 0.99, "moving_variance_initializer": {"class_name": "Ones", "config": {}}, "name": "batch_normalization_99", "epsilon": 0.001, "center": true, "gamma_constraint": null, "gamma_initializer": {"class_name": "Ones", "config": {}}}}, {"class_name": "Add", "inbound_nodes": [[["activation_97", 0, 0, {}], ["batch_normalization_99", 0, 0, {}]]], "name": "add_49", "config": {"trainable": true, "name": "add_49"}}, {"class_name": "Activation", "inbound_nodes": [[["add_49", 0, 0, {}]]], "name": "activation_99", "config": {"trainable": true, "name": "activation_99", "activation": "relu"}}, {"class_name": "Conv2D", "inbound_nodes": [[["activation_99", 0, 0, {}]]], "name": "conv2d_102", "config": {"trainable": true, "data_format": "channels_last", "bias_constraint": null, "bias_regularizer": null, "use_bias": true, "bias_initializer": {"class_name": "Zeros", "config": {}}, "filters": 64, "kernel_initializer": {"class_name": "VarianceScaling", "config": {"seed": null, "distribution": "normal", "mode": "fan_in", "scale": 2.0}}, "padding": "same", "dilation_rate": [1, 1], "kernel_regularizer": {"class_name": "L1L2", "config": {"l2": 9.999999747378752e-05, "l1": 0.0}}, "kernel_size": [3, 3], "kernel_constraint": null, "name": "conv2d_102", "activity_regularizer": null, "strides": [1, 1], "activation": "linear"}}, {"class_name": "BatchNormalization", "inbound_nodes": [[["conv2d_102", 0, 0, {}]]], "name": "batch_normalization_100", "config": {"trainable": true, "beta_regularizer": null, "beta_initializer": {"class_name": "Zeros", "config": {}}, "gamma_regularizer": null, "scale": true, "moving_mean_initializer": {"class_name": "Zeros", "config": {}}, "axis": -1, "beta_constraint": null, "momentum": 0.99, "moving_variance_initializer": {"class_name": "Ones", "config": {}}, "name": "batch_normalization_100", "epsilon": 0.001, "center": true, "gamma_constraint": null, "gamma_initializer": {"class_name": "Ones", "config": {}}}}, {"class_name": "Activation", "inbound_nodes": [[["batch_normalization_100", 0, 0, {}]]], "name": "activation_100", "config": {"trainable": true, "name": "activation_100", "activation": "relu"}}, {"class_name": "Conv2D", "inbound_nodes": [[["activation_100", 0, 0, {}]]], "name": "conv2d_103", "config": {"trainable": true, "data_format": "channels_last", "bias_constraint": null, "bias_regularizer": null, "use_bias": true, "bias_initializer": {"class_name": "Zeros", "config": {}}, "filters": 64, "kernel_initializer": {"class_name": "VarianceScaling", "config": {"seed": null, "distribution": "normal", "mode": "fan_in", "scale": 2.0}}, "padding": "same", "dilation_rate": [1, 1], "kernel_regularizer": {"class_name": "L1L2", "config": {"l2": 9.999999747378752e-05, "l1": 0.0}}, "kernel_size": [3, 3], "kernel_constraint": null, "name": "conv2d_103", "activity_regularizer": null, "strides": [1, 1], "activation": "linear"}}, {"class_name": "BatchNormalization", "inbound_nodes": [[["conv2d_103", 0, 0, {}]]], "name": "batch_normalization_101", "config": {"trainable": true, "beta_regularizer": null, "beta_initializer": {"class_name": "Zeros", "config": {}}, "gamma_regularizer": null, "scale": true, "moving_mean_initializer": {"class_name": "Zeros", "config": {}}, "axis": -1, "beta_constraint": null, "momentum": 0.99, "moving_variance_initializer": {"class_name": "Ones", "config": {}}, "name": "batch_normalization_101", "epsilon": 0.001, "center": true, "gamma_constraint": null, "gamma_initializer": {"class_name": "Ones", "config": {}}}}, {"class_name": "Add", "inbound_nodes": [[["activation_99", 0, 0, {}], ["batch_normalization_101", 0, 0, {}]]], "name": "add_50", "config": {"trainable": true, "name": "add_50"}}, {"class_name": "Activation", "inbound_nodes": [[["add_50", 0, 0, {}]]], "name": "activation_101", "config": {"trainable": true, "name": "activation_101", "activation": "relu"}}, {"class_name": "Conv2D", "inbound_nodes": [[["activation_101", 0, 0, {}]]], "name": "conv2d_104", "config": {"trainable": true, "data_format": "channels_last", "bias_constraint": null, "bias_regularizer": null, "use_bias": true, "bias_initializer": {"class_name": "Zeros", "config": {}}, "filters": 64, "kernel_initializer": {"class_name": "VarianceScaling", "config": {"seed": null, "distribution": "normal", "mode": "fan_in", "scale": 2.0}}, "padding": "same", "dilation_rate": [1, 1], "kernel_regularizer": {"class_name": "L1L2", "config": {"l2": 9.999999747378752e-05, "l1": 0.0}}, "kernel_size": [3, 3], "kernel_constraint": null, "name": "conv2d_104", "activity_regularizer": null, "strides": [1, 1], "activation": "linear"}}, {"class_name": "BatchNormalization", "inbound_nodes": [[["conv2d_104", 0, 0, {}]]], "name": "batch_normalization_102", "config": {"trainable": true, "beta_regularizer": null, "beta_initializer": {"class_name": "Zeros", "config": {}}, "gamma_regularizer": null, "scale": true, "moving_mean_initializer": {"class_name": "Zeros", "config": {}}, "axis": -1, "beta_constraint": null, "momentum": 0.99, "moving_variance_initializer": {"class_name": "Ones", "config": {}}, "name": "batch_normalization_102", "epsilon": 0.001, "center": true, "gamma_constraint": null, "gamma_initializer": {"class_name": "Ones", "config": {}}}}, {"class_name": "Activation", "inbound_nodes": [[["batch_normalization_102", 0, 0, {}]]], "name": "activation_102", "config": {"trainable": true, "name": "activation_102", "activation": "relu"}}, {"class_name": "Conv2D", "inbound_nodes": [[["activation_102", 0, 0, {}]]], "name": "conv2d_105", "config": {"trainable": true, "data_format": "channels_last", "bias_constraint": null, "bias_regularizer": null, "use_bias": true, "bias_initializer": {"class_name": "Zeros", "config": {}}, "filters": 64, "kernel_initializer": {"class_name": "VarianceScaling", "config": {"seed": null, "distribution": "normal", "mode": "fan_in", "scale": 2.0}}, "padding": "same", "dilation_rate": [1, 1], "kernel_regularizer": {"class_name": "L1L2", "config": {"l2": 9.999999747378752e-05, "l1": 0.0}}, "kernel_size": [3, 3], "kernel_constraint": null, "name": "conv2d_105", "activity_regularizer": null, "strides": [1, 1], "activation": "linear"}}, {"class_name": "BatchNormalization", "inbound_nodes": [[["conv2d_105", 0, 0, {}]]], "name": "batch_normalization_103", "config": {"trainable": true, "beta_regularizer": null, "beta_initializer": {"class_name": "Zeros", "config": {}}, "gamma_regularizer": null, "scale": true, "moving_mean_initializer": {"class_name": "Zeros", "config": {}}, "axis": -1, "beta_constraint": null, "momentum": 0.99, "moving_variance_initializer": {"class_name": "Ones", "config": {}}, "name": "batch_normalization_103", "epsilon": 0.001, "center": true, "gamma_constraint": null, "gamma_initializer": {"class_name": "Ones", "config": {}}}}, {"class_name": "Add", "inbound_nodes": [[["activation_101", 0, 0, {}], ["batch_normalization_103", 0, 0, {}]]], "name": "add_51", "config": {"trainable": true, "name": "add_51"}}, {"class_name": "Activation", "inbound_nodes": [[["add_51", 0, 0, {}]]], "name": "activation_103", "config": {"trainable": true, "name": "activation_103", "activation": "relu"}}, {"class_name": "Conv2D", "inbound_nodes": [[["activation_103", 0, 0, {}]]], "name": "conv2d_106", "config": {"trainable": true, "data_format": "channels_last", "bias_constraint": null, "bias_regularizer": null, "use_bias": true, "bias_initializer": {"class_name": "Zeros", "config": {}}, "filters": 64, "kernel_initializer": {"class_name": "VarianceScaling", "config": {"seed": null, "distribution": "normal", "mode": "fan_in", "scale": 2.0}}, "padding": "same", "dilation_rate": [1, 1], "kernel_regularizer": {"class_name": "L1L2", "config": {"l2": 9.999999747378752e-05, "l1": 0.0}}, "kernel_size": [3, 3], "kernel_constraint": null, "name": "conv2d_106", "activity_regularizer": null, "strides": [1, 1], "activation": "linear"}}, {"class_name": "BatchNormalization", "inbound_nodes": [[["conv2d_106", 0, 0, {}]]], "name": "batch_normalization_104", "config": {"trainable": true, "beta_regularizer": null, "beta_initializer": {"class_name": "Zeros", "config": {}}, "gamma_regularizer": null, "scale": true, "moving_mean_initializer": {"class_name": "Zeros", "config": {}}, "axis": -1, "beta_constraint": null, "momentum": 0.99, "moving_variance_initializer": {"class_name": "Ones", "config": {}}, "name": "batch_normalization_104", "epsilon": 0.001, "center": true, "gamma_constraint": null, "gamma_initializer": {"class_name": "Ones", "config": {}}}}, {"class_name": "Activation", "inbound_nodes": [[["batch_normalization_104", 0, 0, {}]]], "name": "activation_104", "config": {"trainable": true, "name": "activation_104", "activation": "relu"}}, {"class_name": "Conv2D", "inbound_nodes": [[["activation_104", 0, 0, {}]]], "name": "conv2d_107", "config": {"trainable": true, "data_format": "channels_last", "bias_constraint": null, "bias_regularizer": null, "use_bias": true, "bias_initializer": {"class_name": "Zeros", "config": {}}, "filters": 64, "kernel_initializer": {"class_name": "VarianceScaling", "config": {"seed": null, "distribution": "normal", "mode": "fan_in", "scale": 2.0}}, "padding": "same", "dilation_rate": [1, 1], "kernel_regularizer": {"class_name": "L1L2", "config": {"l2": 9.999999747378752e-05, "l1": 0.0}}, "kernel_size": [3, 3], "kernel_constraint": null, "name": "conv2d_107", "activity_regularizer": null, "strides": [1, 1], "activation": "linear"}}, {"class_name": "BatchNormalization", "inbound_nodes": [[["conv2d_107", 0, 0, {}]]], "name": "batch_normalization_105", "config": {"trainable": true, "beta_regularizer": null, "beta_initializer": {"class_name": "Zeros", "config": {}}, "gamma_regularizer": null, "scale": true, "moving_mean_initializer": {"class_name": "Zeros", "config": {}}, "axis": -1, "beta_constraint": null, "momentum": 0.99, "moving_variance_initializer": {"class_name": "Ones", "config": {}}, "name": "batch_normalization_105", "epsilon": 0.001, "center": true, "gamma_constraint": null, "gamma_initializer": {"class_name": "Ones", "config": {}}}}, {"class_name": "Add", "inbound_nodes": [[["activation_103", 0, 0, {}], ["batch_normalization_105", 0, 0, {}]]], "name": "add_52", "config": {"trainable": true, "name": "add_52"}}, {"class_name": "Activation", "inbound_nodes": [[["add_52", 0, 0, {}]]], "name": "activation_105", "config": {"trainable": true, "name": "activation_105", "activation": "relu"}}, {"class_name": "Conv2D", "inbound_nodes": [[["activation_105", 0, 0, {}]]], "name": "conv2d_108", "config": {"trainable": true, "data_format": "channels_last", "bias_constraint": null, "bias_regularizer": null, "use_bias": true, "bias_initializer": {"class_name": "Zeros", "config": {}}, "filters": 64, "kernel_initializer": {"class_name": "VarianceScaling", "config": {"seed": null, "distribution": "normal", "mode": "fan_in", "scale": 2.0}}, "padding": "same", "dilation_rate": [1, 1], "kernel_regularizer": {"class_name": "L1L2", "config": {"l2": 9.999999747378752e-05, "l1": 0.0}}, "kernel_size": [3, 3], "kernel_constraint": null, "name": "conv2d_108", "activity_regularizer": null, "strides": [1, 1], "activation": "linear"}}, {"class_name": "BatchNormalization", "inbound_nodes": [[["conv2d_108", 0, 0, {}]]], "name": "batch_normalization_106", "config": {"trainable": true, "beta_regularizer": null, "beta_initializer": {"class_name": "Zeros", "config": {}}, "gamma_regularizer": null, "scale": true, "moving_mean_initializer": {"class_name": "Zeros", "config": {}}, "axis": -1, "beta_constraint": null, "momentum": 0.99, "moving_variance_initializer": {"class_name": "Ones", "config": {}}, "name": "batch_normalization_106", "epsilon": 0.001, "center": true, "gamma_constraint": null, "gamma_initializer": {"class_name": "Ones", "config": {}}}}, {"class_name": "Activation", "inbound_nodes": [[["batch_normalization_106", 0, 0, {}]]], "name": "activation_106", "config": {"trainable": true, "name": "activation_106", "activation": "relu"}}, {"class_name": "Conv2D", "inbound_nodes": [[["activation_106", 0, 0, {}]]], "name": "conv2d_109", "config": {"trainable": true, "data_format": "channels_last", "bias_constraint": null, "bias_regularizer": null, "use_bias": true, "bias_initializer": {"class_name": "Zeros", "config": {}}, "filters": 64, "kernel_initializer": {"class_name": "VarianceScaling", "config": {"seed": null, "distribution": "normal", "mode": "fan_in", "scale": 2.0}}, "padding": "same", "dilation_rate": [1, 1], "kernel_regularizer": {"class_name": "L1L2", "config": {"l2": 9.999999747378752e-05, "l1": 0.0}}, "kernel_size": [3, 3], "kernel_constraint": null, "name": "conv2d_109", "activity_regularizer": null, "strides": [1, 1], "activation": "linear"}}, {"class_name": "BatchNormalization", "inbound_nodes": [[["conv2d_109", 0, 0, {}]]], "name": "batch_normalization_107", "config": {"trainable": true, "beta_regularizer": null, "beta_initializer": {"class_name": "Zeros", "config": {}}, "gamma_regularizer": null, "scale": true, "moving_mean_initializer": {"class_name": "Zeros", "config": {}}, "axis": -1, "beta_constraint": null, "momentum": 0.99, "moving_variance_initializer": {"class_name": "Ones", "config": {}}, "name": "batch_normalization_107", "epsilon": 0.001, "center": true, "gamma_constraint": null, "gamma_initializer": {"class_name": "Ones", "config": {}}}}, {"class_name": "Add", "inbound_nodes": [[["activation_105", 0, 0, {}], ["batch_normalization_107", 0, 0, {}]]], "name": "add_53", "config": {"trainable": true, "name": "add_53"}}, {"class_name": "Activation", "inbound_nodes": [[["add_53", 0, 0, {}]]], "name": "activation_107", "config": {"trainable": true, "name": "activation_107", "activation": "relu"}}, {"class_name": "Conv2D", "inbound_nodes": [[["activation_107", 0, 0, {}]]], "name": "conv2d_110", "config": {"trainable": true, "data_format": "channels_last", "bias_constraint": null, "bias_regularizer": null, "use_bias": true, "bias_initializer": {"class_name": "Zeros", "config": {}}, "filters": 64, "kernel_initializer": {"class_name": "VarianceScaling", "config": {"seed": null, "distribution": "normal", "mode": "fan_in", "scale": 2.0}}, "padding": "same", "dilation_rate": [1, 1], "kernel_regularizer": {"class_name": "L1L2", "config": {"l2": 9.999999747378752e-05, "l1": 0.0}}, "kernel_size": [3, 3], "kernel_constraint": null, "name": "conv2d_110", "activity_regularizer": null, "strides": [1, 1], "activation": "linear"}}, {"class_name": "BatchNormalization", "inbound_nodes": [[["conv2d_110", 0, 0, {}]]], "name": "batch_normalization_108", "config": {"trainable": true, "beta_regularizer": null, "beta_initializer": {"class_name": "Zeros", "config": {}}, "gamma_regularizer": null, "scale": true, "moving_mean_initializer": {"class_name": "Zeros", "config": {}}, "axis": -1, "beta_constraint": null, "momentum": 0.99, "moving_variance_initializer": {"class_name": "Ones", "config": {}}, "name": "batch_normalization_108", "epsilon": 0.001, "center": true, "gamma_constraint": null, "gamma_initializer": {"class_name": "Ones", "config": {}}}}, {"class_name": "Activation", "inbound_nodes": [[["batch_normalization_108", 0, 0, {}]]], "name": "activation_108", "config": {"trainable": true, "name": "activation_108", "activation": "relu"}}, {"class_name": "Conv2D", "inbound_nodes": [[["activation_108", 0, 0, {}]]], "name": "conv2d_111", "config": {"trainable": true, "data_format": "channels_last", "bias_constraint": null, "bias_regularizer": null, "use_bias": true, "bias_initializer": {"class_name": "Zeros", "config": {}}, "filters": 64, "kernel_initializer": {"class_name": "VarianceScaling", "config": {"seed": null, "distribution": "normal", "mode": "fan_in", "scale": 2.0}}, "padding": "same", "dilation_rate": [1, 1], "kernel_regularizer": {"class_name": "L1L2", "config": {"l2": 9.999999747378752e-05, "l1": 0.0}}, "kernel_size": [3, 3], "kernel_constraint": null, "name": "conv2d_111", "activity_regularizer": null, "strides": [1, 1], "activation": "linear"}}, {"class_name": "BatchNormalization", "inbound_nodes": [[["conv2d_111", 0, 0, {}]]], "name": "batch_normalization_109", "config": {"trainable": true, "beta_regularizer": null, "beta_initializer": {"class_name": "Zeros", "config": {}}, "gamma_regularizer": null, "scale": true, "moving_mean_initializer": {"class_name": "Zeros", "config": {}}, "axis": -1, "beta_constraint": null, "momentum": 0.99, "moving_variance_initializer": {"class_name": "Ones", "config": {}}, "name": "batch_normalization_109", "epsilon": 0.001, "center": true, "gamma_constraint": null, "gamma_initializer": {"class_name": "Ones", "config": {}}}}, {"class_name": "Add", "inbound_nodes": [[["activation_107", 0, 0, {}], ["batch_normalization_109", 0, 0, {}]]], "name": "add_54", "config": {"trainable": true, "name": "add_54"}}, {"class_name": "Activation", "inbound_nodes": [[["add_54", 0, 0, {}]]], "name": "activation_109", "config": {"trainable": true, "name": "activation_109", "activation": "relu"}}, {"class_name": "AveragePooling2D", "inbound_nodes": [[["activation_109", 0, 0, {}]]], "name": "average_pooling2d_1", "config": {"trainable": true, "padding": "valid", "data_format": "channels_last", "pool_size": [8, 8], "name": "average_pooling2d_1", "strides": [8, 8]}}, {"class_name": "Flatten", "inbound_nodes": [[["average_pooling2d_1", 0, 0, {}]]], "name": "flatten_1", "config": {"trainable": true, "name": "flatten_1"}}, {"class_name": "Dense", "inbound_nodes": [[["flatten_1", 0, 0, {}]]], "name": "dense_1", "config": {"trainable": true, "activation": "softmax", "bias_constraint": null, "bias_regularizer": null, "use_bias": true, "bias_initializer": {"class_name": "Zeros", "config": {}}, "units": 10, "kernel_initializer": {"class_name": "VarianceScaling", "config": {"seed": null, "distribution": "normal", "mode": "fan_in", "scale": 2.0}}, "kernel_regularizer": null, "kernel_constraint": null, "name": "dense_1", "activity_regularizer": null}}], "name": "model_1", "input_layers": [["input_1", 0, 0]], "output_layers": [["dense_1", 0, 0]]}, "keras_version": "2.1.2", "backend": "tensorflow"}